results/checkpoints/egnn_baseline.pth (torch, 420317 bytes, 44 tensors)

h_init.weight f4 [64, 1]
00000000: be77 15bf 3c57 943e 9adf 9abe 2402 a1bc
00000010: d25c 1cbf 7bcf 333f 99b3 22bf b8cc 1f3e
00000020: e855 e53e 4b1e 933b 97bd 673f 3536 5d3e
00000030: 4941 143f 42e5 36bf 15be 43bf 41fe 983e
00000040: ad90 aabd f254 e13e bf33 473f 8a0b 54bf
00000050: fc42 de3c 9828 70be 95bc 75bf d9ea febe
00000060: 3ddb 8b3e 1b6a 833f 2a8f 243f 733f 093f
00000070: b2a9 10bf 5af2 663f e360 923e 0482 1c3f
00000080: c1b7 013f 3f44 4dbf 90ea 523e f112 03be
00000090: c0a5 3f3e 530c d73c 7ae3 9bbe c795 b5bd
000000a0: 1735 c0bd 69db 46bf 2192 94bd 245e 833d
000000b0: 3152 1cbe 74a6 023e 7941 053f d6e6 17bd
000000c0: a8a0 213f 1022 c9bd 1990 71bf b7d0 723f
000000d0: 5298 61bf 8668 53bf 1176 43bf 87a6 833e
000000e0: aa04 7b3e 5399 6f3f 1437 6bbf 5553 9a3d
000000f0: f936 15be 654f 033d 1a4f 69be 4371 683e
-0.5838584 0.28972805 -0.3024872 -0.019654341 -0.6107913 0.70238465 -0.63555294 0.15605438
0.44792104 0.004489695 0.90523666 0.2160271 0.5791212 -0.7144357 -0.7646192 0.2988148
-0.08328376 0.4401012 0.77813333 -0.8283011 0.02713155 -0.23452985 -0.9599088 -0.4978855
0.27315703 1.0266756 0.6428095 0.5361244 -0.56508934 0.9021355 0.28589544 0.6113589
0.5067101 -0.8018226 0.20597291 -0.12800194 0.18715572 0.026250994 -0.30446988 -0.088664584
-0.09385126 -0.77678543 -0.072544344 0.0641444 -0.15265729 0.1275881 0.5205303 -0.037085377
0.63135767 -0.0982095 -0.943605 0.94849724 -0.8812305 -0.82581365 -0.7635203 0.25712988
0.24513498 0.9359333 -0.9188092 0.075354256 -0.14571752 0.03205814 -0.22784081 0.22699456

h_init.bias f4 [64]
00000000: 56dc 22be f091 22bf 97c6 933e a765 1abf
00000010: 6d65 e6be e6fe ac3e ae90 483e d65e 6bbe
00000020: df44 343f 3d2f d13e 100d 05bf 6c94 c7bd
00000030: 7a54 383d 5ee8 423f b28f a6be dd55 f63e
00000040: 82d7 193d 85f7 1c3f 345e d83e 2e28 d73e
00000050: d2f5 13bf 7f6a 0c3f e310 123f 4b61 763f
00000060: 9817 313f 882a 6dbe 1f03 733f e35a acbe
00000070: 4c0f 4f3f ad10 f7be c8e5 19bf 268c bcbe
00000080: c5f9 42be bd01 3fbe 4e73 6fbf a585 193f
00000090: b105 a8bd adea 8dbd 597f f0be 5472 2b3f
000000a0: 227c 173f 8140 bfbd 33d8 9abd 3bfd cb3d
000000b0: 5696 493f 7277 dcbe 6539 643c 5e0c 293f
000000c0: 2a0c 59be 514f 6fbd 2eee fd3e 85f7 0c3f
000000d0: 5ee6 553f f9b9 aabe 604d 1fbf 71be bd3e
000000e0: f0af a1be 0cbb 4ebf e797 a6bc 4a0c 1ebe
000000f0: 7436 bfbc 299b babe 7f18 05bf e3a2 173f
-0.15904364 -0.6350393 0.2886245 -0.6031136 -0.44999257 0.33788222 0.19586441 -0.22985396
0.7041759 0.40856352 -0.51973057 -0.09745106 0.045002438 0.76135814 -0.32531506 0.48112383
0.03755904 0.61315185 0.4225937 0.42022842 -0.5779697 0.5485 0.5705702 0.9624221
0.69176626 -0.23160756 0.9492664 -0.3366309 0.80882716 -0.4825491 -0.60116243 -0.36825675
-0.19040592 -0.18653007 -0.93535316 0.5996955 -0.082042105 -0.069295265 -0.4697216 0.66971326
0.59173787 -0.09338475 -0.07560768 0.09960409 0.7874502 -0.4305988 0.0139297 0.66034496
-0.21196046 -0.05842525 0.4959578 0.55065185 0.8355464 -0.3334501 -0.6222744 0.37059358
-0.31579542 -0.8075416 -0.020336105 -0.15434375 -0.023341395 -0.36446503 -0.51990503 0.5923292

layers.0.edge_mlp.0.weight f4 [64, 131]
00000000: 8b13 56ba f6d5 10bd 479b 793b 6d3a 8cbd
00000010: 9bf2 523c 59f4 3c3d 44be 633d d231 ec3c
00000020: 8c0a 97bd a821 883d 5072 0139 868d b33c
00000030: 4bf5 1a3b 07d1 a1bd 2d2c 18bd 2643 033d
00000040: 6665 603d 3ce1 74bd 34f7 c1bd 659b 9bbc
00000050: a7f4 073c d824 66bd 16b4 243d cf3e 65bd
00000060: f4cf 6bbd b61a bdbd b140 173d 6b1c 873d
00000070: 67e9 143c fdca 21bd 787c 653d 12e6 06bb
00000080: dc2e 5fbd f54f 8a3d f765 ccbc d0eb a33c
00000090: 63b8 5b3d ecbc 803d e193 92bd d809 1b3d
000000a0: bcb3 1bbd cfc2 203c 8d25 b43d 6cbe 943d
000000b0: 11ab 3abd 9bc4 c33d 5e2a b1bd 1459 babd
000000c0: 4041 253c 1f2f 91bc 2c5f 29bd b4c8 5b3d
000000d0: 8455 503d 516c 6dbd 30cb c43c 2e46 92bd
000000e0: 2303 843c a629 313d 30b3 673d ca24 813d
000000f0: 62a1 403d 2cc2 8f3d f3e4 70bd 5c94 bdbd
00000100: cc02 583d 3455 0abd b2a3 25bd c45b ff3c
00000110: c6ba 36bd fd1d bfbc 5ecd 3e3b 7cbb 923c
00000120: e3e8 fc3c fe34 c1bd 8e47 f43b 6cb3 c73c
00000130: f01b 963d dddb b53b ee00 a93d 312b c0bd
00000140: 0b78 a2bd aa12 753d fa55 8abd 09d5 413c
00000150: 4299 ffbc b75b 2d3d 16bb 103d e292 8cbb
00000160: 9f38 d1bb 9737 9b3d 8cbb 26bd df0c 8c3c
00000170: cf9b 86bc 0430 b2bd 6ddf 82bd 703b 4cbd
00000180: 6d9e bbbd c280 113c 3f76 0fb8 2b99 b5bd
00000190: 8682 45bd 995a d63c 1c5e eabc 3e5f e33c
000001a0: a537 53bd 17a9 903d bd74 913c 901b 3fbd
000001b0: d597 8e3d 2ecf 623d 0261 65bc 52be 8cbd
000001c0: 2ade 3fbb 0e1a 9b3c 582c aabc ef27 8a3b
000001d0: 3bb5 83bd a1bf 93bd 0843 44bd d33d f9ba
000001e0: c37e 90bd ef57 813c 6542 233b 786f 203d
000001f0: ebe9 803d f2d2 11bb a86b 6b3d 55e0 1fbd
00000200: b35b bd3c cd56 9dbd ec5a 46bd 659a 983c
00000210: 71f0 463d 93c0 e73c f768 3c3d e075 993d
00000220: 2f01 b9bb ca42 8fbc 7a89 87bd 21b7 c2bc
00000230: a97e 98bd ae3b 9abb 2e40 b4bd c01b 823d
00000240: 5263 52bd 22d8 7d3d b239 923d 5844 783d
00000250: 58ce c7b9 2572 88bd 8f5e 203d 5b4b b83d
00000260: 3450 0e3d 3673 813c e5e7 adbd 4fa5 31bc
00000270: 57e9 42ba fcd2 c13c 2b13 1c3d 96bf f4bc
00000280: 1d70 543c b29d 02bd cc44 abbd e424 52bb
00000290: a8ab 98bd 7e34 b23d dc84 0abd e83a 92bd
000002a0: 9b10 a2bc 318c ccba 21f4 95bc ee37 7d3c
000002b0: d6f6 9cbc 0f4c bd3d b589 5fbd 0ea2 2f3c
000002c0: c337 3bbc 876f 143d 7f25 c5bd c9e4 2a3d
000002d0: 2476 ebbb 043f 97bd dcfc e3bb 6075 dfbc
000002e0: f1d8 093d 5d2f 8fbd 863c 91bc 97e4 203c
000002f0: 950c a23c 0f79 a73d 2791 e1bc ac53 9ebd
00000300: 9239 0a3d 8391 a53d 136d bebd 5604 953d
00000310: cb46 a63d 5d28 b53b 26d3 233d 5ea5 863d
00000320: 0c71 6d3d fbe2 1cbd d3d3 9f3d e959 2239
00000330: 3afc 1aba 1769 3c3b 59d5 9e3d e76d 483d
00000340: d0e1 8d3d 3b51 5d3d 3e8c 6fbd 05e4 92bc
00000350: 2923 0fbd 85de 36bc 850d a23d 1af2 943d
00000360: 3f7c c9bd bfaf 783c d891 5dbd 5455 75bd
00000370: 8cf6 903d 7a64 2cbd d59a bdbb 4ae4 163c
00000380: f270 a4bc ca30 b73d 23fd 2ebc 83d0 843c
00000390: d172 8b3d c3d9 c03d 88c7 8c3c 8876 a2bd
000003a0: 4dd2 983c 170b c6bc 6feb bbbb d1b4 eb3c
000003b0: 24c4 ddbc 7621 ac3d fee4 9c3d 1293 47bd
000003c0: f399 0f3d f651 8ebc c9ba 87bd 7125 6abd
000003d0: d3cc 0d3d f8e0 e8bc c0dc 6d3d 6c94 70bd
000003e0: b545 2abd f49a c23d 84d0 ce3c 8870 dbbc
000003f0: c28f f6bc 4b9d b9bc 18af 853d 907f 1a3d
-0.0008166364 -0.0353603 0.0038086937 -0.06847081 0.012875224 0.046131466 0.055601373 0.02883235
-0.073750585 0.066470444 0.00012344983 0.02191807 0.002364474 -0.07901197 -0.037151504 0.03204646
0.0547842 -0.059785113 -0.094709784 -0.018994996 0.008298076 -0.05618748 0.040210806 -0.055968102
-0.057571366 -0.0923361 0.03692693 0.06597217 0.009088851 -0.039500225 0.056026906 -0.002058391
-0.054488048 0.06753532 -0.024950964 0.020009905 0.05364264 0.06286034 -0.07157112 0.037851185
-0.038013205 0.009812071 0.08796225 0.072628826 -0.045573298 0.09558984 -0.08650659 -0.090990216
0.010086358 -0.017722664 -0.04135053 0.053658202 0.050862804 -0.057964627 0.024022669 -0.07142292
0.016114777 0.04325261 0.05656737 0.06305845 0.047028907 0.07019457 -0.058812093 -0.09256813
0.052737042 -0.033772662 -0.040439315 0.031171687 -0.044611715 -0.02332973 0.0029114108 0.017911665
0.030872768 -0.094339356 0.007454819 0.024377547 0.073295474 0.0055498914 0.082521304 -0.09383238
-0.07933053 0.059832253 -0.0675468 0.011830577 -0.031201009 0.042323794 0.03533467 -0.0042899707
-0.0063849236 0.07578962 -0.040706202 0.017095981 -0.016431717 -0.087005645 -0.06390271 -0.04986137
-0.09161077 0.008880796 -3.4203982e-05 -0.08867105 -0.04822018 0.026166247 -0.028609328 0.027755376
-0.05156674 0.07063501 0.01775586 -0.046657145 0.069625534 0.055373363 -0.014000179 -0.06872238
-0.0029276707 0.018933322 -0.020773098 0.0042161862 -0.06431051 -0.07214285 -0.04791549 -0.0019015617
-0.07055428 0.015789 0.00249114 0.039168805 0.06294616 -0.0022250977 0.057475716 -0.0390323
0.023115015 -0.076825716 -0.048426554 0.018628309 0.048569147 0.028290069 0.04599854 0.07493186
-0.005645893 -0.017487902 -0.066180184 -0.023768963 -0.074460335 -0.0047068214 -0.08801304 0.06352949
-0.05136425 0.0619737 0.07139911 0.060612053 -0.00038109976 -0.06662396 0.039152678 0.08998748
0.034744456 0.015802007 -0.08491496 -0.010842635 -0.0007435283 0.023660176 0.038104217 -0.029876512
0.012966183 -0.03188867 -0.08362731 -0.0032065446 -0.07454616 0.08701418 -0.03381811 -0.07140142
-0.019783309 -0.0015605745 -0.018304886 0.015455229 -0.01916067 0.09243023 -0.054574687 0.010719789
-0.011426869 0.036239173 -0.096262924 0.041722093 -0.0071857143 -0.07385066 -0.0069576334 -0.027277648
0.033654157 -0.06991456 -0.017729055 0.009820125 0.01978139 0.08177387 -0.027535034 -0.07730803
0.03374631 0.08084395 -0.09298148 0.07276218 0.081189714 0.0055284933 0.03999629 0.0657451
0.057969138 -0.038302403 0.07804074 0.00015483018 -0.00059122185 0.0028749162 0.077555366 0.048932936
0.06927836 0.054032546 -0.058483355 -0.017930994 -0.03494564 -0.011161451 0.07912735 0.0727274
-0.09838151 0.01517862 -0.054094166 -0.05989583 0.07078275 -0.04208801 -0.0057862797 0.009209702
-0.020073388 0.08944853 -0.01068047 0.016212707 0.06809009 0.09416535 0.017184988 -0.07932764
0.018654967 -0.02417521 -0.005734853 0.028772743 -0.027071066 0.0840482 0.07660864 -0.04872424
0.035058927 -0.017373066 -0.06627423 -0.057164613 0.034619164 -0.028427586 0.05807185 -0.058735296
-0.041570384 0.09502211 0.025245912 -0.026787058 -0.030097846 -0.022658011 0.06527537 0.03771931

layers.0.edge_mlp.0.bias f4 [64]
00000000: fc38 243d d1b6 2cbc c46a e0ba f131 a4bb
00000010: 5e50 e93c b099 85bd 0b0c a53d e3c2 023c
00000020: 0631 a53d 85ed 72bd 1d74 92bc df2a a03c
00000030: 27a7 013d 1ea3 20bd be07 7e38 4dc8 85bd
00000040: 0d7f 4cbd a5c0 4ebc dbf9 80bd 0fa5 97bd
00000050: cf22 96bd c4fb c6bd e67f e73c c078 4fbd
00000060: 7474 523d a1a1 1fbd fc1c a6bc b91e 78bd
00000070: fad2 14bd d043 433d a59b 00bd ce7a 173d
00000080: 6034 793d c262 3ebc 3002 27bd 79b2 7d3a
00000090: 98a6 8a3c b9d4 61bd 423e 54bd db00 c13c
000000a0: 2ba6 f9bc b339 49bd 0eaa f6bb 9849 0e3d
000000b0: 2f4c ea3c 15ae 19bd 8c8e 78bd fa11 743d
000000c0: fe5e ee3c 55f5 cdba c5c3 b73b 0c4a 693d
000000d0: cda3 67bd bb54 32bd 42b4 aebd bbcb 2ebd
000000e0: 115e 153c ffb9 87bd 3d26 82bd a8a3 97bd
000000f0: fcaa dd3c ff80 afbc 4b1c 29bd a60f a73a
0.040093407 -0.010541634 -0.0017121662 -0.0050108363 0.028480705 -0.06523454 0.08058938 0.007981035
0.08065991 -0.059308548 -0.017877633 0.019551693 0.03165355 -0.03921806 6.056553e-05 -0.06532345
-0.049925853 -0.012619172 -0.06297656 -0.07404529 -0.07330858 -0.09715989 0.028259229 -0.050652266
0.05138059 -0.0389725 -0.020277493 -0.060576174 -0.036334015 0.047672093 -0.031398434 0.03698235
0.060840964 -0.011620225 -0.04077357 0.00096777786 0.016925141 -0.05513451 -0.051817186 0.023559978
-0.030474743 -0.049127292 -0.0075275963 0.034738153 0.02860078 -0.037519533 -0.06068282 0.059587456
0.02909803 -0.0015713373 0.0056080543 0.056955382 -0.056552697 -0.043537837 -0.08530475 -0.04267476
0.009116665 -0.06627273 -0.063549496 -0.07404262 0.02705907 -0.021423815 -0.041286748 0.0012745752

layers.0.edge_mlp.2.weight f4 [64, 64]
00000000: 6c90 3b3b 9138 4bbd fa9a 86bd f68c 4bbd
00000010: ffc0 353d 528c eebd 62c9 92bd 320a 30bd
00000020: 03d8 1ebd 2942 c83c 12fd bd3d b28d 8f3d
00000030: e496 85bd dbce a2bd b437 dcbd 82b5 aa3d
00000040: 887a 1abd 517d b03d 35cf db3d 6c7c 5abd
00000050: 76f3 613d f776 7c3d 7010 213c c0df c1bd
00000060: ea74 0dbd f4b0 e43d e981 59bd c873 373d
00000070: 6d87 9ebd 992d 64bc b8d9 c6bd b8ea fe3c
00000080: 6344 db3d 6b53 b2bd 19ed ad3d 21dd c1bd
00000090: 60cd d63d 8cb0 ab3c 1fab 783c 0465 f1bd
000000a0: 10af a5bd f194 71bd 4c8a 99bd af63 ec3c
000000b0: ae5d 31bd fc57 a0bd 7c37 083d 529a a4bb
000000c0: 98ef 243e b10a b93a 64d4 f33d 32c8 52bd
000000d0: 7455 83bd d889 aebd 0ab9 9dbd 209e 143d
000000e0: 944b d2bc fb7a b73d c19a 263d f1d7 a53d
000000f0: eac4 acbd 6271 d43c f0c7 b0bd 20ba b53d
00000100: 9490 42bd e4dd d7bc 761f b33d fd43 95bc
00000110: c9e2 54bd 22ae 2cbd 503d 0b3c 8f70 7ebb
00000120: 1033 823b c7c4 7fbd f5a9 ba3c 4076 3abd
00000130: c430 35bc d40d 653d d0a6 f73c 5337 39bc
00000140: b80e 49bd 58e3 73bd 5701 08bd 5308 833d
00000150: ddee fbbc a240 af3d 6861 18bd c81c a93d
00000160: 6f19 5ebd 5203 19bd 6fbd 69bd a489 8c3d
00000170: 50f0 14bd 60be ddbd 3f58 46bd d1f6 1cbe
00000180: 67a0 8f3d 1a01 dbbd 861a ad3d 0ec5 07bd
00000190: 9094 40bd 1618 ed3d fae1 3a3d b79c 013c
000001a0: 3fd9 4ebb 4d64 a1bd 1364 36bd 8a68 1abc
000001b0: 76a6 9d3d 53ef e03d 29c3 31bc cd57 da3c
000001c0: 93b9 5cbd f569 b9ba 076a bfbc ac34 c43d
000001d0: ad2f be3d d6e3 453d 5a11 26bc 45b7 f33c
000001e0: dbbf 753b 055a febd 94d7 ba3d 10d1 48bd
000001f0: 7250 603d d4e8 943c b0a5 183d 4749 523c
00000200: fb6d 79bd 2690 c6bd 01b5 39bd bdd3 95bc
00000210: 16a9 213e 051a 3dbc 853e 393d d826 3bbd
00000220: 6ada 493d 594d e1bd 065d d4bc 47f3 d33d
00000230: 408b e03d 2478 8fbd 9704 b5bd a554 4bbd
00000240: 8136 e1bd c59f 84bc 982a bbbd 63f8 57bc
00000250: 3f33 66ba 3af9 653d 537c 853d 3de2 c5bd
00000260: bc1c c63d 1c9d 56bd d292 90bd 7c86 cc3d
00000270: 2072 b7bd cd1d ecbd 0067 9fbc c645 5b3d
00000280: 8c41 4f3c 1ad6 71bd 3475 6d3d deb1 d93d
00000290: f881 833d e9a5 e7bc 9dac 98bc 85fb c6bd
000002a0: 7fcd 12bd 0603 3f3d e631 853c 3e5c 803d
000002b0: 5a10 883d 0355 01bd 7fbe e93d c87d 07bc
000002c0: 974f fa3d 2bb4 013e 671b 97bd 08f3 ae3d
000002d0: 1dc2 0a3c e83d fc3c c00d 9ebd 9ce9 693b
000002e0: 125a 3d3d 960c dfbd 7f18 84bd b540 213d
000002f0: 43c6 8f3d aeb4 2f3b d41f dcbd 2b4d bdbd
00000300: 3eb7 a5bd f250 20bd 68cc 853d 5ac2 b4bd
00000310: bb26 81bd 573b 41bd 704f 59bd fb6d 8abd
00000320: cf78 e0bc 4e19 e5bd c8e1 7f3c a38d d1bc
00000330: 1ef9 22bd c595 8ebc 31c4 7bbd 40e1 673c
00000340: 29b6 14bd d022 acbd 88b2 8bbc 4a17 0d3e
00000350: b086 b43c 55cf b3bd f97e 313d e956 3bbd
00000360: 87aa c33d e6b0 75bd b865 fa3b 2325 143d
00000370: c5e6 8cbd 3420 773d f3ca 8cbd eeb1 a83d
00000380: a63c 903d 872d 12be 2ae1 713c baa5 fa3c
00000390: 628a 89bb 29ee 2abd 032d 93bd 05a1 923c
000003a0: 3d3d 073e 726c 04bd 51d3 68bd 036a 47bc
000003b0: 13f0 003d a53e 73bb 647e 67bd ef6b 1d3d
000003c0: a8e1 8d3d 31fb 0abc e98a c43d 25c5 da3d
000003d0: 0f14 123d b74e 6ebd baf2 60ba 683a 83bd
000003e0: c48b 2bba 5a64 7c3d 3318 e5bd 67ef 873d
000003f0: b8a9 ac3d 761a 673d fbd7 913d d14d 6ebd
0.0028620018 -0.049614493 -0.06572528 -0.049694978 0.04437351 -0.11647858 -0.07167317 -0.042978473
-0.038780224 0.02444561 0.09276785 0.07009448 -0.06522921 -0.07949611 -0.10752812 0.08335401
-0.03771451 0.08617652 0.10732881 -0.053341314 0.055163823 0.06163689 0.009830579 -0.09466505
-0.034535326 0.11166564 -0.053102408 0.044788152 -0.07740674 -0.013926887 -0.09709495 0.031117782
0.10706403 -0.08707317 0.084924884 -0.09466005 0.10488391 0.020958208 0.015177517 -0.11786845
-0.08090031 -0.058979932 -0.07497081 0.028856127 -0.04330223 -0.07829282 0.03325604 -0.005023279
0.16107023 0.0014117566 0.11905745 -0.051460452 -0.06412783 -0.08522385 -0.07701309 0.036283612
-0.025670804 0.089590035 0.04067493 0.08097828 -0.08435996 0.025932971 -0.08631885 0.08873391
-0.04750116 -0.026350923 0.08746235 -0.018220896 -0.05197409 -0.042158253 0.008498505 -0.0038824414
0.0039733723 -0.06244352 0.02278612 -0.04552293 -0.01105899 0.05592139 0.03023091 -0.011304694
-0.049086303 -0.059542984 -0.033204403 0.06398072 -0.030753547 0.085572496 -0.03720227 0.08257443
-0.054223474 -0.037356682 -0.057065424 0.0686219 -0.036361992 -0.10827327 -0.048424 -0.15328528
0.07013016 -0.106935695 0.084523246 -0.03314691 -0.04701668 0.1157686 0.045625664 0.007910899
-0.0031562594 -0.07880459 -0.044529032 -0.009424338 0.076977655 0.109831475 -0.010849752 0.026653195
-0.053887915 -0.0014145958 -0.023365987 0.09580359 0.09286437 0.048312984 -0.010135973 0.029750476
0.0037498388 -0.124195136 0.091231495 -0.049027503 0.05476422 0.018177427 0.037267387 0.0128348535
-0.0608959 -0.09695463 -0.045338634 -0.018289441 0.15787157 -0.011541848 0.04522564 -0.04569134
0.04928056 -0.11001081 -0.025923263 0.10349136 0.1096406 -0.07005337 -0.08838766 -0.04964127
-0.10996724 -0.016189465 -0.091389835 -0.013181779 -0.000878144 0.056145884 0.065178536 -0.09662292
0.096734494 -0.052395925 -0.07059254 0.09986588 -0.089573145 -0.115291215 -0.019458294 0.053533338
0.012649905 -0.059042074 0.0579731 0.106296286 0.06421274 -0.028277354 -0.018636996 -0.09715942
-0.035840508 0.046633743 0.016259145 0.06267594 0.06643744 -0.031575214 0.11413287 -0.008269735
0.12222212 0.12666385 -0.073782735 0.08542448 0.008469132 0.030791238 -0.07717466 0.003569222
0.046228476 -0.108910725 -0.06449985 0.03936835 0.07020237 0.0026810574 -0.10748258 -0.09243234
-0.08091591 -0.039139695 0.06533128 -0.08826132 -0.063062154 -0.04717573 -0.053054273 -0.06759258
-0.027401356 -0.11186467 0.015617795 -0.025580233 -0.039788358 -0.0174054 -0.0614664 0.014152825
-0.036306534 -0.084050775 -0.017052904 0.13778415 0.02203688 -0.0877978 0.04333398 -0.04573718
0.0955401 -0.059983157 0.0076415204 0.03616823 -0.06879953 0.060333446 -0.06874647 0.082370624
0.07042818 -0.1427518 0.014763156 0.030596603 -0.0041974047 -0.041731033 -0.0718632 0.017899046
0.13206954 -0.032329984 -0.056842152 -0.012171271 0.031478953 -0.0037116196 -0.05651702 0.03843301
0.06927806 -0.00848274 0.095968075 0.106821336 0.03566366 -0.058180537 -0.0008581091 -0.064076245
-0.0006543959 0.06161914 -0.11186256 0.06637459 0.08430809 0.05642172 0.07121273 -0.05817968

layers.0.edge_mlp.2.bias f4 [64]
00000000: 07d4 b3bc 57b7 71bd 6cef adbd f9e2 e7bc
00000010: e138 293d 4395 5d3d efab 38bd aba8 263d
00000020: 4610 a5bd 03e3 7d3d a229 25bc dcd0 a93d
00000030: ad87 883d 7786 b3bd 23ef 8bbb a509 a43d
00000040: f8e0 4cbd eb17 93bd 1640 adbd 1bf3 143d
00000050: 8359 a8bd fcac b1bd b34e e63d 0c00 bdbd
00000060: 2465 03bd f80e 963d e982 1abd 53d2 f63b
00000070: 5429 90bd 8572 f63d 42da 54bc 000c 98bc
00000080: e4a9 03bd b39b ce3a 6ccc d5bd 2ad7 66bd
00000090: b32c 32bd 526b a73d cb76 94bd 70ee 8fbd
000000a0: 5be5 39bd 6913 45bd c63a f4bc 121a 5cbd
000000b0: ab0b cc3d 372c 36bd c5e8 ddbd d2a6 7dbd
000000c0: e06a 9b3d fe43 be3d 0533 06bb 6bb7 523d
000000d0: 2c81 cbbd c15b bfbd 74f9 f6bd 0b71 4d3d
000000e0: f765 903d 5403 533d 0fd6 6a3b 0591 3abd
000000f0: 2e5c aa3d 4bc5 f6bc 8d22 34bd d1ed 36bd
-0.021951688 -0.059012737 -0.08492932 -0.028306471 0.04131401 0.054097425 -0.045085844 0.040688198
-0.080597445 0.061984073 -0.010080727 0.0829179 0.06666503 -0.087658815 -0.0042704507 0.08009652
-0.050019234 -0.07182296 -0.08459489 0.036364656 -0.08220198 -0.08675572 0.112454794 -0.092285246
-0.032078877 0.07327074 -0.037722502 0.007532397 -0.07039133 0.120335616 -0.01299149 -0.01856041
-0.032144442 0.0015762955 -0.10439381 -0.05635754 -0.04349966 0.081747666 -0.072492205 -0.070279
-0.045384746 -0.048114214 -0.029813182 -0.0537358 0.09963163 -0.04447576 -0.10835413 -0.06192667
0.07588744 0.09290312 -0.0020477187 0.051444452 -0.09936747 -0.093436725 -0.12059298 0.050156634
0.07050698 0.051516846 0.0035833155 -0.045548458 0.08318363 -0.030123373 -0.043978263 -0.044660393

layers.0.coord_mlp.0.weight f4 [64, 64]
00000000: 951b b53c be1d 943d 2e8e fe3c 2001 fa3c
00000010: fb5a 8bbc 0a9d c93c a20f 4c3d 68aa aabd
00000020: 611f dcbc 2af2 e73d 0ce3 ae3d 1408 eb3d
00000030: 7d74 4d3d 1d42 86bc bd10 2f3d 3c70 c5bd
00000040: e2f2 d0bd a654 ef3c a7e6 2cbd dcc4 ffbd
00000050: 652f 133e c722 c7bd bcfd b33d b5dd 963d
00000060: a0b9 973d e5a5 503d a28d a1bd 6088 6f3c
00000070: 370f ea3a bfda 4f3d 607d a8bc ebac 3bbd
00000080: 48ec 123d ddf5 26bd 68bc a53d be42 fabd
00000090: eb24 c63d 9904 c0bc 6b5b c5bd b13a b6bd
000000a0: c36e 4f3d ddb9 f9bd fbf9 ce3b 72f0 a6bc
000000b0: 618c 52bd 9af2 44bd 7f4d 7cbd aa1a a1bd
000000c0: c3af 8cbd 1bd8 b8bd b25b 963d b4e7 acbc
000000d0: 7de8 babd ac18 27bd 12e5 4e3d 0edd 00be
000000e0: 97bb 3f3b 9d17 7fbd c6bd d73c 633c 4e3d
000000f0: 1a75 d7bd dd4f b7bd 813b e23c 076f a33c
00000100: 7c35 57bd 47d3 d0bd ec83 d0bd 82a5 f8bd
00000110: e64e e5bc e347 2c3d 1b75 573c fe50 ca3d
00000120: 66da a5bc c1cb 95bd 3e78 be3d 1ce7 c9bc
00000130: 542f eb3d f214 06be feff d4bd 197e 78bd
00000140: 0ee6 25bb e4ff 4c3d 98fb d0bd a4ec 403d
00000150: 0eff 88bd c00b a33d cdbf 7f3d 59f4 243d
00000160: 48bf 803d f73d b1bd 3bac b03a 2b46 c93c
00000170: 5fb4 28bd 6e82 823d b806 2ebd e2a6 6ebd
00000180: e1d8 2a3d 27e7 383d dd2c 11be 59d8 a0bb
00000190: b1d7 c93d ca41 15bd b40e d43d bd5b 9ebd
000001a0: 39c3 5bbd fc29 0bbd ef8c eabd 00d1 1c3d
000001b0: ff9a f33c 7f17 493d 4f2c 923d dc39 c23d
000001c0: 8635 4abc f3ff 94bd 1cd9 ad3d 06b0 ddbc
000001d0: abc6 273d df8f 023d a1aa 943d e4ba 73bd
000001e0: 7e2e c43c c1ef a63d 8a3e 893d 861d 73bd
000001f0: ab13 f73d 87a7 9fbd 9f0c e53d ab30 d63d
00000200: 9fb9 c03d 8a01 d9bc fa55 8fbd a8bd 1c3d
00000210: 2f58 c5bd 3a12 0cbd 1704 04be cff7 a13c
00000220: ed80 c83c 5e97 d9bd f8df ce3c 71ef 42bd
00000230: 7d65 01bc 31b1 36bd 764d 503d 9b83 a43d
00000240: ffb6 90bc 345b 01be fcad 393d 47e7 5bbd
00000250: 2d0b d83d 239d 1dbd c0d3 333d 812e 8ebd
00000260: 51cc 26bd f367 76bc 6727 92bc d12b 2fbd
00000270: 66ee cabd 3504 bfbc f3a2 98bd bf8c 95bd
00000280: 99ef eabc 9861 d23d e103 d73d e510 473d
00000290: 2420 97bd 92e1 993b 6905 1339 8f0c ccbd
000002a0: 05ef 413d 7258 a1bd 90f3 843c 258c 4cbd
000002b0: 7d84 a4bd 67a8 c5bd a915 bbbc 3561 8fbd
000002c0: 0390 dbbd 8727 df3d 3dc2 c4bd 1cd6 86bd
000002d0: 4b50 c43d b3bc 463d 5ef5 a3bd 5951 d6bd
000002e0: e540 a83d be33 45bc dedd 6ebd a67c 0fbd
000002f0: 1d53 8c3d cacf 60bd a07a b5bd 83ab ce39
00000300: a8d6 44bd 3e7d 283c 53fd 1fbd b845 3b3d
00000310: c81a 9abd bc07 12be 4a6a e13d 024c 86bd
00000320: 53f4 90bd e1fa 973d ea2a 143c 27c0 b63d
00000330: 0574 b2bc 87c5 603b 2978 93bd d532 eabd
00000340: 166d 2aba 4313 9fbd 64bf 873b 7934 cdbc
00000350: a619 92bd 8662 4d3d 1b1f f0bd d339 34bd
00000360: d523 85bd cbb6 ebbd 9b29 463d d26a 7f3d
00000370: 3c4f a5bd 7dcc 86bd fd8f 19bc d98a 983d
00000380: 5024 863a 1348 6e3c befc 0a3e d942 ec3d
00000390: 8fe2 003d b175 e1bb 4934 ed3d 5ef2 08be
000003a0: c1b7 a53d 491a f3bd 52e3 353d b910 aa3c
000003b0: 86f2 7f3d 721a 86bd ad9a 2bbd 6e59 cfbd
000003c0: 3d19 f2bd 2fb8 793c c853 5dbc f60b 6a3c
000003d0: 9511 09bd 523f cc3d 6088 b13d 3856 dbbd
000003e0: a421 0cb9 d224 55bd 2ca0 66bd e46d 36bc
000003f0: d23f 163d 63aa dcbd 1ad8 e1bd 5132 f7bd
0.022107879 0.07232235 0.031073656 0.030518115 -0.017011156 0.024611015 0.049819596 -0.08333284
-0.026870431 0.11325486 0.085393995 0.1147615 0.05015992 -0.016388947 0.042740572 -0.09640548
-0.10202576 0.029215168 -0.042212155 -0.1248872 0.14373548 -0.0972343 0.0878863 0.07366506
0.07408452 0.05093946 -0.078883424 0.014619917 0.0017857318 0.050745722 -0.020567596 -0.045819204
0.035869867 -0.040761817 0.08092576 -0.12219761 0.0967501 -0.023439692 -0.09636577 -0.08897913
0.05064274 -0.12193654 0.006316421 -0.020378325 -0.051403407 -0.048082925 -0.061597344 -0.07866414
-0.068694614 -0.09025594 0.07341708 -0.021106578 -0.09126375 -0.040795013 0.050511427 -0.12584326
0.00292561 -0.06227838 0.026335608 0.050350558 -0.10520382 -0.089507796 0.027616264 0.019950403
-0.05254124 -0.10196548 -0.10181412 -0.12140943 -0.027991723 0.042060744 0.013150479 0.09878729
-0.020245742 -0.073142536 0.09300278 -0.024646334 0.114836365 -0.13093928 -0.10400389 -0.06066713
-0.0025314125 0.050048724 -0.10204238 0.047100678 -0.06689273 0.079612255 0.062438775 0.04027209
0.06286484 -0.08654397 0.0013479063 0.024569592 -0.04118764 0.06372534 -0.042486876 -0.05826462
0.041710738 0.04514232 -0.1417727 -0.004908603 0.09855593 -0.036439694 0.10354367 -0.077323414
-0.053652976 -0.033975586 -0.11452662 0.038285255 0.029736994 0.049094673 0.071373574 0.09483692
-0.012341863 -0.07275381 0.08488676 -0.027061474 0.04096095 0.031875487 0.072591074 -0.059504405
0.02394795 0.08151198 0.067013815 -0.059354328 0.12064298 -0.07795625 0.11184048 0.104585014
0.094104044 -0.026489992 -0.069988206 0.038266808 -0.0963596 -0.03419707 -0.12892185 0.019771485
0.02447554 -0.10624574 0.025253281 -0.04759163 -0.007897732 -0.044602577 0.050855123 0.08032914
-0.017665384 -0.12632447 0.04533194 -0.05368736 0.105490066 -0.038479935 0.043903112 -0.06942464
-0.040722195 -0.015039432 -0.017841054 -0.042766396 -0.09908752 -0.023317436 -0.07452955 -0.07302236
-0.028678702 0.10272521 0.10498787 0.048600096 -0.07379177 0.0046960795 0.00014021028 -0.09963333
0.047347087 -0.07878198 0.01622942 -0.04993834 -0.08033083 -0.09651261 -0.022837477 -0.07000963
-0.107208274 0.10896211 -0.096073605 -0.06583807 0.09585627 0.0485198 -0.080057845 -0.104647346
0.08215503 -0.012036262 -0.058317058 -0.035030983 0.0685179 -0.054885663 -0.088612795 0.00039419168
-0.048056275 0.010283766 -0.03905995 0.045720786 -0.07524639 -0.14260763 0.11006601 -0.06557466
-0.07077851 0.07420898 0.009043435 0.08923369 -0.021783838 0.0034297423 -0.07200653 -0.11435477
-0.00065012404 -0.07767346 0.0041426886 -0.025049435 -0.07133798 0.050142787 -0.11724683 -0.044000458
-0.06500975 -0.11509474 0.04837952 0.06235773 -0.080717534 -0.06581972 -0.009372708 0.07448358
0.0010234211 0.014543551 0.13572976 0.11536188 0.031466063 -0.006880485 0.11582238 -0.13373706
0.08091689 -0.11870248 0.044406243 0.020759927 0.062487148 -0.06548013 -0.041895557 -0.10124479
-0.1182122 0.015241667 -0.013508745 0.014285078 -0.033464033 0.09973015 0.086685896 -0.10709804
-0.00013363973 -0.052037068 -0.056305096 -0.011134598 0.036681958 -0.10774686 -0.11027546 -0.12070144

layers.0.coord_mlp.0.bias f4 [64]
00000000: 1160 243d 0ebe 5cbc ecc1 a0bc 7d6d a5bd
00000010: 3a2a b1b8 e195 f4bd 7dc2 d9bd c703 783d
00000020: 5f62 8b3a 7ff2 a3bc 0275 5bbd c024 133b
00000030: dd48 823d 92e7 89b9 b57d 9f3d a98a 973c
00000040: 43c9 f5bc 63d9 f9bd 7721 a3bc dd92 6e3d
00000050: 9b1d b1bd 5d73 bc3d 7d3f 943c dec8 a73d
00000060: a65e 653c e8f2 88bd 28b6 01be ec94 f33c
00000070: b38d 23bd fc57 d93d f394 44bd 7acd 023c
00000080: aa85 7fbd 5b8c 9f3d 2e33 bbbd 8391 073c
00000090: 3d60 9e3d 398a c7b9 6b77 cbba 26c8 8d3d
000000a0: f333 493d 8b0f 0fba 8e57 7bbb 289d 69bb
000000b0: 665d fd3c 54bd 0e3d f9b3 343d 2831 bf3d
000000c0: 6434 a5ba 13f2 4bbd d9bb 8b3d f538 22bd
000000d0: 6045 7bbd 6f58 0abd c98c ecbb 784a 943d
000000e0: 4ced 99bd c29d 893d c0ed 783d 1d72 cbbd
000000f0: a671 97bc 3f60 8a3d c2c3 c4bd a903 8dbd
0.04013068 -0.013473047 -0.01962372 -0.08077524 -8.447883e-05 -0.1194265 -0.10632799 0.060550477
0.0010634175 -0.020013092 -0.053578384 0.0022452325 0.06361554 -0.0002630321 0.077876486 0.018498736
-0.030003196 -0.12199666 -0.019913418 0.05824553 -0.08648225 0.09201691 0.01809668 0.08192609
0.013999617 -0.06686956 -0.12667143 0.029734097 -0.039930057 0.10612485 -0.04799361 0.00798356
-0.06238333 0.077904426 -0.09140621 0.008274439 0.077332 -0.00038059222 -0.001552326 0.06922941
0.04912181 -0.0005457333 -0.0038351747 -0.003564665 0.030928325 0.034848526 0.044116948 0.09335548
-0.0012604115 -0.049791407 0.068229385 -0.0396051 -0.061345458 -0.033775743 -0.0072189313 0.07240766
-0.07515964 0.06719543 0.06077361 -0.09933875 -0.018486809 0.06756639 -0.0960765 -0.06885464

layers.0.coord_mlp.2.weight f4 [1, 64]
00000000: 4a62 8f3d 498e 29bc e237 a43d 6be6 093d
00000010: 78fd 82ba 67ce 7fbd 94cc 5a3d 9803 6bbd
00000020: e12d 3bb9 b2b6 8cbc 899f b6bd 7204 673a
00000030: 5cf8 a33d 410a 23bc 77fe 38bd 095f ca3d
00000040: 9f09 833d 9a4d 48bd 347d 00bd 9145 da3d
00000050: 52b4 ae3d 5ebb cf3d e6f3 f439 3ff3 593d
00000060: b8fb adbd d55b d5bd e5e0 bbbd 19d9 153d
00000070: 7666 263b 4742 dcbd 1d7c 303d e85c dfbb
00000080: 6162 6c3d 37b1 d53b 89cc bbbd 216f ba3c
00000090: 3bd2 ab3d 459f afba 73bc f439 d7b6 bebc
000000a0: 3e3c 8bbd b357 6639 8d4f 503d 990c 68b9
000000b0: 81ad 12bd b7cc 74bb c2b8 1ebd 9a05 0cbd
000000c0: 7119 773c d925 07bd e014 143c 0865 a63c
000000d0: e3ad 733c 5fb5 6fbd 7b1f c3bd 7924 89bd
000000e0: f6e6 2b3c 7245 a23d e49e d8bc 38f7 213d
000000f0: d29d 9c3d 956a 51bd dea2 3f3c cf94 c63c
0.07001169 -0.010348865 0.08018471 0.03366701 -0.0009993752 -0.0624527 0.053417757 -0.057376474
-0.00017850801 -0.01717696 -0.08917148 0.0008812613 0.08006355 -0.009951175 -0.04516455 0.09881408
0.063983195 -0.04890213 -0.031369403 0.106578 0.08530487 0.10143159 0.00046721025 0.053210493
-0.08495277 -0.10417906 -0.091737546 0.036583994 0.0025390661 -0.10754829 0.043087114 -0.006816495
0.05771101 0.00652137 -0.09169871 0.022758069 0.08389708 -0.0013398906 0.00046679712 -0.023280544
-0.067986 0.0002196718 0.050857116 -0.00022129937 -0.035809997 -0.0037353465 -0.038750418 -0.03418503
0.015081749 -0.03299508 0.00903818 0.020311847 0.014873001 -0.05852258 -0.09527489 -0.0669641
0.010492077 0.07923402 -0.026442952 0.039542407 0.07647289 -0.051127035 0.011696545 0.02424088

layers.0.vel_mlp.0.weight f4 [64, 64]
00000000: 342c ccbb 52c4 823d 49a0 e2bc c999 c7bd
00000010: a149 dabd 8671 913d acf7 fa3c 16e9 8b3d
00000020: 3fdd 80bd cd11 283d d861 be3d db33 023d
00000030: ea0f 62bd 9060 c03d e567 303c c014 b6bd
00000040: 49c1 03be c1ee 3abd 5154 a33b 07ed 3b3d
00000050: bd7b b2bd da4b f43d 325a 903d e397 40bd
00000060: bce8 213d e2ab e1bc e0bb 1abd 3eb9 62bc
00000070: 9d5a 31bd 72bb ed3d 1ad4 86bd 5a0b a73d
00000080: 14df 88bd f482 e93d 5b82 71bd 840e 83bb
00000090: 3b2e 1f3d 60a7 ad3d f350 c13c 356f 993d
000000a0: 4939 4f3d 4781 72bc af18 453d 516d d4bb
000000b0: 8dfe 853d 9b68 d7bc 92ee 90bd cf55 cf3d
000000c0: 9514 82bd c7f6 fcbd 4d57 ad3d 73e1 263c
000000d0: 7ffd 89bd 7b42 18be c260 e0bd fc70 413d
000000e0: f6bf 2abd c357 b53d 7a47 6abd f8f6 0e3d
000000f0: 63b5 cf3d a19f 8d3d fcf8 4abd ab05 f4bc
00000100: d761 2d3d e05b a3bd 935d b6bc 095f 953c
00000110: bb93 7cbd cfee c9bd 7f26 8f3b 608b 98bd
00000120: 363f 173d 6050 74bc 8f43 863d 7576 90bd
00000130: ee34 9e3d 7fb4 933d 9bc2 a83c 909d b1bc
00000140: ba41 c83d 8ca5 b6bd 8059 f9bd b07b 1dbd
00000150: f520 953d 5a85 acbd 0a9b 60bd 985e a13d
00000160: a154 24bd e719 9cbc e585 f33c 4234 acbd
00000170: 783d c7bd 35db e2bd 73e5 573d be18 8b3d
00000180: 579e 80bd 7901 bd3d f1c6 d0bd 1166 203d
00000190: 1963 93bd 7ea3 203d 46cd bc3d 5dde 863d
000001a0: 8ee2 02bd 714b d93c 2873 dc3d cc0b 403d
000001b0: 9c17 e9bc 2057 bf3d 412e 55bd 4397 e53d
000001c0: 45c1 163e f1c6 a23c ef6f 2a3d 1c8f 3abd
000001d0: 2513 e8bd b4c9 2e3d f44e ba3d 2339 45bc
000001e0: 80c0 8f3c 1591 5ebd dcfb 9b3d bd5c 143d
000001f0: cca7 c6bd 34b7 95bd 2fdb ddbc 2bf9 ba3c
00000200: ec6b 973d 5628 6d3d f161 e3b9 1206 ebbd
00000210: f936 c2bc c8d0 b2bc 9d53 20bd 9562 5dbd
00000220: 6efd ed3c 4ba8 34bd 2bcc 0e3d cf29 cfbd
00000230: 340c 00be 9dab bb3d 2656 3c3d 9d5a 123d
00000240: 3be9 edbd 6789 bf3d 86fa 6e3d 9103 dcbc
00000250: afbf 843d 9ff9 2fbd b504 0cbd 3b22 08be
00000260: efa9 cbbd 9dd3 b33d a9e8 c83c d901 d9bd
00000270: d28d 81bc 0117 c63c af03 b0bd e863 d5bd
00000280: 5198 bdbc e3ac 483d c06d b2bd 1d0b 90bd
00000290: c349 2fbd 360e 853c 5fee 743d c2e9 bd3d
000002a0: 809a c03d 4c5f c43d e327 27bc 05be 443d
000002b0: 4230 0ebd ce9c 883d 9a55 89bd a340 d1bc
000002c0: 82fa d13d 82e3 bf3b 9f2c a33c 6ce2 52bb
000002d0: 059e ea3c a002 45bd 7979 bfbd e02e 05be
000002e0: 4125 07bd 5c94 ea3d 07b8 c5bd 8f07 c03c
000002f0: 6396 073e 30ca 03be ff8b bb3d 1906 25bd
00000300: c2c7 5bbd c3af 80bd 97d5 8dbd ebab babd
00000310: bc84 a53c d656 b5bd 0553 22bd 1d14 6f3d
00000320: ce69 c8bd 081b 8cbc 98a4 483b 8920 073e
00000330: 6051 37bd 8d43 b83d f646 2fbd 260f b6bc
00000340: 1967 163e 6413 51bc c618 ecbc 5d04 90bd
00000350: bb09 cc3d 415a 94bd ab10 df3d 3296 0f3d
00000360: 6106 a8ba 0c4f a93d 41cf 5b3d 0582 003d
00000370: 52a9 07be 372b 083c 5e4b d1bc 7291 513d
00000380: 65cf 30bc 163e 413d 085b 543d 9105 093e
00000390: 89ec b8bd b996 67bd b98f 51bc 6450 b83d
000003a0: e01e f4bd 67d2 dbbc 6bc2 b83c e64c 583d
000003b0: 6bfb 763d 8918 a43c f143 e1bd ca0e 253c
000003c0: d3e4 90bd 3412 2f3d 7054 953d fa75 b73d
000003d0: bc20 aebd a79d db3c aad4 c13d d1f1 5c3d
000003e0: b99b 05be 54f0 c4bd 5ab0 0dbc 3675 6d3d
000003f0: bd75 50bd 3ad9 e5bd afc5 593d d184 92bd
-0.0062308554 0.063851014 -0.02766432 -0.09746129 -0.10658575 0.07101731 0.030635677 0.06831567
-0.06292199 0.0410326 0.09296006 0.031787734 -0.055190958 0.09393418 0.010766958 -0.088906765
-0.12866701 -0.04563785 0.0049844165 0.045880344 -0.087150075 0.1192853 0.070484534 -0.04701985
0.039528593 -0.02754778 -0.037776828 -0.0138381105 -0.043299306 0.11608018 -0.06583424 0.08156462
-0.06683174 0.114019305 -0.058962207 -0.003999533 0.03886245 0.0847919 0.02359817 0.07491914
0.05059174 -0.01480133 0.048119243 -0.006482758 0.06542692 -0.026294997 -0.07076754 0.101237886
-0.06351582 -0.123517565 0.08463917 0.010185587 -0.06737804 -0.1486911 -0.10955955 0.04722689
-0.041686974 0.0885463 -0.05719707 0.034903497 0.10142019 0.069152124 -0.049553856 -0.029787859
0.042329635 -0.07976508 -0.022261417 0.018233793 -0.061664324 -0.09860002 0.0043686028 -0.07448459
0.036925517 -0.014911741 0.065558545 -0.07053844 0.07724939 0.07212161 0.020600608 -0.021681577
0.09778161 -0.08918294 -0.12175274 -0.038448036 0.07281677 -0.08423872 -0.054835357 0.078793705
-0.04011977 -0.01905532 0.029726932 -0.08408405 -0.09728521 -0.11076967 0.052709054 0.067918286
-0.06280201 0.092287965 -0.10194195 0.039159838 -0.07196636 0.03921842 0.0921884 0.06585381
-0.03195434 0.026525231 0.10764152 0.04688625 -0.02845364 0.0934279 -0.052046064 0.112104915
0.14722164 0.019870253 0.041610654 -0.045546636 -0.113317765 0.042672828 0.0909709 -0.012037548
0.017547846 -0.05433758 0.07616398 0.036221255 -0.096999735 -0.07310334 -0.027082054 0.02282389
0.07393631 0.057899795 -0.00043369786 -0.11475767 -0.023707854 -0.02182807 -0.03914224 -0.054049093
0.029051509 -0.04410581 0.03486268 -0.10115396 -0.12504655 0.09163592 0.045980595 0.035730947
-0.11616751 0.09352379 0.058344387 -0.02685717 0.06481873 -0.042962667 -0.034184176 -0.13294308
-0.09944522 0.087805964 0.024525004 -0.105960555 -0.015814696 0.024180891 -0.085944526 -0.10419446
-0.02314392 0.048993003 -0.087123394 -0.0703337 -0.042794954 0.016242128 0.05979764 0.092731014
0.094044685 0.09588489 -0.010202381 0.04803278 -0.03471399 0.06670533 -0.0670578 -0.025543517
0.10252859 0.0058559785 0.019918738 -0.0032178415 0.028639803 -0.048098207 -0.09349341 -0.13006163
-0.032994512 0.114540786 -0.09654241 0.023441104 0.13240962 -0.12870097 0.091575615 -0.04028902
-0.0536573 -0.06283524 -0.06925505 -0.09114822 0.020204894 -0.08854453 -0.039629955 0.05836879
-0.09785806 -0.017102733 0.0030615684 0.13196005 -0.04475534 0.08997259 -0.042792283 -0.02222402
0.14687766 -0.012760971 -0.028820407 -0.07032082 0.099627934 -0.07243777 0.10891851 0.035055347
-0.0012819284 0.0826703 0.05366445 0.031373996 -0.13248184 0.0083110845 -0.025548633 0.051164098
-0.010791634 0.04717835 0.051844627 0.1338103 -0.090294905 -0.056540225 -0.012790614 0.08999708
-0.119199514 -0.026833726 0.022553643 0.05280771 0.060298365 0.02003123 -0.10999287 0.010074327
-0.07074895 0.04274197 0.07291496 0.08958049 -0.08502337 0.026808573 0.094643906 0.05394155
-0.13047685 -0.096161515 -0.0086480025 0.05797311 -0.050893534 -0.11223073 0.05316704 -0.07154239

layers.0.vel_mlp.0.bias f4 [64]
00000000: f160 59ba 1b24 923d 87b9 aa3d 3072 2fbd
00000010: 695a 9cbd 9ebf 503d 5a92 8d3d a62d 6b3b
00000020: adcb 2b3d acbd d0bd a9cf f5bc bd0b 75ba
00000030: 734f 543d 77e8 8d39 6f3d 543c 9af4 49bd
00000040: f249 ac3c ead7 e73c f6aa 843d c13b 383b
00000050: 14f8 b53c cfb8 ac3a a851 9b3b f949 d4bd
00000060: aee7 5a3d 209c 783d 79a7 48bd 7b71 4c3c
00000070: 3721 ccbd c1da d13d ae3c a8bd 03e5 b5ba
00000080: 54db b5bc f401 ea3a 88b3 48bb fbb0 a63c
00000090: a2c5 e43b de30 953b a076 e5bd 5f44 edbc
000000a0: e1e1 963c 6849 10bd e351 53bc 8d87 9fbd
000000b0: 75aa 0e38 f0ff 8a3d b6b3 093b 995c dcbd
000000c0: d112 dc3d 7312 94bb ed0e dabd 1e63 a8ba
000000d0: a20b ea3c 5fdc 90bc e740 40ba 6e4d b93d
000000e0: 9311 67bc 35dc 96bc 170e 0cbc bda0 9e3a
000000f0: 94b0 c23d 49e5 5aba f8bc 383d a8ee 9f3b
-0.00082923385 0.07135793 0.08336168 -0.042833507 -0.07634432 0.05096399 0.0691268 0.0035885363
0.041942287 -0.10192427 -0.030006247 -0.00093477574 0.05183358 0.00027066816 0.0129541 -0.049305536
0.021031354 0.028301198 0.06477921 0.0028111788 0.02221302 0.0013177636 0.004739959 -0.10365672
0.053443603 0.060695767 -0.04898784 0.012478228 -0.09967273 0.10246802 -0.08214699 -0.0013877455
-0.02219931 0.0017853365 -0.0030624587 0.020348063 0.0069815675 0.0045529446 -0.112042665 -0.028963266
0.018418254 -0.035226256 -0.012897941 -0.07789526 3.401419e-05 0.067870975 0.0021011657 -0.10759849
0.107457764 -0.004518801 -0.10647378 -0.0012846922 0.02857 -0.017683206 -0.000733389 0.09047972
-0.014103311 -0.01841555 -0.008548281 0.0012102347 0.09506336 -0.0008350206 0.04510209 0.004880745

layers.0.vel_mlp.2.weight f4 [1, 64]
00000000: 892d 923a 6d5e 523d a8f4 61bd f36d e53c
00000010: a5ab a73d a01e 453d 1b6b 333c ac2e f6ba
00000020: 4d21 cf3c 581e b63d a3af f93c c71b e33a
00000030: 744a 15bd 482d b7bb e741 7f3b 20e3 74bc
00000040: 9f14 5cbd 2687 0dbd 4985 01bb a828 6b39
00000050: e679 3c3d a201 a73a fe67 cb3a 07ca 813d
00000060: 9138 813d 11ca 80bd a388 72bd 634d 9fb9
00000070: e8c7 9e3d a7c2 1e3d 6e53 7c3d de48 c739
00000080: 6db0 313d 270c 03bb 029a 4738 f4e1 14bd
00000090: 1f33 23ba 35ed 183b 3f41 86bd ccf0 8b3c
000000a0: 9efa a63c 2292 11bd 0ac7 b1bc 44b7 96bd
000000b0: c353 5bba 061d 23bd e5a8 9839 5c22 2fbd
000000c0: 2c63 57bd 31bd 4fb9 79fa 89bd a778 8dba
000000d0: b7bd 0dbd bb03 f7bc dfbe 37bb 26a8 173d
000000e0: be83 18bd f249 4bbb 685f db3b c033 81ba
000000f0: 0c6d 223d 1e56 8a3b 52e3 73bc a57a 943b
0.0011152487 0.051359583 -0.055164963 0.02800653 0.081870355 0.04812491 0.010950829 -0.001878222
0.025284434 0.08892506 0.030479258 0.0017327004 -0.036447957 -0.0055901147 0.0038949193 -0.014946729
-0.053730603 -0.034552716 -0.0019763282 0.00022426492 0.04601469 0.0012741575 0.0015518663 0.06337362
0.06309617 -0.06288541 -0.05921234 -0.000303845 0.07752973 0.038759854 0.061603002 0.00038010528
0.043381143 -0.0019996257 4.758873e-05 -0.0363483 -0.0006225574 0.0023334746 -0.065554135 0.017082594
0.020383175 -0.035539754 -0.021701355 -0.07359174 -0.00083666685 -0.0398226 0.00029117535 -0.042757377
-0.052584812 -0.00019811538 -0.06737227 -0.0010793403 -0.034604754 -0.030153146 -0.0028037352 0.037025593
-0.037235014 -0.0031019417 0.006694723 -0.0009857342 0.039654776 0.0042216917 -0.01488574 0.004531222

layers.0.node_mlp.0.weight f4 [64, 128]
00000000: 76c4 abbd 804a e23c 1e0f 1b3d a226 663c
00000010: 9aae 223d 0709 a13d c283 14bd f56b 69bd
00000020: 9ea7 72bd 70be 0fbd edd5 233c f405 a5bd
00000030: 57ec 0f3d f4d7 77bd 3cdb acbd bffd 43bc
00000040: 2e02 a9bd f76d 02ba 1180 aabd 5198 9c3d
00000050: 8a0d 663d 41dd a33d 1559 48bd dbab 89bd
00000060: 2f53 24bd 4a4b af3c fa0c 913d 940a eb3a
00000070: e029 b7bd c267 9fbd 418c 603c 0764 dcbc
00000080: 4a7b 2c3d 98cf 5a3d 147a 87bd 0d04 1e3d
00000090: f8c4 78bd 3d1b 2bbb 40d5 3d3d fa88 6d3c
000000a0: 1575 6dbd 57f8 71bd 9311 a93d 0576 e23a
000000b0: d9d7 68bd 118f 4f3d 2b5d f6bc b261 42bd
000000c0: a52e 6b3d 6df3 793d dc02 94bd 74c2 a4bd
000000d0: 35ad bb3b 9a8d 983d e2a6 06bd 3395 56bd
000000e0: 85f3 48bd 462e 433d 6a9d d93c 98ed 9ebd
000000f0: 7bc5 b2bd bd89 4d3b 1844 75bd 0705 933d
00000100: 618d debd 4cf8 e2ba 2932 bdbd e3ef 28bd
00000110: ebb1 36bd 0e8f 043c 133f b2bc 211f 74bc
00000120: 19e1 0c3d 77b7 b9bd 1d91 1dbe 534c 41bd
00000130: 64e1 f83d 2f5d 0a3d 8092 0dbd 4c53 ccbd
00000140: fa0e a6bd 78c8 c2bd 8018 3b3d b684 1bbd
00000150: aedd 70bd ede9 863c 91ec aabd 38aa c9bb
00000160: 66c9 38bd f963 91bc 5764 57bd 4ab4 c23c
00000170: cb9a 2fbd 55f1 eebd 3dbd e73c f2de fbbc
00000180: 5969 073e ec48 c7bd c28d f03d a91c beba
00000190: 33a4 103e 83c2 023c 01a4 643d 2399 a4bd
000001a0: 1fa8 033e eb66 743d c3b2 d8bc 349c bd3c
000001b0: 013e 84bd 4013 853c 433e 163e ea8f 4e3d
000001c0: 0ec3 debd 76e7 c8bd 34e8 893b 56c9 96bc
000001d0: cd7b 253d 4d70 153d be84 823c b6cf d9bd
000001e0: fd79 c8bd 149b e13c 7282 fc3d 51eb 423e
000001f0: 9e54 cf3c 52c4 c6bc 19d4 043d e3e7 8f3d
00000200: b379 0ebd a1a8 76bd 9e25 d8bc 52b8 a83d
00000210: e94b 89bc aec4 aabd e8db 323c 2ba5 a2bc
00000220: 28b8 e3bc d6ba 93bd 84ff a53c 6f8f 293d
00000230: f8e6 a2bd d6af 83bd 807a 793b 3cd8 063b
00000240: fa49 a73d 0e15 a7bd 75d4 eabc 480b 073d
00000250: 4e12 203c d4c0 c3bd 83d0 fe3c 9385 b3bc
00000260: db9f 95bd 0efd 70bd faa6 2a3d b319 ac3c
00000270: be10 133d 3005 803c 7e58 6f3d a413 e2bc
00000280: 6e2a bc3d 8167 88bd dc26 a83c 70ff 94bc
00000290: d9fa 28bd 694a 893d bc5c 98ba 0098 883d
000002a0: 99d9 bbbd 6233 98bd b646 373c 243b 93bd
000002b0: 2dcc 393b 598e 523b 92d3 673d fe1c 30bd
000002c0: 4999 56bd 1a23 0ebd b9a9 cfbc efdd 8d3d
000002d0: 9a8d 183d 8600 733d 3600 b73a 046e 85bd
000002e0: d1f1 8abc 1ad9 feba 81c8 c5bc ba89 0c3d
000002f0: 21f4 3b3d 3e0a 423d 713a 80bd 3ec2 8d3d
00000300: 13ab 943c 0dc8 97bd a18d 8c3c b48a 0e3e
00000310: 8a89 b0bd 63de e4bd b68c a03c f840 023d
00000320: 2b21 6bbb ac6a 683d 5a4a 0d3d 4d1e 1e3e
00000330: d467 a2bc 02c5 0dbc 2a9d 833d 7f18 e43d
00000340: 7c46 21be f195 8a3d 6e35 22be b9d2 693b
00000350: 9368 c83d ed9c c2bd b80c 07be cd92 9d3d
00000360: 809a 49bc 044b 03bd bc75 1d3d fe2f 8b3d
00000370: 3422 a93d 9ecb 71bd 6b0d 49bd fc56 f1bc
00000380: 81b7 4c3c 85d1 163e d563 c2bd 118a adbd
00000390: e6e1 8fbd d280 bc3d 2f31 863c eb16 0fbe
000003a0: d461 dabd bf1e 2dbe 69bd 63bc 52c5 99bd
000003b0: eb8c 563d 677e 8a3d d751 67bd 0695 813c
000003c0: b3e0 c3bd 5159 a53d b9b0 ea3b 1d75 0abe
000003d0: 23f2 81bd dd77 a73b af3e a33d 568e a53d
000003e0: 8cf1 903d 30dd 423d 8098 a63c 8d8f 21be
000003f0: e338 4e3c eaa6 053e ecf1 123c b5e4 10bd
-0.08387081 0.027623415 0.037856214 0.014047297 0.039717294 0.0786305 -0.036258467 -0.05698772
-0.059241883 -0.035093725 0.009999734 -0.08057776 0.0351375 -0.060508683 -0.08440253 -0.011962353
-0.08252369 -0.00049754925 -0.08325208 0.076462395 0.056165256 0.08001185 -0.04891308 -0.06722232
-0.040118393 0.021398205 0.07082553 0.001793223 -0.08943534 -0.07783462 0.013705314 -0.026903166
0.042109765 0.053420633 -0.066150814 0.038578082 -0.06073472 -0.0026108765 0.04634595 0.01449799
-0.057972986 -0.059074726 0.08255305 0.0017277604 -0.056846473 0.050673548 -0.030073723 -0.04745645
0.05741753 0.061023165 -0.07227108 -0.080449015 0.005727435 0.07448883 -0.032873996 -0.05238838
-0.049060363 0.04765155 0.026564319 -0.07760161 -0.08729073 0.0031362616 -0.059879392 0.07178693
-0.1086681 -0.001731643 -0.09238083 -0.0412444 -0.04460327 0.0080907475 -0.021758592 -0.0149
0.034394357 -0.09068196 -0.15387388 -0.04719193 0.12152365 0.033780273 -0.03456354 -0.09976825
-0.08108325 -0.09510893 0.045677662 -0.03796836 -0.05880516 0.016468966 -0.08345903 -0.006154325
-0.045113944 -0.017747866 -0.052585926 0.02376761 -0.04287223 -0.11667124 0.028288478 -0.030745957
0.1322378 -0.097307056 0.11745788 -0.0014504391 0.14125137 0.0079809455 0.05582047 -0.08037021
0.12857102 0.059668463 -0.026452428 0.023145773 -0.06457139 0.01624453 0.14672188 0.050430216
-0.108770475 -0.09809773 0.004208589 -0.018406551 0.04040127 0.03648405 0.015932437 -0.10635321
-0.097888924 0.027539767 0.12329568 0.19035079 0.025308903 -0.024263535 0.032428835 0.07026651
-0.03478403 -0.06021941 -0.026385125 0.08238281 -0.01675983 -0.08338295 0.010916688 -0.019854149
-0.027797773 -0.072133705 0.02026344 0.041396555 -0.0795421 -0.064300224 0.00380674 0.0020575663
0.08168407 -0.08158313 -0.02866576 0.032969743 0.009769989 -0.095582634 0.031105286 -0.02191428
-0.07305881 -0.05883508 0.041663148 0.021008348 0.03590464 0.015627474 0.058434002 -0.027597256
0.0918778 -0.06660367 0.020526342 -0.018188208 -0.041254852 0.06703646 -0.0011624317 0.06669617
-0.09172363 -0.074316755 0.011186292 -0.071890146 0.0028350458 0.0032128303 0.056598254 -0.0429964
-0.052392278 -0.034701444 -0.025349485 0.06927096 0.037244417 0.05932667 0.0013961855 -0.065151244
-0.01696101 -0.0019443363 -0.02414346 0.034311034 0.045887116 0.04737305 -0.06261147 0.069218144
0.01814798 -0.074112035 0.017157378 0.13920099 -0.086199835 -0.111752294 0.019598346 0.03180024
-0.0035877924 0.056742355 0.034494735 0.15441246 -0.0198249 -0.008652927 0.06426461 0.11137485
-0.15749544 0.0676688 -0.15840694 0.003567858 0.09785571 -0.095025875 -0.13188446 0.07694016
-0.012304902 -0.032053962 0.03844236 0.06796263 0.08258477 -0.059032075 -0.049085062 -0.029460423
0.012494923 0.14728363 -0.09491698 -0.084736 -0.070255086 0.09204258 0.016380874 -0.13973586
-0.106631905 -0.1690626 -0.013900139 -0.07508339 0.052380484 0.067623906 -0.056474533 0.01581813
-0.09564342 0.080736764 0.0071621803 -0.13521238 -0.06345012 0.0051107244 0.0797094 0.08083789
0.070773214 0.047574222 0.02033639 -0.15777417 0.012586805 0.13051954 0.0089688115 -0.035374362

layers.0.node_mlp.0.bias f4 [64]
00000000: 6c3f 97bd cc43 9abc ab59 bcbc a774 083d
00000010: f727 62bd 634c c1bc e598 103c 2127 8a3d
00000020: fce0 6abd 4b48 27bc 5375 72bc e225 6a3c
00000030: 23d2 f3ba 9bea 0dbd 0b8c 323d edee a5bd
00000040: d710 e53c a322 af3d a559 eb3c 4749 eebc
00000050: 356e ac3c 49ac a3bb 4098 69bd e9ca ccbc
00000060: f1f9 a4bc 3119 8c3d 3164 45bb b389 7dbd
00000070: a135 0fbd 334d 73bc 6e06 c73d 070a 1dbd
00000080: 2b66 f03c e1d6 bbbd c885 a33c 0d78 e13c
00000090: f89d 4dbd 8ee6 6abd 544e adbd dc02 bebc
000000a0: f889 41bd 86b5 033d d567 53bd d54e c03d
000000b0: 59cd c83b 5e01 e43c ac83 99bc 23e3 fbbc
000000c0: bee7 9ebd 6b61 9f3d f4b7 3abd 7335 883d
000000d0: 3f6d acba 4503 b9bb 14fd 1abd c504 82bd
000000e0: 2dab e2bc 5502 9bbd 7092 893d c091 893d
000000f0: 99cc c7bb e22b 883d bd2e 92bd de0d 853d
-0.07385144 -0.018831156 -0.022991976 0.033314373 -0.055213895 -0.023595994 0.008825515 0.067457445
-0.057343468 -0.010210107 -0.01479848 0.0142912585 -0.0018602054 -0.034647565 0.043590587 -0.08102212
0.027962131 0.08551528 0.02872927 -0.029087676 0.021048645 -0.004994903 -0.057029963 -0.024999099
-0.020138713 0.068407424 -0.0030119533 -0.0618989 -0.034963254 -0.014849949 0.09718023 -0.03833964
0.029345592 -0.09171844 0.019961253 0.027523065 -0.05019948 -0.05734878 -0.084622055 -0.023194723
-0.047250718 0.032155536 -0.051612694 0.09390036 0.006127995 0.027832683 -0.018739544 -0.030747956
-0.07759045 0.07782253 -0.045585588 0.0665082 -0.0013155116 -0.0056461417 -0.03783901 -0.06348566
-0.027669514 -0.07568804 0.06717384 0.06717253 -0.006097388 0.06648995 -0.07137821 0.064967856
