results/checkpoints/force_egnn.pth (torch, 403509 bytes, 41 tensors)

h_init.0.weight f4 [64, 1]
000000 a8 92 df bb 0b 9f 22 3e 31 67 b8 3e a9 fa 95 3e
       -0.0068229027 0.15880983 0.3601623 0.292928
000010 2d c1 9a 3e fe 99 85 bf 05 f1 7e 3e 21 8d 22 bf
       0.30225506 -1.043762 0.24896629 -0.63496596
000020 f1 80 59 bf c7 58 7b be d2 3c d8 3e 21 d3 07 3f
       -0.84962374 -0.24545585 0.42233902 0.5305653
000030 42 62 1e 3e 7f 28 a0 bf 98 45 1d be 3a b5 3e 3e
       0.1546717 -1.2512358 -0.15358579 0.1862382
000040 e4 df 7a bf 7d 4f 3d 3f 73 97 c3 bd 89 ae b7 3e
       -0.9799788 0.73949414 -0.09550371 0.35875347
000050 b5 92 e4 bc 8c d6 7c bf 0f d7 84 be ff 3e 8d 3e
       -0.027901987 -0.9876487 -0.25945327 0.27587125
000060 78 a7 22 be ba 7a 53 bf 63 18 13 3f 1c 5a 0c bc
       -0.15884197 -0.8260914 0.57459086 -0.008566406
000070 5a b5 5a bf b3 eb 05 bf ed 2a 18 3f 71 44 f2 be
       -0.8543297 -0.52312773 0.594405 -0.47317842
000080 b7 6d 8f bf 36 bb e3 3e 22 bd 7d bf 72 12 0d be
       -1.1205357 0.44478768 -0.9911672 -0.13776568
000090 af 53 a4 3e 4c 13 b1 3e 9c be 58 bd 47 d0 b4 be
       0.32095096 0.34585035 -0.052916154 -0.35315153
0000a0 b5 4d 86 bc e3 e8 a9 be 9b 93 38 bf 3e ae a8 3e
       -0.016394475 -0.3318549 -0.7210023 0.32945436
0000b0 74 c3 f8 3e 32 cb c0 be c2 fa c9 3b a4 3a 5e bf
       0.4858662 -0.37655026 0.006163926 -0.8680823
0000c0 73 2c c4 3e 9a 0d 8d bf 1f e7 83 be a2 30 dc bd
       0.38315162 -1.1019776 -0.2576227 -0.107514635
0000d0 cb 6b b7 be 00 85 bc be bf b8 6a 3e 6a 23 51 bd
       -0.35824427 -0.3682022 0.22922038 -0.051059164
0000e0 f2 21 89 be 2a c5 31 bf 67 2b 9b bb ba e9 0e bf
       -0.2678371 -0.69441473 -0.0047353986 -0.5582539
0000f0 4b c9 39 3c c7 f7 36 3d f9 39 f6 be 72 6b 40 3f
       0.011339496 0.044669893 -0.48091105 0.7516395

h_init.0.bias f4 [64]
000000 1e b6 c2 3b 7b 40 3b be b5 2b 1c bf 1b 24 f4 be
       0.00594212 -0.18286316 -0.6100419 -0.47683796
000010 6d 0f 79 3e 74 11 d1 be 0c 66 d1 bd cb b9 49 3f
       0.2432229 -0.40833628 -0.10224542 0.7879912
000020 6b 64 42 3e bf cf 9b 3e ac b0 af be dd f1 96 be
       0.18983619 0.30431935 -0.34314477 -0.29481402
000030 ca c4 59 be 2f 7e f8 be 2e 3a 43 3e 9e 5c 82 be
       -0.21266475 -0.4853377 0.19065163 -0.25461286
000040 f3 5a 1c bf 64 2d 60 bf d9 52 f4 3d d0 92 e3 be
       -0.6107628 -0.8756926 0.119298644 -0.44447947
000050 a7 b3 27 3d 57 47 3c bf bd ba bc 3e 8e f3 de be
       0.040942814 -0.73546356 0.3686122 -0.43545192
000060 b7 b4 5d 3e de 1b 97 bf ca 04 b7 be 80 ce 42 bb
       0.21650968 -1.1805379 -0.3574584 -0.0029725134
000070 af df 8a 3f 8d 8b 59 3f 0e af 15 bf f4 09 04 3f
       1.0849513 0.8497856 -0.5847024 0.5157769
000080 cd cf 09 bf 33 70 3d bf 16 88 88 bf 10 4e 58 3e
       -0.53832704 -0.7399933 -1.066653 0.21123528
000090 b6 eb 25 bf 66 b7 94 3e 34 d6 95 3d 7c 1b cf 3e
       -0.6481279 0.29046172 0.07316247 0.40450656
0000a0 a9 03 93 3c 9c 50 0a 3f 9b 9a 3d 3f 56 8f 25 bf
       0.017946081 0.5402925 0.74064034 -0.6467184
0000b0 3d 80 17 bf 3d ab e2 3e 5c 48 0a bc 76 b8 82 bf
       -0.5918005 0.4427127 -0.008440103 -1.0212543
0000c0 01 b4 58 be e4 6c 8b bf 24 07 cc 3e 3a 77 10 3e
       -0.21162416 -1.0892606 0.39849198 0.14107981
0000d0 99 cb c0 3e d4 da e6 3e 84 71 bc be 27 f7 a7 3d
       0.37655333 0.45088828 -0.36805356 0.082014374
0000e0 c4 10 9e 3e 82 e6 5c 3f 64 62 32 3b 56 01 28 3f
       0.30872166 0.86289227 0.002721929 0.6562704
0000f0 bd 49 89 3b ad 71 9b bd 7e eb 57 3f 05 f6 3c bf
       0.0041896985 -0.07590041 0.8434371 -0.73812896

layers.0.edge_mlp.0.weight f4 [64, 132]
000000 45 b8 a9 bb 95 2b b1 3d 7a 8a 26 3d 6a 01 dd 3d
       -0.0051794373 0.08650891 0.040659405 0.10791285
000010 ab ca dd bd 2f 2c ae 3d d5 06 6b bc f5 5e 66 bd
       -0.108296715 0.08504521 -0.014344891 -0.0562429
000020 c1 32 9f 3d 68 0c 7a bc 91 c1 8a 3d 1a 34 36 bd
       0.077733524 -0.015261747 0.06775201 -0.04448328
000030 01 c7 21 3e 4b cd be 3c d3 9d 1a be 8b de 15 3e
       0.1579857 0.02329125 -0.15099268 0.14635675
000040 4c 3a 0e 3d cf d6 99 3d 09 31 b3 bd ee 92 04 3e
       0.034723565 0.075116746 -0.08749587 0.12946674
000050 c0 41 73 3c 4b 23 a0 3c a8 07 03 bc 1c 37 11 3e
       0.014847219 0.019548079 -0.007997431 0.14181179
000060 47 50 75 bd 46 f1 80 3d 31 ed 90 3d ce 76 96 bc
       -0.05989101 0.06296019 0.07076491 -0.018367197
000070 a2 52 39 bc a9 de 29 be 02 9e 83 b9 24 96 eb bd
       -0.011311205 -0.16588844 -0.00025103992 -0.115032464
000080 3d ab fc 3d c4 67 16 3e 51 07 dd 3d dd f2 40 bd
       0.123373486 0.14688021 0.10792411 -0.047106612
000090 3e d5 10 3e d1 d6 93 bd 44 a5 41 3c 98 0e 07 be
       0.14143845 -0.07218707 0.011819188 -0.13189161
0000a0 46 10 9a bd 50 41 01 be 08 17 be 3c 08 0a 1c 3e
       -0.07522635 -0.12622571 0.023204342 0.15238202
0000b0 76 dc 94 3d f2 49 c2 bd 04 bd 87 bc c9 27 9a 3d
       0.07268612 -0.0948676 -0.016569622 0.0752712
0000c0 f6 0c ba bd 6e 68 0f 3e af 95 1c be 43 b2 36 be
       -0.09084503 0.1400468 -0.15291475 -0.17841439
0000d0 95 4d 13 bd 72 ee d2 bd 67 3f a4 3d b6 05 79 bd
       -0.03596266 -0.10299386 0.080199055 -0.060796462
0000e0 30 f0 d3 bd 8a d3 f8 bd 5d aa ff 3c 61 f9 c0 bd
       -0.103485465 -0.12149723 0.031209165 -0.09422565
0000f0 9e 4e 62 bc 22 93 22 bd 9b 58 99 bd 17 ea 9a 3d
       -0.013812689 -0.039691098 -0.07487603 0.0756418
000100 f9 0e 9c bd 23 88 11 be f6 6c 93 bd fe 7e 69 bd
       -0.07620043 -0.14212088 -0.07198517 -0.057005875
000110 9b c4 29 be 5f 42 05 bd 29 f1 9f bd d9 e7 86 3e
       -0.16578905 -0.032534 -0.078096695 0.2634876
000120 89 45 f8 3d eb a0 34 3e 94 76 54 be b0 b5 5d be
       0.12122638 0.1763951 -0.20748359 -0.2165134
000130 95 89 e4 bd ce 2a 1b bd ef 4f aa 3d a0 49 68 be
       -0.11159054 -0.03788262 0.083160274 -0.22684336
000140 fe 46 9e bc ed 22 b8 be f4 e2 6f 3d b9 1c 47 be
       -0.019320961 -0.35964146 0.05856605 -0.1944455
000150 c9 e4 89 bc 60 47 da bc 7b ad 0d bd 83 44 8d bc
       -0.016832726 -0.026645362 -0.034589272 -0.017244583
000160 f0 84 d8 3d 3d 70 e8 3d 6b 86 8c be b8 ea d9 3d
       0.10572231 0.11349533 -0.27446303 0.10640472
000170 bf 1a 36 3e e9 23 70 3c 67 bd 66 be 96 47 3a 3e
       0.1778364 0.014656999 -0.22533189 0.1819137
000180 cd 23 f6 3b 58 66 c6 bd 5e 57 24 bd c9 61 8a 3c
       0.007511592 -0.09687489 -0.040122382 0.01689233
000190 5c ae 07 3c fc 10 ab bd a4 4d f0 bc 8a a6 8c 3e
       0.008281317 -0.08352849 -0.029333897 0.2747081
0001a0 0f 3b 0a 3e 76 54 2d bd f1 d9 b5 3e 5a ef 19 3d
       0.13499092 -0.042316876 0.3551784 0.03758178
0001b0 c3 01 9f be bd 3c 3e 3e 38 e6 9d bc 0a cf f8 3d
       -0.31056032 0.18577857 -0.019274816 0.121488646
0001c0 35 41 0c be bc 7a a5 3d cf 73 8e 3d 2d 15 17 3e
       -0.1369675 0.0808005 0.069556825 0.14754172
0001d0 c8 b7 32 3e e3 aa 27 3e 32 df 6a 3d b4 50 db bd
       0.1745292 0.16373782 0.057341762 -0.10708752
0001e0 a3 c9 86 3e c9 aa 8a 3e ca 55 5a bd 6d 62 71 3e
       0.26325712 0.27083424 -0.05330447 0.23572703
0001f0 59 77 1f 3d 50 0f 2d 3d 6a e5 55 3d 48 94 b5 be
       0.03893218 0.04225093 0.05222074 -0.35464692
000200 9a 8e fd 3a cd c6 77 3d 08 d5 85 be 60 c0 0c bf
       0.0019344867 0.060492326 -0.26139092 -0.5498104
000210 d8 be 9b 3d b3 4b 36 3d ef 95 ad bc 94 57 36 bd
       0.0760476 0.044505786 -0.021189658 -0.044517115
000220 32 2c b1 bc 47 44 f0 bd db fc 9a 3d 6c 90 57 3d
       -0.02162752 -0.11731773 0.075677596 0.052627966
000230 da 70 89 bd f8 de f0 bd 19 49 1e bc ea af 05 3e
       -0.06710978 -0.11761278 -0.0096609825 0.13055387
000240 e8 8b 01 3e f3 6e 53 bc b8 a3 21 bc fb b0 4d ba
       0.12651026 -0.01290487 -0.009865694 -0.00078465015
000250 b4 92 57 bc c9 65 11 3d a8 3c 21 be 83 16 f3 3d
       -0.013157535 0.03549746 -0.15745795 0.11869528
000260 7a 58 00 3d 7c 00 6f bd c4 54 95 bd f3 9a ab bc
       0.031334378 -0.05835007 -0.072915584 -0.020947909
000270 96 30 04 be af 2c 8e 3c 64 7c 96 3d 1b a7 28 bc
       -0.12909159 0.017355291 0.073479444 -0.010293747
000280 f6 5a 3f 3d 3b 77 fc 3d dc 73 ab bc 5a db 22 3d
       0.046717606 0.12327429 -0.02092927 0.03975997
000290 3f 36 28 bd cc 1a 13 bd 60 0c 0d be 24 ee 97 bd
       -0.041067358 -0.035914227 -0.13774252 -0.074184686
0002a0 21 ff 57 bd 69 5d 23 bd 3d eb 84 bd 53 89 d9 bd
       -0.052733544 -0.039884005 -0.06490181 -0.10621896
0002b0 97 9c d6 bd 76 d9 d7 3d d2 4a b3 bd f6 ca 8a 3c
       -0.10479086 0.10539524 -0.08754505 0.016942482
0002c0 44 4e 9e 3c 42 79 97 bc b0 da dc 3d d6 c0 a8 bd
       0.01932443 -0.018490437 0.10783899 -0.082399055
0002d0 73 62 81 3d b4 5a d0 bb d6 b9 d3 bc a7 01 c0 3c
       0.06317606 -0.006358469 -0.02584545 0.023438288
0002e0 1c a0 4c 3c 77 a5 7e bd e6 20 15 3d 51 f9 44 bd
       0.012489345 -0.06216952 0.036408328 -0.04808933
0002f0 0b 77 fa bb 5a b0 da bb 54 57 6b bd 38 59 93 bc
       -0.0076435856 -0.006673855 -0.05745633 -0.017986879
000300 33 d5 b8 3c 4e 37 db 3d a3 41 64 3d 63 cb 0a 3c
       0.022562599 0.10703908 0.05572666 0.008471343
000310 bc cd ab 3c 01 7a 21 3d a8 3c 84 bd 69 5e 55 3c
       0.020972125 0.039422993 -0.06456882 0.013022997
000320 5e a0 0d 3c 9c 3b 0a be e3 eb c0 bc 2e a7 47 bd
       0.008644192 -0.13499302 -0.02354998 -0.04874342
000330 5b ad c9 bc 51 56 f9 bd 54 a4 99 bc c4 d8 21 3d
       -0.024618795 -0.12174667 -0.018755116 0.039513364
000340 ad 90 73 bc b3 6b eb bd cf fb 06 bd c2 4a 24 3d
       -0.014866036 -0.11495151 -0.032954987 0.040110357
000350 0f 6d db bd 5e 2f d0 bd 6d c2 ab bd 78 63 95 3c
       -0.10714161 -0.101652846 -0.08386693 0.018235907
000360 a7 80 86 3b 3c 6f 46 bd f5 ab 03 bc 8d a9 2d 3d
       0.004104692 -0.048445925 -0.008036603 0.042398024
000370 1f 86 e4 bc 86 3a 11 be 1a 0f 85 bc b2 c1 ed bd
       -0.027895985 -0.14182481 -0.016242553 -0.1160921
000380 0f 60 ea 3c ac 9c 24 3d 4a 3e 56 3c b7 f6 cf bd
       0.028610257 0.040188476 0.013076374 -0.10154479
000390 0b bf b3 bd d3 c9 ec bc d3 0a 85 bc f5 b0 02 bc
       -0.08776673 -0.028904831 -0.016240513 -0.00797676
0003a0 1e ce 68 ba 3d 01 b8 3d 32 7f 79 ba 1c a5 ad 3c
       -0.00088808115 0.08984611 -0.000951755 0.021196894
0003b0 63 55 15 3d 1b 9c d4 3d a8 99 f6 bd 72 37 cf bd
       0.036458384 0.10381337 -0.12041026 -0.10117997
0003c0 66 33 ce bb 97 0b bf bd 58 8d 84 3c 5a 1d ea bd
       -0.0062927483 -0.093283825 0.01618068 -0.114313796
0003d0 1c 0f 89 3d 5b 14 de bd 85 22 5a 3d 1f 5d 53 bd
       0.06692335 -0.10843726 0.053255577 -0.05160248
0003e0 a7 50 90 bd 38 d2 e7 bd 3d 06 88 bc 3f 50 95 bd
       -0.07046633 -0.11319393 -0.016604537 -0.07290696
0003f0 b9 45 d4 bd d8 d7 3f bd 08 f9 a6 3d 8a 32 8b bd
       -0.10364861 -0.046836704 0.08152968 -0.06796749

layers.0.edge_mlp.0.bias f4 [64]
000000 3c 08 23 3c 70 c7 9b 3d 81 32 d0 3c d4 2e e7 bc
       0.009950694 0.07606399 0.025414707 -0.028220572
000010 1d 1c 9a bb 37 40 9a bd 80 da 1b be b3 53 4b 3c
       -0.0047030584 -0.07531779 -0.1522007 0.012410092
000020 6e e0 41 bd 3c 6d 6d bd 26 37 8b bd 79 49 0d be
       -0.047333173 -0.057965502 -0.06797628 -0.13797559
000030 c4 11 d0 bd 53 e3 7f bd 82 5e 28 3d 72 0c 27 be
       -0.101596385 -0.062472653 0.041105755 -0.16313341
000040 65 b8 bf bd 2a ea 67 be 8d 25 ba 3c 1a 24 20 be
       -0.09361342 -0.2264792 0.022722984 -0.15638772
000050 fb c1 8f bc e4 04 d0 3b 22 50 ed bc 18 9d 1f be
       -0.017548552 0.0063482393 -0.028968874 -0.1558727
000060 49 11 da bc 80 49 3f be 30 60 55 3d ea 76 19 be
       -0.02661957 -0.18680382 0.052093685 -0.14986768
000070 05 7d 43 be fc 87 fb 3c 61 43 ed 3d d0 3e 34 be
       -0.1909066 0.03070449 0.11585117 -0.17602086
000080 35 7c 38 be 20 46 41 3c ef 77 19 be d9 64 1d bd
       -0.18016131 0.011796504 -0.14987157 -0.038426254
000090 9b 8f 60 be 54 66 a1 3c 94 bc 30 bd 2f a7 bb 3d
       -0.21929781 0.019702114 -0.043148592 0.09162747
0000a0 c9 f1 cd 3d 95 25 8d bd dd 04 43 bd 19 e2 fb 3d
       0.100558825 -0.06891934 -0.04761206 0.12298984
0000b0 8c 98 a1 3d e1 41 08 bd a6 7f 80 3d a6 e7 9c bc
       0.07890424 -0.033265952 0.06274347 -0.019153427
0000c0 6d 13 b3 bd 4e 3f cc bd a4 e4 2e 3d 31 c3 03 be
       -0.087439395 -0.09973012 0.042698517 -0.12867428
0000d0 41 06 85 bd 60 19 50 3d 71 ed 12 be e9 e8 bf 3c
       -0.064953335 0.05080545 -0.14348389 0.02342649
0000e0 0a 7b c0 bd f3 32 65 bd 22 fc a0 bd bc b7 f2 bd
       -0.09398468 -0.055956792 -0.078605905 -0.11851451
0000f0 1d c1 fb bd 6d f0 43 3d 90 72 db bd cd 90 2b 3d
       -0.12292693 0.04783671 -0.107152104 0.04188614

layers.0.edge_mlp.2.weight f4 [64, 64]
000000 d9 40 75 3e be 45 07 be 93 75 fa 3d 8b e5 95 3d
       0.23950519 -0.13210198 0.12229457 0.073191725
000010 38 ac d0 bc 9e bc 2d 3e 96 28 f9 3d f4 b5 0c be
       -0.025472745 0.16966483 0.12165944 -0.13741285
000020 2c 78 5e be a4 2a 26 3d 09 b3 71 3a 15 c5 1a bd
       -0.2172553 0.04056801 0.0009220099 -0.03778561
000030 0b 95 36 3d c8 a0 59 3e 36 fa 98 3d c4 b5 c8 bd
       0.044575732 0.2125274 0.07469599 -0.09800294
000040 c3 13 33 3d be eb b9 3d 95 bf e8 3d 36 78 0c 3e
       0.043720018 0.090781674 0.113646664 0.13717732
000050 3a 6c 27 3d 51 a8 df bd d6 93 2f 3e d4 da 69 bd
       0.040874697 -0.10920776 0.17146239 -0.057093456
000060 15 7a f4 3d bf 05 90 3d ca ca 51 3e d6 b9 54 3e
       0.11937348 0.07032346 0.20487514 0.20774016
000070 85 cd a8 3d 49 5d ab 3e 37 64 39 3e f9 7b 40 3d
       0.08242325 0.33469608 0.18104635 0.04699323
000080 c8 36 1c bd 6c fe fc bd c3 7f dd 3d b2 fe c7 3d
       -0.03813818 -0.123532146 0.10815384 0.09765376
000090 b1 3c c5 3d d9 a8 71 be 3d 5c 1a 3e b2 01 12 be
       0.096307166 -0.23599567 0.15074249 -0.14258459
0000a0 5b c5 e4 3d 6e e0 33 3e 07 60 36 3d 2f bd 45 be
       0.11170455 0.17566082 0.044525173 -0.19310449
0000b0 55 99 2c bc 21 3a 9c 3d 5b 3e 92 3e 64 85 56 3e
       -0.010534604 0.07628275 0.28563198 0.20949322
0000c0 5b 63 2a 3e 57 c8 17 3d 33 20 8e be ff 7d 6a 3d
       0.16639464 0.037056293 -0.2775894 0.057249065
0000d0 58 53 81 3d 2b cd a1 3d 47 a6 23 3e 0b 53 9b be
       0.06314725 0.07900461 0.15981399 -0.30336794
0000e0 e1 8d ba 3d 4a 2a 9e be 59 72 df 3c 98 a5 ad 3c
       0.091090925 -0.3089164 0.027276205 0.021197125
0000f0 58 ce 18 3e a4 fc 7a be 12 74 be bd 5f 91 9d bb
       0.14922464 -0.24510437 -0.092994824 -0.0048085894
000100 19 09 4d 3e 33 81 d5 bc 0e 04 2d 3e 2c 03 6f 3e
       0.20023002 -0.026062584 0.16896078 0.23341054
000110 76 05 00 3d 55 49 ae be df 59 10 3d a4 ec 8f 3d
       0.031255208 -0.34040323 0.035241958 0.070275575
000120 6e 07 4e bb 4c ea c1 3d 2c c2 c3 3c ba 3b d4 bc
       -0.0031437534 0.09468517 0.0238963 -0.025907386
000130 7c d2 ff 3b 04 bb 56 be 27 2a 12 3e 8a bd 69 be
       0.007807074 -0.20969778 0.14273892 -0.2282621
000140 61 90 a7 be 2c 92 20 be cc 57 8c 3e 0d c0 3a 3c
       -0.3272734 -0.1568076 0.27410734 0.011398328
000150 09 33 c8 3d 85 96 f2 3d 18 c2 21 3e 33 4a a5 be
       0.09775359 0.118451156 0.15796697 -0.32283172
000160 da 90 c4 3d 4e 40 8d bd fb 1b c3 be fb 96 08 bf
       0.09597941 -0.06897031 -0.38107285 -0.5335538
000170 6c 05 a0 bd df 59 d8 3e 0b 9f fc 3d 97 8a a8 3d
       -0.07813534 0.42256066 0.123350225 0.08229559
000180 a3 bd 98 bd ad 4a e2 3d eb 92 b1 be 39 dd d4 3d
       -0.07458045 0.110493995 -0.34682402 0.103937574
000190 05 ba 98 bd 69 92 ff bd 60 ad ac bd 1c bc b3 be
       -0.074573554 -0.124790974 -0.08431506 -0.35104454
0001a0 f7 66 33 3e 3a 66 a3 3d 32 7f 5d be ea 2f 78 3d
       0.17519747 0.079784825 -0.21630552 0.06059257
0001b0 1d f0 30 3e a8 93 c3 bd 63 7b 93 3e 2a 72 35 3e
       0.17279096 -0.095496476 0.28805074 0.17719331
0001c0 21 21 c9 bd 5b 09 10 3c 6a 8e f6 3c 81 00 f1 3c
       -0.09820772 0.008791293 0.030097205 0.029419186
0001d0 73 26 82 3d b1 da 4a bd 2f 10 d1 bd 38 25 9d bd
       0.0635499 -0.049524967 -0.10208165 -0.076731145
0001e0 90 82 47 3e 79 7d 59 be 3e aa 47 bd 9c 72 51 3d
       0.194834 -0.2123927 -0.04874634 0.05113469
0001f0 d5 dc 07 be a3 e4 8d bc e9 86 df be 7c 3e 8a 3b
       -0.13267834 -0.017320937 -0.43657616 0.0042188745
000200 2e 47 e2 3c 7d 8f ec bd 5c bc b6 bd 01 2a 87 bd
       0.027621832 -0.11550806 -0.089226454 -0.065998085
000210 63 e5 10 be 3f d5 1c be 53 8a 26 be 17 18 06 be
       -0.14150004 -0.15315722 -0.16263704 -0.13095127
000220 e4 10 75 bd c9 cd 31 bd ec bf 0f 3d d1 56 8c bb
       -0.05983056 -0.043409143 0.03509514 -0.0042828103
000230 6f 38 e2 bd 89 3c 53 3d b4 d8 89 be 48 eb 18 bd
       -0.1104592 0.051571403 -0.26923144 -0.037333757
000240 fd f4 18 3d e8 bf c0 bd 89 eb 2b 3e f2 af 72 3d
       0.037343014 -0.09411603 0.16789068 0.059249826
000250 53 bb 24 be fe 14 35 be 4a c4 88 3e f4 40 5b bd
       -0.16087084 -0.17683789 0.26712257 -0.05352874
000260 f9 47 6c be 3e a8 3e bd 61 e4 9f bd b1 85 17 3e
       -0.2307433 -0.046547167 -0.07807232 0.14797093
000270 a9 ad 3a 3d 52 8e 50 3c bd 45 76 3e 76 c3 be bd
       0.04557577 0.012729244 0.2405004 -0.09314625
000280 c9 89 91 bd 18 6a bb 3d ae 90 b9 3c 4c 9f a8 bc
       -0.071063586 0.09151095 0.022651996 -0.020583771
000290 32 a1 c8 bd a4 eb 04 be 65 22 2e bc bf 47 ad bd
       -0.097963706 -0.12980515 -0.0106283175 -0.0846095
0002a0 ec f2 7a 3e 34 c2 fa 3c a8 0d cf bc 87 36 d2 bd
       0.2450673 0.030610181 -0.025275066 -0.102643065
0002b0 6b 82 ae bd 9f df 69 3d 0e 62 26 3e d8 a1 ab bd
       -0.08520969 0.057098027 0.16248342 -0.083804786
0002c0 a1 f1 59 3e de 94 1d be ce d2 86 be d0 7f 51 3e
       0.2128358 -0.1538882 -0.26332706 0.20458913
0002d0 b6 ca ba bd 83 1c 25 3d 4a 7c 93 bd c6 33 91 be
       -0.09120695 0.040310394 -0.07201441 -0.28359812
0002e0 6b 4b 72 bd dc 02 08 be 87 5b e0 bc 19 a1 45 3b
       -0.059153955 -0.13282341 -0.027387394 0.0030155836
0002f0 1f 5b 54 3d a8 39 85 be 62 db 86 bd ea 5f e2 3d
       0.051844712 -0.2602055 -0.06584813 0.110534504
000300 88 a3 41 3d 18 31 30 bd 58 48 af bc 3a aa 4c be
       0.047275096 -0.04301557 -0.0213968 -0.19986811
000310 21 ce fe bd 3d d1 a2 bd 33 fa 3e be 71 af 9f 3c
       -0.1244166 -0.07950065 -0.18650131 0.019492837
000320 0a e9 2d be af 66 35 3c 51 72 13 3e 97 a3 03 bd
       -0.16983429 0.011071845 0.14399077 -0.032138433
000330 48 81 6c bd 88 4e 3f bd 61 db 01 3e aa 7c 8b bd
       -0.05774048 -0.046705753 0.12681343 -0.06810887
000340 7e af c9 bd 25 56 87 3d fe 43 9a 3e 8f 2b ec bd
       -0.098479256 0.06608228 0.3013 -0.11531746
000350 f4 dc 8f 3b fd c9 ec 3d b0 bd d6 bc 7f 53 04 bd
       0.0043903533 0.11561964 -0.026213497 -0.03230619
000360 07 96 57 3d 03 b7 07 be 21 10 88 bd e7 1e 1d 3e
       0.05263331 -0.13253407 -0.06643701 0.1534382
000370 6e e7 a7 3d b6 c7 8c 3d f8 d4 5b be 40 d1 f3 bc
       0.081984386 0.06874029 -0.2146796 -0.029762864
000380 9e 09 a1 bd f9 96 a4 bd cf 37 04 bd 7d 47 42 3d
       -0.078631625 -0.08036608 -0.032279786 0.047431458
000390 1a b9 2e bd 66 c4 30 3a 51 3d af bd ef 75 bb bd
       -0.042656995 0.0006743133 -0.08556617 -0.091533534
0003a0 22 78 62 be 48 72 d3 bd af 42 9c bb 70 85 16 3d
       -0.2211614 -0.10324532 -0.0047686915 0.03674835
0003b0 6d f7 a2 bd 51 7d be bc df c0 c7 bd 97 17 03 3e
       -0.07957349 -0.023253115 -0.09753584 0.12801968
0003c0 f3 15 1c 3b 21 5e f9 bd 11 56 b3 bd 17 43 90 3d
       0.0023816794 -0.12176157 -0.0875665 0.07044046
0003d0 f5 25 fc bd c6 58 29 3d c2 98 9c bc 7d d3 2f bc
       -0.12311927 0.041344427 -0.01911581 -0.010731575
0003e0 08 7a 3e 3d bb d5 82 3d ee a3 5f bc 75 17 32 be
       0.046503097 0.06388422 -0.013649924 -0.1739176
0003f0 5b d0 65 3d 3c 25 0d be 6e b2 7c 3d 54 e1 da b9
       0.056106906 -0.13783735 0.0616936 -0.00041748083

layers.0.edge_mlp.2.bias f4 [64]
000000 58 a4 63 be 10 88 45 be b4 12 80 bd d5 91 09 3e
       -0.22230661 -0.19290185 -0.06253567 0.13434537
000010 ba c1 3c be 71 58 e2 bd cb 65 f3 3b 24 1a 66 be
       -0.18433276 -0.11052025 0.007427906 -0.2247091
000020 38 e5 0f be 45 71 16 bd 5b a3 ae bb 0a 08 1a be
       -0.14052284 -0.036729116 -0.005329532 -0.15042129
000030 4e cb 4d 3d e5 43 0b be c9 ea 39 3e 2e 38 2a be
       0.050242715 -0.13600118 0.1815597 -0.16622993
000040 25 66 1b be 83 7f 9d bd c3 87 cd bd 8e eb 31 bd
       -0.15175684 -0.076903366 -0.1003566 -0.043437533
000050 ed 7f 48 be 56 20 18 bd e5 63 a1 bc b4 f8 d9 bc
       -0.1958005 -0.037140213 -0.019700954 -0.026607849
000060 55 82 ba 3d 0d db 86 be f7 d1 23 be a0 80 20 bb
       0.0910689 -0.26338997 -0.15998064 -0.002449073
000070 5d 6c 88 be 94 38 59 bc 29 3b 0e be d7 85 cd bc
       -0.26645175 -0.013258118 -0.13889755 -0.025088234
000080 63 42 11 be 1e 24 d3 bd 68 53 72 bd c1 20 05 bd
       -0.14185481 -0.10309623 -0.059161574 -0.03250194
000090 0c aa 7b be 54 58 da bd 1d 93 2a be 5d f0 df bd
       -0.24576586 -0.106613785 -0.16657682 -0.109345175
0000a0 f2 4c d6 bd e2 7a af bd 84 d9 8d bd 63 ad 0c 3e
       -0.10463895 -0.0856836 -0.069262534 0.13738017
0000b0 73 4f 5a bd 8c 36 17 3c 71 1b ed bc bc ee 21 3c
       -0.053298425 0.009229314 -0.02894375 0.009883579
0000c0 1a 6e e7 bd e9 36 c5 3d 4c 18 9c be 89 1f 9b be
       -0.11300297 0.09629614 -0.30487287 -0.30297497
0000d0 70 4c 3f be ad d2 38 3d 45 ef db bc a2 11 e5 bd
       -0.18681502 0.04512279 -0.026847491 -0.11185004
0000e0 ae 10 de bd ea 77 a3 3d 1f bc 43 be d2 39 80 be
       -0.10843025 0.07981856 -0.19114731 -0.25044113
0000f0 b0 35 49 3c 19 80 29 bd 6e 55 11 be fd bf 3b be
       0.0122808665 -0.04138193 -0.14192745 -0.18334956

layers.0.force_mlp.0.weight f4 [64, 64]
000000 39 fe f5 bd 73 83 24 3d 08 00 e3 bc 6b 7e 58 bd
       -0.1201138 0.040164422 -0.027709976 -0.052854937
000010 04 d8 4d 3c dc ac 1a 3d 8d f3 d9 bc 7d b5 81 bd
       0.012563709 0.037762508 -0.026605392 -0.06333444
000020 a4 5b 2f 3e e6 9c 61 3d 27 44 39 3c 80 ba 11 3d
       0.17124802 0.05508127 0.011307753 0.03557825
000030 3c 43 b4 3d ad eb b8 3d 50 75 00 be f8 f6 9b bd
       0.088018864 0.090293266 -0.12544751 -0.07615465
000040 df e2 89 bd 54 cf 6a 3e 72 ee ff 3c 69 94 88 bd
       -0.06732725 0.22930652 0.03124163 -0.06668932
000050 16 fd 96 bc e2 d7 e8 3c da 65 25 be 82 f1 35 3d
       -0.018431228 0.028423253 -0.16152135 0.044419773
000060 ea c2 89 3d c7 f2 8e bd 76 b1 52 bc d7 07 c4 3d
       0.0672663 -0.069799 -0.012859693 0.09571808
000070 70 4b 1f 3d cc 67 43 be 09 df 32 3e af ea bc bd
       0.038890302 -0.19082564 0.17467894 -0.0922445
000080 50 6b d7 3d c6 c1 86 bd fd e2 88 bd 7c cf 49 3d
       0.10518515 -0.06579928 -0.066839196 0.04927014
000090 74 dd 9a 3d 6e 62 2b 3d 01 f6 0f bc 0a cb da 3c
       0.0756177 0.041841917 -0.008786679 0.026708145
0000a0 4c c3 50 bc e1 cb e9 3d 78 2b 46 bd d8 44 cf bd
       -0.012741875 0.1141584 -0.0483813 -0.10120553
0000b0 5d d7 3b bd c0 9c 86 bd 45 b7 5e 3d 6b 26 b6 3d
       -0.045859683 -0.065728664 0.054374 0.088940464
0000c0 99 6a 38 3e 72 fd c0 bc 8d d6 2c 3d 1f a5 18 bd
       0.18009414 -0.023558352 0.0421968 -0.037266847
0000d0 39 54 5a 3d c0 b8 ca 3d a4 b1 1d be 54 54 15 be
       0.053302977 0.098985195 -0.15399796 -0.1458295
0000e0 6a 6b 6e 3e ad 10 96 bd 36 bb b1 3d 31 c0 6b be
       0.23283163 -0.073273994 0.08678286 -0.23022534
0000f0 85 67 47 3e 24 2f 0e 3c 50 db cf bb e6 ad 22 3e
       0.19473083 0.008678231 -0.0063432828 0.1588665
000100 0c 4f 5a be bf aa 62 3c 08 bd f2 bd 25 47 97 3d
       -0.21319216 0.013834654 -0.11852461 0.073866166
000110 0b a1 60 bd d9 ee 23 bd 67 54 52 3e e9 8d 3b be
       -0.054841083 -0.040022705 0.2054001 -0.18315853
000120 f7 64 70 3d cb 22 40 be 81 51 bb bd d9 c4 d5 bd
       0.058690038 -0.18763272 -0.09146405 -0.10437936
000130 e3 e8 df bd f1 6f 00 be 0c 59 a2 bd 11 b1 2e be
       -0.109330915 -0.12542702 -0.079271406 -0.17059733
000140 2a c7 aa bd 00 7e d5 bc 6a 82 0c 3e da ee 56 3d
       -0.08338769 -0.026061058 0.13721624 0.05247388
000150 01 0e 8b be 7c ae 7e be e3 91 0f be 13 d8 1e be
       -0.27159122 -0.24871248 -0.14020495 -0.15512113
000160 e2 68 1e be 80 ef a1 3b 39 db 08 be b8 9e 7f bd
       -0.15469697 0.0049418807 -0.13364877 -0.062407225
000170 ce 45 90 3d fd 36 65 3d bd 6b d3 bd 00 3a 0e be
       0.07044564 0.055960644 -0.10323284 -0.13889313
000180 44 98 e1 3c f6 82 c9 3c 09 d6 5a bd 57 99 e6 bd
       0.027538426 0.02459858 -0.053426776 -0.11259716
000190 52 94 11 3d 4f 56 07 bd aa b0 09 3d ef 68 d2 bb
       0.03554184 -0.033041295 0.033615746 -0.0064212005
0001a0 c3 6e a1 3d 87 1a 8c 3c 9b 02 05 be d7 1f 8a be
       0.07882454 0.017102493 -0.12989275 -0.26977417
0001b0 67 ab ef 3d 96 1e f0 3d cb b5 e0 bd 18 e8 50 bc
       0.11702614 0.11724584 -0.10972174 -0.012750648
0001c0 b3 e5 b7 3c cc 42 cd bd 52 bd 82 3d 44 24 4f 3d
       0.022448396 -0.10022506 0.06383766 0.050571695
0001d0 0a 72 02 3e a8 40 10 3e a4 05 21 3d 04 17 14 be
       0.12738815 0.14087164 0.03931202 -0.14461905
0001e0 e9 d8 6f bd 52 d9 79 3d 57 55 db bd be f8 22 be
       -0.05855647 0.06099827 -0.10709637 -0.159152
0001f0 7d f7 33 bd 7b 3c 66 bd b8 86 a9 bd 40 a7 ad 3d
       -0.043937195 -0.056210022 -0.08277649 0.08479166
000200 bb 71 c3 bc 6e 8f 5b 3e cf 53 09 bd 84 e0 01 bd
       -0.023857942 0.21441433 -0.03352719 -0.031708255
000210 24 d7 1c bd e1 0a 4b 3e 4d 19 55 3d c6 39 a7 bc
       -0.03829111 0.19828369 0.05202608 -0.02041329
000220 75 42 2b 3e 92 2b e3 3d 1f 49 f3 3d 4c fb 69 3d
       0.1672457 0.11092295 0.11879181 0.05712442
000230 93 00 6b 3e 74 0d 41 bd a0 22 29 be d6 c9 a8 bc
       0.22949438 -0.04713197 -0.16517115 -0.020604055
000240 a1 4f a6 bd 7a cd 57 3e 1c 66 04 bd b6 ed 1b 3d
       -0.08120657 0.21074477 -0.03232394 0.038068496
000250 46 b9 79 bd fb 90 e8 bd dd 09 3e be 43 8d fc 3c
       -0.060967706 -0.11355778 -0.1855845 0.030829078
000260 52 23 0f 3d e3 1b ba 3d 6f c6 02 3d d8 13 b2 3d
       0.034945793 0.0908735 0.031927522 0.08695191
000270 ea 06 a6 3c ea 3e 16 be 50 3f dd bb 4c 8e 2a be
       0.020266969 -0.14672437 -0.006751932 -0.16655844
000280 8f 3b a0 bc 7d 8c c7 bd fc 44 ab 3d bf 56 af 3d
       -0.01955965 -0.09743593 0.08362767 0.085614674
000290 cc d5 94 3e 6e 76 28 3e 20 88 1f 3c dc 62 aa 3c
       0.29069364 0.16451427 0.009737045 0.020799093
0002a0 fe 93 8e bc f3 52 eb 3c 9e 66 ce 3d 3a 3d a1 bb
       -0.017404553 0.028726077 0.100781664 -0.004920629
0002b0 f0 40 d5 3c 25 fe 9c bd 20 5e a1 bd e3 68 4e bd
       0.026031941 -0.07665662 -0.07879281 -0.050392997
0002c0 55 a8 13 3e 8e ed ce 3d c9 ee 18 3e d7 9a d1 3d
       0.14419682 0.10103904 0.1493484 0.102346115
0002d0 89 52 b4 3c ca e0 04 be 2f c9 3e be 90 ec de bd
       0.022012012 -0.12976375 -0.18631433 -0.108849645
0002e0 a7 a6 a5 3c ab 70 27 be 93 80 1b 3d fc 4a 91 be
       0.020221068 -0.16351573 0.037964415 -0.2837752
0002f0 d0 b8 8e 3e 67 37 bc 3d 5d 97 20 bc 63 f2 40 3e
       0.27875376 0.09190255 -0.009801713 0.18842463
000300 77 94 e1 3d 83 c2 9d 3d 1f 87 fe 3d bd 1f a6 bd
       0.110146455 0.07703116 0.12428116 -0.08111522
000310 08 5b 14 3e ff b7 e1 3c e8 c9 1a 3e 92 48 25 be
       0.1448785 0.027553556 0.15116084 -0.16140965
000320 57 0a c0 3d 68 79 6e 3d 76 81 45 3e 42 90 1c bb
       0.09376972 0.05822125 0.19287667 -0.0023889695
000330 8b 6e e4 3c 88 fd 30 3e 4a 6f 05 be 43 00 c4 bc
       0.027884742 0.17284214 -0.13030735 -0.023925906
000340 7a ef f9 3d bd 72 b4 3d c5 73 b2 bd 28 11 13 3c
       0.1220388 0.08810947 -0.087134875 0.008976258
000350 6a ec a6 bd a0 d6 65 bd 75 94 31 bd 87 5b 92 3d
       -0.08150561 -0.056112885 -0.04335447 0.07146364
000360 84 31 82 bd 01 84 d8 3c a9 31 41 3d 6f c0 75 bc
       -0.063571006 0.026430132 0.0471665 -0.014999493
000370 d1 c9 d7 bc d6 6f 5f be 28 1e 43 bc 06 af 21 be
       -0.02634135 -0.21820006 -0.011909045 -0.15789422
000380 e0 0e f5 bd 73 92 ea 3d b1 60 63 3c 92 87 cf 3d
       -0.11965728 0.11453714 0.0138780335 0.1013328
000390 b3 26 bd 3c b5 1c 5c 3d 7f b8 e4 3d fa 18 65 3d
       0.023089742 0.053738315 0.11168002 0.055932023
0003a0 08 89 39 bd 24 78 7b bd 14 3d 5e 3c f8 7d 9a bd
       -0.0452967 -0.061393872 0.013564367 -0.07543558
0003b0 08 8b 54 bd 2f 75 4c bd f0 1f 1d 3c 08 4f 5c bd
       -0.051890403 -0.049916442 0.009590134 -0.053786308
0003c0 64 45 c6 3d 3d d3 e5 3d 84 9d 5a 3d dc fe 15 3d
       0.09681204 0.11221931 0.053372875 0.036620006
0003d0 3a 56 b8 bc 81 eb 7a 3d cb 4c c0 bd ff 5d 5d be
       -0.022502054 0.06125975 -0.09389647 -0.21617888
0003e0 ed be 04 3e 3e d6 3c be 55 ce 0e 3d ca 4e 17 be
       0.12963457 -0.18441102 0.034864742 -0.1477615
0003f0 63 18 12 3e 9f 5e 68 bd 59 f6 29 be f3 92 63 3d
       0.14267115 -0.056730863 -0.1659788 0.055560064

layers.0.force_mlp.0.bias f4 [64]
000000 35 69 41 bd 27 5c 0d bd 19 7a 89 be c9 a1 6a be
       -0.047219474 -0.03451171 -0.26850966 -0.22913279
000010 06 b0 35 3e ba 40 27 bd 00 a1 73 be 1f 01 0b 3e
       0.17742929 -0.040833212 -0.23791885 0.13574646
000020 55 af 6e be c9 3c bb 3d 1c b8 75 3e a1 cb 86 bd
       -0.23309071 0.09142453 0.23996013 -0.06581808
000030 67 cf 3c bd 05 86 c4 3d b6 e1 29 be fb 2e d8 3d
       -0.04609623 0.09595875 -0.16590008 0.10555836
000040 da 3d 17 3e ec 47 80 be 34 5d e1 3d 96 7f f2 bb
       0.14769688 -0.25054872 0.11004105 -0.0074004633
000050 52 91 98 bd 85 5d 0b 3e ef ab 02 3e 11 e4 3f bc
       -0.07449593 0.13609894 0.127609 -0.01171209
000060 21 26 c5 3d 2e 35 7d 3d 11 46 c5 bd c5 76 5b be
       0.09626413 0.061818294 -0.09632505 -0.21432026
000070 80 14 36 bd f9 ca 8e be d6 99 d4 3d ad 6b 97 be
       -0.044453144 -0.2788923 0.103809044 -0.29574338
000080 dd 10 71 3e 18 96 d4 bd c9 f1 6c be a1 0b 96 3d
       0.23541589 -0.103801906 -0.23139109 0.07326437
000090 67 13 70 be 83 f2 42 be c7 0f f7 bb 66 32 b2 3d
       -0.23444901 -0.19037823 -0.0075397226 0.08701019
0000a0 9d f5 a8 3d 60 e2 e0 bd 77 a4 1a 3e bb 08 1c be
       0.08249972 -0.109806776 0.15101801 -0.15237705
0000b0 92 9f ab bc df f0 ee 3d d4 28 10 3e e3 78 08 ba
       -0.020950112 0.11667036 0.14078075 -0.0005206002
0000c0 64 1f 58 be 94 87 0d bd 13 60 86 be 1f c4 96 be
       -0.21105725 -0.034553126 -0.26245174 -0.29446504
0000d0 46 6d 98 be b5 fa 80 be 57 65 c5 3c 7b dc 14 3e
       -0.2977087 -0.25191274 0.024096174 0.14537232
0000e0 07 68 9d 3d 70 88 64 be ca ac 3d 3e 0e 7a 73 be
       0.07685857 -0.22317672 0.18522945 -0.23777029
0000f0 01 89 4c be 9a 25 f0 bd 50 b5 7a be 32 b2 10 be
       -0.19974138 -0.11725922 -0.24483228 -0.14130476

layers.0.force_mlp.2.weight f4 [1, 64]
000000 43 e3 8f 3d bb 1e 02 3d cb 38 7c 3d 98 33 a3 3d
       0.070257686 0.031767588 0.0615776 0.07968825
000010 c3 3b 83 bd 45 77 ac ba e4 87 03 3d a8 6e b3 bd
       -0.06407883 -0.0013158104 0.032112017 -0.087613404
000020 58 a8 79 3d cf 14 c8 bb a5 e3 ea bd 4e b3 56 3d
       0.06095156 -0.006105996 -0.11469201 0.052417092
000030 4e 80 d9 3c d5 78 71 3b a3 0e a0 3c 02 e0 a8 bd
       0.026550438 0.0036845703 0.01953823 -0.08245851
000040 7b 12 cb bd 3c 19 e6 3d f3 98 2e be c3 87 8b bb
       -0.09915634 0.11235282 -0.17050533 -0.0042581274
000050 69 87 1a 3c d4 10 50 bd 69 52 ec bd f9 7e 39 bb
       0.009431698 -0.0507973 -0.11539156 -0.0028304441
000060 93 73 8f bd 51 5c 22 bc ac 16 a4 3d 6d 7a ad 3d
       -0.07004466 -0.009909705 0.08012137 0.084706165
000070 97 15 a1 3b 18 46 16 3e 6a f5 a3 3c 8d 79 01 3e
       0.004915904 0.14675176 0.020014483 0.12644024
000080 6f 4c 06 be fc 2b f6 3d 27 de dd 3d 29 99 10 bd
       -0.13115095 0.12020108 0.10833388 -0.035302315
000090 8d be e2 3c 8e 36 d8 3d 0e 52 cd 3b e7 ad f2 3b
       0.027678752 0.105572805 0.006265885 0.0074059847
0000a0 dc e3 f5 bd 95 c4 c5 3d c6 0f ec bc 89 94 b2 3d
       -0.12006351 0.09656636 -0.028816115 0.08719737
0000b0 9f 78 11 3d 89 46 f2 bb 32 8b 98 bd 28 f7 5c 3c
       0.035515424 -0.0073936624 -0.074484244 0.013486661
0000c0 03 d7 4d 3c 01 50 1c bd a5 fb 89 3d 8f f7 90 3d
       0.01256347 -0.038162235 0.067374505 0.07078468
0000d0 fd 05 ad 3d 0f 3d 03 3e d7 16 95 bc 9d 17 0d bd
       0.08448408 0.12816261 -0.018199367 -0.034446348
0000e0 43 94 c7 bb 5a 13 4c 3d 7b a3 3e bd 53 7b 66 3d
       -0.006090672 0.049823143 -0.046542626 0.056269955
0000f0 e2 6c 76 3d c2 36 0b 3d 4e b9 91 3d d5 e7 e9 3c
       0.060162432 0.033987768 0.07115422 0.028552929

layers.0.node_mlp.0.weight f4 [64, 128]
000000 8d 3d 79 bd 15 83 9b 3d 11 ae a3 3c 9d 66 9e 3c
       -0.060849715 0.07593361 0.019980462 0.01933604
000010 e5 6b 1f bd 58 48 63 3d dd 2d 8f bc 7e 23 00 bc
       -0.038921256 0.055488914 -0.017477924 -0.007820962
000020 5f 49 19 3d e9 cb 46 3d 01 b5 7d bd 2e d0 e0 bc
       0.037423488 0.048534308 -0.061940197 -0.027443018
000030 72 fe 53 bd ac 57 b3 bd 3b 54 46 bc 99 3c 9e 3c
       -0.05175633 -0.087569565 -0.012105043 0.019316005
000040 99 d1 ce bb f3 39 e5 3c 49 59 a1 bc d4 68 4d 3c
       -0.006311607 0.027981734 -0.019695895 0.0125372
000050 26 84 a5 3d 82 e1 57 3d f3 bf 14 3d c6 66 71 bd
       0.08081846 0.052705295 0.03631587 -0.058935903
000060 62 7f 0d bd e9 f0 34 3d c0 47 5d 3b 3e 86 9b 3d
       -0.03454531 0.044175062 0.003376469 0.07593964
000070 1f 06 9a 3d 24 94 84 bc e3 8a 28 3d 72 4b c8 bc
       0.07520699 -0.01618392 0.041148078 -0.024450038
000080 58 22 b8 bd 38 8e 26 3d be 06 6e 3d a3 9a 3b bd
       -0.089909256 0.040662974 0.0581119 -0.04580177
000090 f6 17 94 3c 4d 4a 0e 3d 4b 9b c5 3c 9c a6 25 3d
       0.018077832 0.034738827 0.024121901 0.040442094
0000a0 69 b6 e6 3b 3e c4 be 3d aa 6b ba bd 87 8f d2 bc
       0.007040788 0.09314774 -0.091025665 -0.025703205
0000b0 75 5b 8d bd 24 57 03 bd 08 90 d0 bd 15 b7 d5 bd
       -0.0690221 -0.032065526 -0.10183722 -0.10435311
0000c0 e2 61 2f bd be c2 2c bd a6 47 cb bb 6a 9b 95 bd
       -0.042817958 -0.042177908 -0.0062036095 -0.073050335
0000d0 47 22 93 bc 10 be 03 bd d8 11 cf bc 9c f4 5a bd
       -0.01796068 -0.03216368 -0.025277063 -0.053455934
0000e0 86 1b 2c bd c2 31 37 3d 9f 20 a0 bb 5f 72 a4 bd
       -0.042018436 0.044725187 -0.0048867012 -0.08029627
0000f0 2f aa 1e bc ce 1b 25 3d 44 c3 52 ba 71 b1 c7 3c
       -0.00968413 0.04030972 -0.0008039961 0.024376603
000100 47 1e 0a bd 91 9d 1b 3d 30 c7 a6 bd d1 8f d2 3c
       -0.03372028 0.037992064 -0.08143461 0.025703343
000110 41 51 21 3d 40 65 12 bd 46 ad ae bd 4f a1 c8 3d
       0.03938413 -0.03574109 -0.08529143 0.09796392
000120 33 a0 8c 3d 2b 85 0f be f8 f1 ca bb 83 27 43 bd
       0.06866493 -0.14015643 -0.0061933957 -0.047645103
000130 5c b1 8c bc 51 80 52 3d c4 18 0c 3d 1e 89 28 bd
       -0.017174415 0.051391903 0.034203306 -0.04114639
000140 0a 6c 96 bd 56 d1 32 3c 24 31 e9 3a f1 31 74 be
       -0.073448256 0.010914167 0.0017791134 -0.23847176
000150 72 a5 bc 3c d4 5a 34 3c a9 77 1e 3d 8c b2 e3 38
       0.02302811 0.011007983 0.038688336 0.000108574604
000160 d3 70 23 be 00 f3 df 3c ec ba ed 3d 43 10 d1 bd
       -0.15961008 0.027337551 0.11607918 -0.1020818
000170 da 91 3e 3d d2 a0 1b bd 0b 9b cb 3d 56 37 42 3d
       0.046525814 -0.037995167 0.099416815 0.047416054
000180 1e 63 5f 3b ba a4 d1 bd ec f9 82 bd e0 38 14 3d
       0.0034086178 -0.10236497 -0.06395325 0.036187053
000190 7f 96 1c 3d 6a 4f 4c bd 0e 3d 74 3d ea 8a 57 bc
       0.03822946 -0.049880423 0.05962854 -0.013155678
0001a0 4b 78 a6 bd 41 74 88 bd 36 ff 7a 3d 04 16 67 bd
       -0.08128413 -0.06662799 0.061278544 -0.05641748
0001b0 08 02 6b 3d 97 4b ee 3c 29 69 14 bb d1 bf 1d bd
       0.057374984 0.029088778 -0.0022645688 -0.03851301
0001c0 5a 04 1d 3d aa e5 af bd 58 c6 63 bd f3 04 08 bd
       0.038334228 -0.08588727 -0.055609077 -0.033207845
0001d0 7f 5f c7 3d 87 db 5c 3d 13 74 3a 3c 08 d9 13 3c
       0.09735011 0.053920295 0.011380213 0.009023912
0001e0 3e 57 c5 bd 81 73 4b bd c0 9e 60 bc 34 4b 8c bd
       -0.09635781 -0.0496707 -0.013709724 -0.06850281
0001f0 b1 ea f7 3d e7 e1 ab bd 27 14 b1 bd df 82 11 bd
       0.12105311 -0.08392697 -0.08646422 -0.0355252
000200 b6 fd 6b bd 82 09 bb 3c 85 29 88 3e 25 fc 64 3e
       -0.057615004 0.022831682 0.26594177 0.2236181
000210 75 20 84 bc 3f ac 2d 3e 34 2f 09 3d 5d f7 81 be
       -0.016128758 0.16960238 0.033492282 -0.25384036
000220 02 5d 78 3e fc 4b 1a be 29 a2 17 bd 8a 4c 4d bc
       0.2425423 -0.15068048 -0.037019882 -0.012530455
000230 79 b1 ea 3d 3c af 94 3e 82 dc 67 3c db e7 7f 3d
       0.114596315 0.29039943 0.014151694 0.062476974
000240 a4 18 9a 3e de 0e 51 3e 59 f7 51 bd 79 d3 03 3e
       0.30096924 0.20415828 -0.05126128 0.12873639
000250 60 9c ba bd 95 30 2e 3e 72 3c 32 be 14 8b 8a 3e
       -0.091118574 0.1701072 -0.1740587 0.27059233
000260 d1 bd c9 bd 70 c1 82 3e 19 ec b3 bd af 25 b7 3a
       -0.09850658 0.25538206 -0.087852664 0.0013973023
000270 e6 9a 56 be 8f f1 0e bf e1 f7 8f 3d 8c 14 ba bd
       -0.20957527 -0.5583734 0.07029701 -0.0908595
000280 55 a2 6a 3e f3 77 9e 3e d1 1f 85 3e 44 a6 49 bd
       0.22913487 0.3095089 0.26000836 -0.04923083
000290 4c 0a 57 3e e4 94 3c bd c8 72 72 bd 57 53 86 bd
       0.21000022 -0.04604043 -0.059191495 -0.065588646
0002a0 39 f0 25 3d 26 80 a0 be cb 44 a9 bc be 2a 9a 3e
       0.040512297 -0.3134777 -0.020662686 0.30110735
0002b0 e4 b1 1b 3e f2 21 1e be b8 b4 82 bc e1 fe 4c 3e
       0.15204579 -0.15442637 -0.015955314 0.20019104
0002c0 09 10 23 bd f1 8f 83 3e 23 59 72 be 3c 9d 85 bd
       -0.039810214 0.25695756 -0.23666815 -0.06524131
0002d0 0e f0 07 bd d8 9b 46 be 47 55 53 3e c7 9e e4 3b
       -0.03318792 -0.19395387 0.20638 0.0069769355
0002e0 66 c5 be bd 1f 7f 64 be 20 0c 24 3d ab 18 25 be
       -0.093149945 -0.22314118 0.040050626 -0.16122691
0002f0 9a ab 06 bc 05 9a 53 bc be 49 bd be be 9c d5 ba
       -0.008219624 -0.012915139 -0.36970323 -0.0016297323
000300 b6 3b 4a 3d ba 29 5f 3d c9 cf c4 bc 16 83 8a bc
       0.04937335 0.054483153 -0.024024861 -0.01690821
000310 63 fa 0a 3e 01 8b 0b 3e 33 a9 cf bc b2 2b c3 3c
       0.13572077 0.13627245 -0.025349235 0.023824546
000320 19 2a 9f 3d ab af 14 3d b6 d0 9a 3d fa 6d 80 3b
       0.07771701 0.036300343 0.0755934 0.00391936
000330 9f e1 e3 bc c8 16 d9 3d 0e bd 2f be 5c 8f 76 be
       -0.027817545 0.10600048 -0.17161962 -0.24078125
000340 59 e1 cd bd 05 71 9f 3d 35 cb 6c ba 7d 7b 2a 3d
       -0.10052747 0.07785229 -0.0009032966 0.041621674
000350 56 61 83 bc 7c 9f 1e 3e 5e b2 92 bd e9 f4 b1 3d
       -0.016037624 0.15490526 -0.07162927 0.08689291
000360 ed f7 af bc a3 48 d7 3d d0 20 47 3e 6e 54 e2 3d
       -0.021480525 0.10511901 0.1944611 0.1105126
000370 8b d1 0b 3d ce d2 ef bc 8b c7 b1 3d bb 53 90 be
       0.034135383 -0.029275324 0.08680638 -0.2818888
000380 ff 1f 20 3e 3d e7 8f 3d 6a 86 24 3d 03 85 84 bd
       0.15637206 0.07026527 0.04016725 -0.064706825
000390 44 f4 1f 3e 35 e0 1f 3d bc 25 88 3d f9 7d 25 bd
       0.15620524 0.03903218 0.06647822 -0.04040334
0003a0 de 40 94 3d b1 48 c0 bd d6 a9 31 3d bd 2f a9 3c
       0.07238935 -0.09388865 0.04337486 0.020652646
0003b0 40 91 46 3d 55 43 cf 3c 5a c1 51 bd 40 35 a8 3d
       0.048478365 0.025300661 -0.051209785 0.08213282
0003c0 a8 97 4a 3e ad d3 33 be cd c2 d7 3c dd 36 29 bb
       0.19784415 -0.17561217 0.026338005 -0.0025820055
0003d0 56 f9 93 3c 8e 6d a5 be 0a 1a d1 be 6f a4 18 be
       0.018063229 -0.32310146 -0.4084018 -0.14906476
0003e0 a7 21 6d bd cf 7d 85 be 91 cf fd 3d 64 bd af be
       -0.05789342 -0.26072547 0.12393106 -0.3432418
0003f0 28 26 16 bd ee 4d 2d 3d 22 ac c3 3c a3 cc 17 3d
       -0.036657482 0.042310648 0.02388579 0.03706039

layers.0.node_mlp.0.bias f4 [64]
000000 f0 1d 35 bd e1 c4 2f be bc a5 38 be 41 e7 73 be
       -0.044218004 -0.17164947 -0.18031973 -0.23818685
000010 5e 17 5e bd fa e0 3a bd 4f 4d 9a bd a9 bc f8 bd
       -0.054221503 -0.04562471 -0.07534277 -0.12145359
000020 76 f1 c9 bd 9d a6 1e be bb 1a 84 be b1 03 04 bd
       -0.09860508 -0.15493245 -0.25801644 -0.032230083
000030 9b 28 db bc 8b e5 c3 bc e4 0f 36 be ea 01 e6 bb
       -0.02675276 -0.023913166 -0.177795 -0.007019271
000040 4b 07 ef bd df 18 6c bd de 65 0a be 72 e7 e4 bd
       -0.11671313 -0.057640906 -0.13515422 -0.11176957
000050 e8 ce 1b bd ca 68 ef bd e7 aa f4 3c 1f 2c 14 3d
       -0.038039118 -0.11689909 0.029866649 0.03617489
000060 5b ff 9a bd 73 3e 24 bd f2 b2 f2 bd 5f a6 ba bd
       -0.075682364 -0.04009862 -0.11850537 -0.09113764
000070 37 fa 25 be ce 65 a9 be 6a cb bf bd 61 68 a4 bd
       -0.1620873 -0.33085483 -0.0936497 -0.08027721
000080 20 f1 4f 3d 5d 5e 03 be 19 ac 8f bc ac 25 b2 bd
       0.050767064 -0.12828965 -0.017538117 -0.086985916
000090 f3 62 d5 bd bf 0f 50 be fc 1d 25 bd 04 5e 0c be
       -0.10419264 -0.20318507 -0.0403118 -0.13707739
0000a0 17 1f 73 bd b5 e5 a0 bd e2 e8 91 bd 51 f6 93 be
       -0.05935582 -0.07856313 -0.07124497 -0.28898862
0000b0 00 97 f5 3c 62 01 18 bd ca 73 68 3d 73 66 67 bd
       0.029979229 -0.037110694 0.05675105 -0.056494188
0000c0 3f 88 c8 bd d7 c3 5c be 84 7b 89 bd 14 08 c2 bd
       -0.09791612 -0.21559082 -0.06713012 -0.09474197
0000d0 51 ca 6e bd 61 e0 14 bd 7f b1 d6 bd c8 c0 78 bd
       -0.058298413 -0.036346797 -0.104830734 -0.060730726
0000e0 50 20 b2 bd de 5b c4 3d 75 24 97 bd b3 d2 e5 bd
       -0.08697569 0.09587835 -0.073800005 -0.11221828
0000f0 5f fe f0 bd 05 ea 74 3c 4e 53 ae bd 2e 7b de bd
       -0.117672674 0.014948373 -0.08511983 -0.108633384

layers.0.node_mlp.2.weight f4 [64, 64]
000000 c8 16 f1 3d 45 eb 1f be 40 38 6d 3c 0c 75 3d bd
       0.11771923 -0.15617092 0.014478743 -0.046254203
000010 42 cb 21 bb 40 f0 6f bd f8 12 5e 3c 84 c7 1d bd
       -0.0024687801 -0.05857873 0.013554327 -0.03852035
000020 36 dd 1a 3d 5a 89 f9 bd 7e 56 ad bd 96 15 de 3d
       0.03780862 -0.12184401 -0.08463763 0.10843961
000030 57 76 bf 3c 2a fb fd bd 52 9a d5 bd a0 8c ac bc
       0.023371859 -0.12401421 -0.10429825 -0.021063149
000040 34 61 99 bd 8a 15 b3 bd e0 d3 34 bd 83 9e 0b bd
       -0.07489243 -0.087443426 -0.044147372 -0.034086715
000050 bf 97 13 3c 2f 5d 6a bd ba 3a 93 bd 45 52 6f bc
       0.009008347 -0.057217773 -0.071889356 -0.014607017
000060 a0 ba 85 3b dc b6 b5 bd 88 68 4f 3e 11 f9 82 3d
       0.0040810853 -0.08872768 0.2025472 0.06395162
000070 d5 eb 31 bc 19 60 0e bd 22 a2 87 bc 68 2f c3 bc
       -0.010859449 -0.034759615 -0.016556803 -0.023826316
000080 09 c0 d6 bd 37 a3 70 3d 86 be 1c 3c f2 60 e2 3c
       -0.104858465 0.058749404 0.009566909 0.027634118
000090 be 79 87 bd b6 64 8d 3b 4f a1 1e 3c 94 51 12 bd
       -0.06615017 0.004314984 0.009682014 -0.03572233
0000a0 b6 e4 eb ba e4 65 b9 bc 02 02 38 3d c6 d8 1b bd
       -0.0017997238 -0.022631593 0.04492379 -0.038048528
0000b0 48 02 29 3e c3 71 98 3d 5b 85 48 be ef dd 14 3d
       0.16504776 0.07443573 -0.19582121 0.036344465
0000c0 96 8d 26 3d 7e 93 eb bd b7 e6 d2 bd 97 f1 aa bd
       0.04066237 -0.11502741 -0.102979116 -0.08346861
0000d0 0c bf 75 bd ed e4 8f bd fb 63 4c bb 6c 04 88 bd
       -0.05999665 -0.07026086 -0.0031187523 -0.066414684
0000e0 d1 de 55 bd 1a c1 e2 3c 10 7c 4c bd 63 86 5c bc
       -0.052214447 0.027679969 -0.049923003 -0.013459775
0000f0 3b 94 d2 bd 83 13 1b be c8 f9 aa 3d ca 6a a2 3d
       -0.10282179 -0.15144162 0.08348423 0.07930525
000100 54 ad cf bb c7 05 14 3e e4 af 8c bd 98 02 5b 3b
       -0.006337801 0.14455329 -0.06869486 0.0033418294
000110 93 b5 bc bd 98 c4 66 3d ff 49 57 3d 1b 64 0e be
       -0.0921432 0.05633983 0.052560803 -0.13905375
000120 01 c2 ae bd a8 2d 3b bd 22 9c ef bd e8 7e d8 bd
       -0.08533097 -0.045697838 -0.11699702 -0.105710804
000130 99 8a 8a 3c b9 c8 b6 bd eb f4 1e 3c f7 92 b1 3d
       0.016911792 -0.089250036 0.009701948 0.086706094
000140 38 32 96 3d f1 63 09 3c e5 68 70 3d 9d 08 71 3d
       0.07333797 0.008385644 0.058693785 0.058846105
000150 2a 13 ad 3d c8 8b 58 bd 70 ab b0 bd 2b 3e 68 3c
       0.08450921 -0.05286768 -0.08626449 0.014174978
000160 a0 82 09 bd 61 9c 87 3d e6 ac 67 3e 14 6a 9e bd
       -0.03357184 0.06621624 0.2262455 -0.077350765
000170 ab dd a6 bd fb bf 5c bd 68 19 2f 3d 0e 8d 30 3d
       -0.081477486 -0.053894024 0.04274884 0.04310327
000180 3f 46 b9 3b 76 6d 3f bd e7 7d 18 bd 3d 00 ae 3d
       0.005654126 -0.04673525 -0.037229445 0.08496139
000190 2c ec db bc 72 81 4a 3d 74 ee 7b 3d f9 da 34 3d
       -0.026846014 0.049439855 0.061506703 0.04415414
0001a0 60 49 ac bd fe 72 55 be b1 b0 dd 3c 17 1c f7 bd
       -0.08412433 -0.20844647 0.027061792 -0.120659046
0001b0 e5 28 b3 bc b3 6c 8a bc 5e e5 61 be 0f 8f 60 3d
       -0.021870086 -0.016897535 -0.22060153 0.05482393
0001c0 8d 13 14 3d ea 64 98 3d 7c 18 09 3e 34 b7 86 bd
       0.036151458 0.07441123 0.13388246 -0.06577912
0001d0 78 90 ce 3d 73 23 31 3d 54 2d 7a bd bf 05 d3 3c
       0.10086149 0.043246698 -0.061078385 0.025759576
0001e0 d8 b3 17 be ea 76 46 bd e1 3e 02 3e 73 08 6e 3d
       -0.14814699 -0.04845325 0.12719299 0.058113527
0001f0 46 29 02 3e 32 35 ae 3d f9 b5 4f bd 8d 2f 4c 3c
       0.12711057 0.0850624 -0.050710652 0.012462509
000200 10 e8 96 3d d1 2b 97 3d 6e 19 fe 3c a3 43 14 3e
       0.07368481 0.07381404 0.031017985 0.14478926
000210 4e 61 b4 3d b3 64 98 bd 34 53 c9 3c 6b 36 20 3e
       0.08807622 -0.07441082 0.024575807 0.15645759
000220 c6 52 74 3d c3 50 9a bd 94 35 69 3e c2 52 75 bd
       0.05964925 -0.07534935 0.22774345 -0.059893377
000230 b6 8b 25 bd 82 b0 ff 3d 19 50 63 3e f7 e4 79 bd
       -0.04041644 0.12484838 0.22198524 -0.061009374
000240 53 e2 01 3e f2 84 25 be 6e 2d 33 3e a8 b0 9e bc
       0.12683992 -0.16163996 0.17497799 -0.019371346
000250 3c 48 43 3d 72 8d 3d bd 82 08 a3 3c a4 69 4a bd
       0.04767631 -0.04627747 0.019901518 -0.049417153
000260 07 a2 22 3c d6 35 84 3c 82 ae 12 3d b4 39 40 bd
       0.009926326 0.016138952 0.035810955 -0.04693003
000270 8f 36 3c be 2e 9f d9 3d 01 7d 1f 3d c5 fb e8 bc
       -0.18380187 0.10626064 0.038937572 -0.028440366
000280 40 c9 27 3d 8c 0f 40 bd f0 fd 86 bd fa aa ef 3d
       0.04096341 -0.046889827 -0.065914035 0.11702533
000290 e4 8b 36 be 00 a8 a3 bc 1e 38 8e 3d 8c 86 60 3d
       -0.17826802 -0.01997757 0.06944297 0.054815814
0002a0 9f 60 03 3c 6a a6 21 be f1 4e 41 3d 2f 96 2d bd
       0.008018642 -0.15786138 0.047194425 -0.042379554
0002b0 7e 3a 2a be d7 8f d8 bc ca ca 69 3e 95 00 be 3d
       -0.16623875 -0.026435776 0.22831264 0.09277455
0002c0 c1 5f 44 be 8f 60 7c 3e 0e 81 7f bc 99 b2 81 bc
       -0.19177152 0.24646209 -0.015594734 -0.015832232
0002d0 b4 2d ce 3c 8f c7 58 bd f1 cc 8d bd 81 40 3d 3d
       0.025168277 -0.05292469 -0.06923855 0.046204094
0002e0 ac 4c 7d bd 94 27 2c 3d a8 47 ac 3d 49 58 e7 bc
       -0.061840698 0.042029932 0.08412105 -0.02824034
0002f0 16 3f 59 3d 9e 44 cc 3d b8 12 88 bc e1 25 12 bd
       0.05303868 0.09974025 -0.016610488 -0.035680655
000300 c7 00 f6 3c 7d 6c e1 ba 16 1a 95 ba 14 b0 06 be
       0.030029668 -0.001719847 -0.0011375572 -0.13153106
000310 8e 44 ca bd 0f 44 8f 3d ef 2f c4 bb af 3c f6 3d
       -0.09876357 0.06995403 -0.0059871594 0.12023293
000320 7b 94 05 bd c5 1a 6f bd a9 13 49 bd 34 fb c8 3c
       -0.032612305 -0.05837514 -0.049091015 0.024533845
000330 91 79 71 bc ab f9 09 3d 61 06 85 bc f2 a6 bc 3d
       -0.014738456 0.033685368 -0.016238393 0.0921153
000340 81 75 d7 bd 05 9f e3 3d f7 bb 78 bc 43 47 be bc
       -0.10520459 0.11114315 -0.015181533 -0.02322734
000350 e6 ee 2d 3a eb 98 ec bc 13 95 12 3c e1 c2 82 bc
       0.0006635025 -0.02888151 0.008946675 -0.015962066
000360 75 f8 a8 3d 22 95 18 bc 88 4f 71 bd b7 62 df 3d
       0.082505144 -0.0093129 -0.058913738 0.109075
000370 28 67 d6 3d 64 c9 42 bd 2f f4 d1 bc 99 af 09 3d
       0.10468894 -0.047555342 -0.025629131 0.03361473
000380 ee f9 2d 3d 2c 76 c3 bd 6e 11 9e 3d 51 e8 a1 3d
       0.04247468 -0.09544024 0.07718168 0.07905639
000390 2a 1d 99 3d 2b bf f9 3c a0 f7 1e bd 9b cc 8f 3d
       0.07476266 0.030486664 -0.038810372 0.07021447
0003a0 92 19 9a bd 14 04 d4 bc 5d 84 ba bd 23 29 d5 bb
       -0.075244084 -0.02588085 -0.091072775 -0.006505148
0003b0 05 f4 8f 3d c8 c7 c9 3c ee 6f eb bd b2 47 eb bd
       0.07028965 0.024631396 -0.11495958 -0.11488284
0003c0 be 70 9f bc e1 21 f4 ba b5 43 d3 bc d3 37 8b bd
       -0.01946294 -0.0018625819 -0.025789121 -0.06797757
0003d0 0a 38 ba bc bd 04 24 3e b9 48 7a 3d 7e 27 1a be
       -0.0227318 0.16017433 0.06110451 -0.15054128
0003e0 ab b6 95 3d c1 04 24 3e 3f a9 b7 3b 38 f3 0b be
       0.07310232 0.16017438 0.0056048925 -0.13667
0003f0 d1 71 85 3b c2 53 13 b9 93 e9 aa 3d ea ce 9c 3d
       0.004072406 -0.00014050215 0.08345332 0.07656653

layers.0.node_mlp.2.bias f4 [64]
000000 6c 56 85 bd 18 12 09 be 7c 2e 05 bd 98 d1 97 3d
       -0.06510624 -0.13385808 -0.032515034 0.07413024
000010 34 32 83 3d a4 b6 f5 3d d0 23 d3 ba 1d e0 d5 bc
       0.0640606 0.119977266 -0.0016108695 -0.026107842
000020 5c 8e ca bd 0a c4 a6 3c bb bc e1 bc 82 42 41 3d
       -0.09890434 0.02035715 -0.027555814 0.047182567
000030 37 4a 08 bd 26 c8 ec 3c 95 6a 7f bd df 49 8d 3d
       -0.0332739 0.028904032 -0.062357504 0.068988554
000040 8e 03 e5 3d b3 1c 3e 3c 2b 96 b8 bd 15 27 66 3c
       0.11182319 0.011603522 -0.09013017 0.014047404
000050 71 5a 62 3d d0 2f 19 bc 55 1a 2c bc f6 13 8b bc
       0.055262033 -0.009349778 -0.010504325 -0.016977292
000060 b5 38 2e 3d b9 91 ab 3d b0 98 f0 3d b1 87 ae 3d
       0.04253455 0.08377404 0.11747873 0.08521975
000070 e8 d1 ae bd 2e 64 18 3c 20 01 89 bc 34 44 98 3c
       -0.0853613 0.009301228 -0.01672417 0.01858721
000080 52 af 84 3d ab b7 20 3d c1 82 84 3c 51 a2 15 be
       0.06478752 0.03923766 0.01617563 -0.146127
000090 84 f4 a3 3d 81 b9 c3 3c b2 26 37 3e d8 40 8f 3d
       0.08005622 0.023892166 0.17885855 0.0699479
0000a0 f4 c0 c7 bc 26 48 94 bd 6c b0 6e bc 24 a7 d0 bd
       -0.024384 -0.07240324 -0.014568429 -0.101881295
0000b0 a4 c3 d3 b9 9d 13 c8 3c e4 9f b5 bd 02 ef 7e bd
       -0.0004039082 0.024423415 -0.08868387 -0.062239654
0000c0 7b 8f 30 be 2e fc 27 3c c3 cd c9 bb 07 33 eb 3d
       -0.17242233 0.010252995 -0.006158562 0.11484342
0000d0 c5 86 9b 3d 6f e2 9e 3c 94 1e ce 3d b3 c1 9f bd
       0.075940646 0.019395081 0.10064426 -0.07800617
0000e0 bf 65 80 3d d1 80 6e 3d bf 95 14 3d b8 11 6e 3d
       0.062694065 0.058228318 0.03627562 0.058122367
0000f0 01 72 aa bc f3 fe 84 3c 68 63 f6 bd c3 20 7f 3d
       -0.020806314 0.01623485 -0.12030679 0.062287103
