results/checkpoints/gated_force.pth (torch, 185953 bytes, 32 tensors)

h_init.0.weight f4 [64, 1]
00000000: ee10 53bf e53f 9f3c 02b9 113e 05b6 dc3e
00000010: 6ebb 513e 499f 35bd 30f1 32bf 3dec 923e
00000020: 600f 883e 7d9a 223e ae7d 133f 0afc 47be
00000030: 04f7 5e3b c028 30be 9b51 1d3d b5bd 31ba
00000040: f2c4 83be ac52 213e 03f2 a83e 2730 ec3d
00000050: 5ba5 18bf 3a6a fe3c 385b a63e 84db eb3e
00000060: f4b2 f23e 0959 853e 982b 923e 6a2f 74be
00000070: a4f1 3abf e21f 033e 7b6c edbd e8b7 39be
00000080: 51b5 033e 5536 c03e 5c7b 50be bac0 f53e
00000090: 3c51 ac3e c0c3 d63a db50 1a3e 1828 cd3e
000000a0: a0cb 893e bfbc 37bf 8ac3 f63e 3f32 9abf
000000b0: c217 00bd b112 fc3e c0af aaba 1d89 f93e
000000c0: 9502 003a cc77 6a3d 6e2c 06be 2466 1d3f
000000d0: 980c 38bc 9072 e73c ee8e c43e bde2 ae3d
000000e0: 5312 433f e1ba 82be d3f2 553e aa50 c43e
000000f0: 0f56 f13e 60ac 943e 8338 96be c180 d4bb
-0.8244771 0.019439647 0.14230731 0.4310762 0.20481655 -0.04434136 -0.6989927 0.2869586
0.2657423 0.15879245 0.57613647 -0.19529739 0.0034021745 -0.17203045 0.038407903 -0.0006780283
-0.25736195 0.15754193 0.3299714 0.11532622 -0.5962731 0.031056512 0.3249147 0.46065915
0.47402155 0.2604449 0.28548884 -0.23846212 -0.73024964 0.12805131 -0.11592957 -0.18136561
0.12862135 0.37541452 -0.20359558 0.479986 0.33655727 0.0016385242 0.15069906 0.40069652
0.26913166 -0.7177238 0.4819606 -1.2046584 -0.031272657 0.4923301 -0.0013022348 0.48737422
0.0004883197 0.057243153 -0.13102886 0.6148398 -0.011233471 0.02825287 0.38390297 0.08539341
0.76199836 -0.25533202 0.20893411 0.38342792 0.4713597 0.29037762 -0.2933999 -0.006485075

h_init.0.bias f4 [64]
00000000: 7260 6fbf eff4 99bc e0cf 59be 6c47 28bf
00000010: 86da 82be 4576 233d b14d 703f ba14 3cbf
00000020: 4428 b9be 2a2d 41be f960 ddbe 1513 813e
00000030: b617 4ebb c73f 823e a0de be3e 3c72 3c3a
00000040: 1972 da3e 1f75 8bbe 0abc 04bf 277b 0ebf
00000050: 4a44 2a3f 45a8 18bd f50c 05bf 934f 0bbf
00000060: d5b6 35bd 04b2 60be a605 863e f7f6 853e
00000070: ce6a 5e3f 06c5 c63e c256 1c3f 4f8d 783e
00000080: 714f 15be bbf4 edbe ce69 663e 73f9 25bf
00000090: e017 cebe 0ac3 9638 1284 21be c6d1 e7be
000000a0: c3c6 a4be 8400 9bbf e99d 33bf 009a 47bf
000000b0: a233 fe3c 8fa2 36bf 2424 1e3b 29ac 33bf
000000c0: cfcf aab9 c2ee 96bd d7ca 0a3e 24ad 16bf
000000d0: 456b 2dbf 9aa8 d3bc ecdc 0dbf fb53 10bd
000000e0: 10d4 63bf 3a98 b63e a8b8 a6bd 216a f6be
000000f0: 43b7 39bf 9b62 e5be 0f6f a43e 289c 6f3b
-0.9350654 -0.018793551 -0.21270704 -0.6573398 -0.25557345 0.039907712 0.9386855 -0.73469126
-0.36163533 -0.18864885 -0.43238047 0.2520987 -0.0031447238 0.25439283 0.37279224 0.0007188653
0.42665175 -0.27237794 -0.51849425 -0.55656666 0.6651045 -0.03726985 -0.51972896 -0.54418296
-0.044363815 -0.21942908 0.26176184 0.26164982 0.8688172 0.38822192 0.6106988 0.24272655
-0.14581086 -0.46475777 0.22501299 -0.64833754 -0.4025259 7.188886e-05 -0.15773037 -0.45277232
-0.32182893 -1.2109532 -0.70162827 -0.7796936 0.03103048 -0.71341795 0.0024130428 -0.7018457
-0.00032579756 -0.07369758 0.1355394 -0.5885794 -0.67741805 -0.025837231 -0.55415225 -0.03523634
-0.88995457 0.35663015 -0.08140689 -0.48127845 -0.7254526 -0.44801793 0.3211598 0.0036561582

layers.0.gate_mlp.0.weight f4 [64, 1]
00000000: b18b 683e 6ebc 513f 34f8 30bf 2694 cdbf
00000010: 248f e93e 1b12 98bf ed77 613f b54f c8bf
00000020: 5bdb 25bf 3f30 023f 76ce aebe bacb 663f
00000030: 6a78 e4bf 5805 793e d2b0 853e 41d0 50bf
00000040: a5af 953f 9bd3 0ebf 726d 473e 7deb 313f
00000050: 18f1 ad3e cdeb 70bf b652 bfbd 2b5f 5bbe
00000060: b4d2 923f fc8d d8be 8701 013f 9e31 55bf
00000070: a95f 58bf c9ef 8abf 97d9 8cbe 544f 8fbf
00000080: 9f2a 243f 4c8a cbbf b55c 6c3f ef0a bc3e
00000090: 52fb 64bf 556a 763e 42ad 80be ea6c 863f
000000a0: ca73 0dbf 2adf 11bc efb2 c2bf 4505 18bf
000000b0: 08a3 01c0 ccee 763e 662e d8bf 30ab 5abf
000000c0: 4401 51bf f684 733f 745a 313f 357f e9bf
000000d0: 634a c5bf c034 873f 3843 49bf 21f3 fe3e
000000e0: 13a4 94be d9b8 503f 9b18 8ebf 1c61 85bf
000000f0: 4e69 1dbf 77bf 923f a119 e8bf 5f4b 37be
0.22709538 0.81928146 -0.6912873 -1.6060836 0.4561702 -1.1880525 0.8807362 -1.5649325
-0.64787835 0.5085487 -0.34141892 0.9015461 -1.7849247 0.24318445 0.26111466 -0.8156777
1.1694227 -0.55791634 0.19475344 0.6949995 0.33973002 -0.94109803 -0.09341948 -0.21423022
1.1470551 -0.42295825 0.50392956 -0.83278835 -0.84520966 -1.0854427 -0.27509758 -1.1196084
0.64127535 -1.590158 0.9232896 0.36727092 -0.89445984 0.24064 -0.25132185 1.0501988
-0.55254805 -0.008903304 -1.5210856 -0.5938304 -2.0255756 0.24114531 -1.688916 -0.8541746
-0.81642556 0.9512476 0.69278646 -1.8241946 -1.5413326 1.0562973 -0.7861819 0.49794868
-0.2903143 0.81532055 -1.1101259 -1.042026 -0.6148881 1.146468 -1.8132821 -0.17899846

layers.0.gate_mlp.0.bias f4 [64]
00000000: 9baf 3dbe 058a 7a3f d9a1 a83e 8436 99bf
00000010: 8235 2cbd b04f b83f 0b63 8ebf f882 aebf
00000020: f0b6 73bd 1362 0c3d 9f44 abbe 4bf5 c6be
00000030: d0ec 9bbf 75e0 b4be c8cb dcbe a9ff 8b3f
00000040: c8d8 573f 2736 e9bb bb2c 83bf 51fd e0be
00000050: 1d13 103f 0a37 543f 4174 54be c1a1 3cbf
00000060: 9bd1 bf3e eb03 96be 601a 64be ae0c c63e
00000070: d34c 183f d871 9f3f 6a38 fb3e 34d5 bdbf
00000080: 0167 04bf b1de 68bf bd93 4f3f 21bc bb3e
00000090: a07f 2d3f dcfe b3be 1355 3e3f 0340 82bd
000000a0: 6e20 8bbd 4a30 5dbf e52e bbbf fa59 93bd
000000b0: 57a3 58bf fc85 10bd 435a a7bf 992e 183f
000000c0: 58f3 0b3f 8bd9 b0bd f5b2 fe3e 9646 92bf
000000d0: 4c10 99bf 59e3 5bbf 434f 713e 9cc8 733d
000000e0: 4e56 33bf 882b 6b3e cd95 99bf dc1a 8f3f
000000f0: b7d6 923d 5dfc 833f 96bf 99bf 9a05 ed3e
-0.1852402 0.9786685 0.3293598 -1.1969762 -0.042043217 1.4399319 -1.1123976 -1.3633718
-0.059500635 0.03427322 -0.3345079 -0.3885902 -1.2181644 -0.35327497 -0.43124223 1.0937396
0.84315157 -0.007117051 -1.0248026 -0.43943265 0.56279165 0.8289648 -0.20747472 -0.73684317
0.37464604 -0.29299864 -0.22275686 0.3868155 0.59492224 1.2456617 0.49066478 -1.483069
-0.5171967 -0.909648 0.81084806 0.36666968 0.67772865 -0.3515538 0.7434856 -0.063598655
-0.06793295 -0.8640181 -1.4623686 -0.07194896 -0.84624237 -0.035284027 -1.3074421 0.594461
0.5466819 -0.08635243 0.49745908 -1.1427791 -1.1958098 -0.8589378 0.23565392 0.059517488
-0.70053566 0.22965825 -1.199884 1.1180072 0.0716986 1.031139 -1.2011592 0.46293336

layers.0.gate_mlp.2.weight f4 [1, 64]
00000000: b723 48be c50d 45be 9549 483f b5c9 d2bd
00000010: a786 e1bd a2df 8f3f d622 81bc 0f96 48be
00000020: 87dc 3a3e dc85 01be 4c52 983d 4be3 03bf
00000030: 30a1 94be bcb7 c8bd ca1d a2bd ff1d da3e
00000040: a1fd 81be b679 8d3e d859 1a3e 1b2b 09bf
00000050: 80f9 8f3c 3153 ab3f be9a 8b3d df85 ba3c
00000060: 7a77 82be 37a5 fe3d 33a1 67be 6b8f 0f3f
00000070: a560 ce3f aede 7a3f c108 9c3d 9680 44be
00000080: 638d 81be 291b 2ebe 3c6d 08be df8f 28be
00000090: afc8 e73f 4527 cebd 55ff 0e3e 1022 bdbe
000000a0: 3d97 903e 5eb1 0d3d 13c4 57be 0bdb 8c3e
000000b0: 0a66 d6be 176f 33be e32f 82be 8237 c13f
000000c0: dacb af3f 4e35 a3be 514a 32bd 6e9f b8be
000000d0: ab09 bebd ed4a 66be 6288 aa3e 5d88 8bbe
000000e0: f8f9 d23d 99bf 79bd 3ce2 c0bd 2bec 573f
000000f0: e71b 933e e42c 3abe cc63 b3be 04c7 793c
-0.19544874 -0.19243534 0.7823728 -0.10292379 -0.11012011 1.1240122 -0.015763681 -0.19588493
0.18248187 -0.1264872 0.07437572 -0.51518697 -0.29029226 -0.098006696 -0.07915838 0.4260101
-0.25388816 0.2763192 0.15073335 -0.535814 0.017575026 1.3384763 0.06816624 0.022768913
-0.25481778 0.12433856 -0.22620086 0.56078213 1.6123244 0.9799603 0.07618857 -0.19189677
-0.25303182 -0.17002548 -0.1332292 -0.16461132 1.8108119 -0.10066084 0.13964589 -0.3694005
0.28240386 0.03459298 -0.2107089 0.27510867 -0.41874725 -0.17522846 -0.2542716 1.5095065
1.3734086 -0.31876606 -0.043527905 -0.36059135 -0.09279188 -0.2248952 0.33307177 -0.27252474
0.10301584 -0.060973737 -0.09418151 0.8434474 0.28732225 -0.18181187 -0.35037076 0.015245203

layers.0.mag_mlp.0.weight f4 [64, 130]
00000000: 55b4 4ebd 3dff 913d a4a8 263c 2534 f4bc
00000010: 0b99 a3bc e1f4 423d c5f5 5b3d 1408 b3bd
00000020: 1a21 183c 5b93 c53d 4246 3ebd 3f8f 00bd
00000030: 65e5 833d c973 60bd 332c a0bb 016b 46bd
00000040: ea6f 79bd 4b43 a2bd f375 073c cecc cbbd
00000050: d0db 7fbc 6f33 983d 1b57 2fbd 1a39 25bc
00000060: 06a1 ce3d 98da 243d 5d4c df3c 5796 9dbd
00000070: cdf9 6d3d 8ea9 e13a 9ac3 9a3b 2c1a a3bd
00000080: 4371 bf3d 9406 953d 8c89 39bd bffa 02bd
00000090: d50b 0e3c c9bf 703d b251 bb3d 1e77 8a3d
000000a0: cc3a 0bbd 726f cabd d0d3 47bd e4e8 5abb
000000b0: 0bff e1bd 68e3 58bc 76e5 b6bd 4c9a 8e3d
000000c0: d4b1 813d 603c be3c 8425 9cbd 1f74 ca3d
000000d0: 33b7 eabd d196 613d 5642 8cbd 2a18 4fbd
000000e0: 5e6e 93bc 0f4f 913d 171b 143d b087 873d
000000f0: 71b4 503d c406 363d a84b b63c d5f1 aeba
00000100: 58da 573d e517 613d bda7 5bbd d468 723d
00000110: 52ff ecbd 1718 7b3d b8e2 a33d e95e a9bd
00000120: 6435 c9bb 244d d6bd 6f1a 6abd aaf6 ce3c
00000130: 6568 c5bd 2aa3 3c3c d880 08bd 73ea 713d
00000140: dc25 f03c 22e0 033c 137a cb3b 8c63 54bc
00000150: 289b 8c3c aef7 30bd c641 37bd dbbb 593c
00000160: 05ba 083c 4b33 923b f936 5dbd d287 f5bb
00000170: 7483 483e bba2 85bd 567e 903d 380b cb3d
00000180: 5293 c73c e26e 51bd f8b3 5e3d 28c4 94bd
00000190: 1882 4e3d f638 2a3d a25b 843d e2f7 233d
000001a0: 4681 0dbd 528f dabd 0764 12bc d880 cdbd
000001b0: 7df1 e03b 32c3 76bd 7c13 8fbd 672a b33c
000001c0: f919 013c 3959 ac3c 9537 2b3c 310b 893d
000001d0: b283 8ebd 4bcc 283d e22d d33c 39e6 5dbc
000001e0: 6234 16bc cc9a 35bd fcf8 96bd 3aa8 c3bd
000001f0: db47 fdbc edd1 e6bd e3bb 09bc 90f9 493b
00000200: a04a 50be 4e61 dfbe d1da 09be e11c ccbc
00000210: 50ae e33c f1c1 2bbe 5316 7bbe 8ba5 5ebd
00000220: dae6 843e d0f7 4abd be50 66be 98ea e2bd
00000230: efaf ddbd addd d83d d3b6 c03d 2098 cbbc
00000240: b4db 653d 6230 0b3d 76a9 b13c 8a96 e7bd
00000250: f48f a6bd 2c7c 0abe 431d b83d 6958 40bc
00000260: 0189 13bd 98ae a6bd 791a f53b 91a1 19bc
00000270: 211f 9f3d d6c4 013e 780b 8a3e 7457 a2bd
00000280: 6ecc 2f3d 482e 21bd ba30 1bbe 0b2d bebd
00000290: 3a75 2e3e 11d7 96be 3742 36be 64ec 74bd
000002a0: e59a c1bc cd73 aabd 747a efbd c113 efbd
000002b0: 5a00 76be 82b4 8fbd 974c c63d 9bb0 15be
000002c0: c836 7b3d 4d7e 96be f940 e6bd 4879 70bd
000002d0: 4e69 603d 9674 05be 73b6 fc3c df26 f2bb
000002e0: fce3 56be f0fe a5bc c828 5fbe 400e 9abd
000002f0: 4f66 88bd 283b 4cbe 0425 6ebd d96b 5ebe
00000300: 0690 bc3d 9fd7 6d3d fae6 c53c 8fa7 c43d
00000310: 9d2c f73b 533a 13be 09ab 9b3c 9bb8 cdbd
00000320: d5fa b73d 16f0 43bd ca6a 323d 24f2 fbbc
00000330: 270c b73d 4f91 073e b97a 973d f6c6 c7bc
00000340: cf59 453d a7fa 81bc 47ca dd3c 6642 f0bd
00000350: 1710 fdbc 71d6 6fbd 1cb1 403b 3214 54bc
00000360: 5b20 6fbc 36ed 1e3c acfe cebb efd6 7c3d
00000370: 022e f13d 7d9e c33d 4ca5 e3bc 5b7c ebbb
00000380: d099 873d 00f2 26bd 386d 513d 113d 1fbd
00000390: 6070 f53c c95a bdbd f9a1 8fbd a9db 153d
000003a0: 504f 8c3d 6235 323d 4f81 1ebd 4c40 be3b
000003b0: 64fc 77bd bdec dbbc 9517 9c3d 4da5 ef3b
000003c0: 48b7 59bd b21b cabd ddbf 693d 3080 acbd
000003d0: 7906 ebba ef7e a03d 6cf6 c8bd 33fc 67bd
000003e0: beae 26be 8c84 9d3d f252 21bc 2eb8 d4bc
000003f0: 547b d33d 7489 97bd d6f8 b6bd b51e 12be
-0.050464947 0.07128761 0.010172043 -0.02981002 -0.019970438 0.047596816 0.05370118 -0.08741775
0.009285236 0.096472465 -0.04645372 -0.03138661 0.06440238 -0.05479792 -0.0048880815 -0.04844189
-0.060897745 -0.07922991 0.008267867 -0.09951173 -0.015616372 0.07431685 -0.04280768 -0.010084415
0.100893065 0.04024753 0.027258093 -0.07694691 0.058099557 0.0017216669 0.0047230246 -0.07963976
0.09347775 0.07276645 -0.04529719 -0.03197741 0.008669813 0.05877665 0.091464415 0.06761001
-0.03399162 -0.09884538 -0.048785985 -0.0033402974 -0.11034974 -0.013237812 -0.08930485 0.069630235
0.06332746 0.023222148 -0.07624343 0.098854296 -0.11460724 0.05507547 -0.0684859 -0.050560154
-0.017996963 0.07095157 0.036158647 0.06617677 0.050953332 0.044440046 0.022252873 -0.0013347218
0.052698463 0.05495443 -0.053626765 0.059182003 -0.11572136 0.06130227 0.080022275 -0.08270056
-0.006140398 -0.10463932 -0.057154115 0.025264103 -0.09639052 0.011513511 -0.033326 0.05906148
0.029314928 0.008049043 0.0062096207 -0.012963187 0.017163828 -0.043204956 -0.04474046 0.013289417
0.008345132 0.004461681 -0.054007504 -0.0074929977 0.19581395 -0.06525179 0.07055347 0.09914249
0.02436224 -0.051131137 0.05437085 -0.07263976 0.050417036 0.04155823 0.0646279 0.04003132
-0.034547113 -0.106718674 -0.008934981 -0.100343406 0.006864725 -0.060244747 -0.06986138 0.021870805
0.0078797275 0.021038638 0.0104502635 0.06691588 -0.06958713 0.041210454 0.025778715 -0.013543659
-0.0091677625 -0.04433708 -0.07371709 -0.09553571 -0.030918052 -0.11270509 -0.008406612 0.0030818917
-0.20340967 -0.43628925 -0.13462378 -0.024916114 0.02779308 -0.16773202 -0.24520235 -0.054357093
0.25957376 -0.04955274 -0.22491738 -0.110799015 -0.10824572 0.10589156 0.09409871 -0.024852812
0.05611773 0.03398169 0.02168725 -0.1130801 -0.08132926 -0.1352393 0.08989956 -0.011739829
-0.03601933 -0.0813877 0.0074799624 -0.009376899 0.07769609 0.12672743 0.26961875 -0.079268366
0.04291957 -0.039350778 -0.15155306 -0.09285935 0.17036906 -0.29460958 -0.17798696 -0.059795752
-0.02363343 -0.083228685 -0.11693278 -0.1167369 -0.24023572 -0.07016851 0.09682577 -0.14618151
0.06133154 -0.29393235 -0.11242861 -0.058709413 0.054787926 -0.13032755 0.030848717 -0.0073898877
-0.20985407 -0.020263165 -0.217929 -0.07522249 -0.06660139 -0.19944441 -0.05814077 -0.21720828
0.09207158 0.05806696 0.02415799 0.09602272 0.00754316 -0.14377718 0.019002454 -0.10044976
0.08983389 -0.047836386 0.043558873 -0.03075511 0.08937865 0.13239025 0.07396454 -0.024386864
0.04818135 -0.01586659 0.027073992 -0.117314145 -0.030891461 -0.058554117 0.002940244 -0.012944268
-0.0145951165 0.00970011 -0.0063169803 0.061728414 0.117763534 0.095517136 -0.02778878 -0.007186455
0.06621134 -0.040758133 0.05112955 -0.038876597 0.029960811 -0.092458315 -0.07013316 0.036586437
0.06851065 0.04350794 -0.038697537 0.0058060046 -0.060543433 -0.026846284 0.076216854 0.0073134066
-0.053153306 -0.09868564 0.05706774 -0.08422887 -0.0017931006 0.07836711 -0.09812626 -0.056637
-0.16277596 0.07691297 -0.009846436 -0.02596673 0.10326257 -0.07399264 -0.089341804 -0.14269526

layers.0.mag_mlp.0.bias f4 [64]
00000000: 2e1f 8bbc b88d 33bc 6cd5 bebc 3148 923d
00000010: cd33 f83c cda4 c93d 387b 2bbd 82f3 803d
00000020: a6c2 f23b ba7b c6bb c27a f539 6ffa 48bd
00000030: 1fab 78bd 8603 83bc 3f62 923c 4c5c d73d
00000040: 296b 493c c5b8 4f3d 5200 c33d 16b6 893d
00000050: 3f36 09bc 0486 9b3c 939c f53d 81da d03d
00000060: f1fa 19bd 9417 29bd 7cbe 7abd 6dc3 78bd
00000070: 4930 463d 307a 223d 8337 883d ddf0 ab3c
00000080: d582 01bd 75d4 813d 4e3b 47bd 6dd4 b4bd
00000090: 2bf9 26bb bbce a9bd 7816 c53d 9640 3e3d
000000a0: 48b4 0a3d c80f 25bd 382e 47bf d6f6 d53d
000000b0: 0183 a93d a624 9d3d 6f29 e83d 0a43 a3bc
000000c0: a228 61ba 91c0 853d 5c0b 143d 385c 463d
000000d0: 75b8 4b3d 9f7c 903d d9f4 823c 4bce 7abc
000000e0: 61e0 8c3d a5d1 58bd 9d64 80bb 5e51 bc3c
000000f0: 4a5e 743d d13a 2c3d 94e2 583c d105 c33c
-0.016982641 -0.010959081 -0.023295127 0.07142676 0.030298138 0.098458864 -0.041865557 0.062964454
0.007408458 -0.00605723 0.00046821503 -0.049066957 -0.06071007 -0.015992891 0.017869113 0.10515651
0.012293615 0.05071332 0.095215455 0.06724183 -0.00837475 0.018984802 0.11992755 0.10197926
-0.037592832 -0.04128225 -0.061216816 -0.060733248 0.048385892 0.03966731 0.06651213 0.020988876
-0.03161891 0.06339351 -0.04864054 -0.088295795 -0.0025478106 -0.08291384 0.09623426 0.046448313
0.033863336 -0.040298253 -0.778049 0.10447471 0.0827694 0.07673006 0.11336028 -0.019929428
-0.00085891236 0.0653087 0.036143646 0.04842779 0.04973646 0.070550196 0.015985893 -0.015307973
0.068787344 -0.052934308 -0.003918244 0.022988018 0.059660234 0.04204828 0.013237614 0.023806484

layers.0.mag_mlp.2.weight f4 [64, 64]
00000000: 37cb 663e 46f3 5bbe 974c b7bd 633f 7a3d
00000010: d708 103d 4448 153e d3c0 1e3d cd53 d13d
00000020: 2772 833d 22f2 e43d 75e5 ec3d afc5 1dbd
00000030: 1462 853d b608 6c3e 7376 fd3c 832d 4c3e
00000040: 9a53 073e 4e95 783e 2ec7 2e3e 0516 09be
00000050: cc82 653e e82c b03d f069 e53d 60c6 863d
00000060: 37e3 af3d c831 583e 4a5d d93d 0c9b 9d3c
00000070: 4750 c83d 094e b6bd 7767 7d3d b9cc 9b3d
00000080: 5e5a 593e d878 d2bd f187 ddbc 3cd0 ae3d
00000090: f17e 4f3d 3aae 76bd 7dd1 7e3d 9b8b d83d
000000a0: 7a9d 0cbd 823f 7b3d 37f4 9bbc c1f3 833e
000000b0: 2724 183e 5a2b 89bd ad94 0b3e 4d3c adbd
000000c0: 85dd 40be f3ca 59be 04fe 5c3e 76cd f8bd
000000d0: e69a 643d 0d9e 1ebe 466f 943e 50e6 413d
000000e0: 9b70 133e 14e1 aa3c 918c e4bc ad1e c6bd
000000f0: 8dff 9ebd 9046 89bc d778 0e3e cb8c d1bc
00000100: c974 133d 625e b5bd daea 67bc b8ed f9bd
00000110: 1523 b13d efbc 6fbc 7465 ec3d 703c acbd
00000120: ae7b 723d b7ee da3d 0f87 d4bd 1342 c33d
00000130: 90a1 c6bd 5a3c efbd 7134 6b3d 400f ed3d
00000140: 8b0d 82bd 8ebd f13d e5a6 af3d 8440 83bc
00000150: f88f d63d b3d9 09be 723d 533d 6ee2 c73d
00000160: 6b71 913d 290c b13d 84b6 b6bd 5eb7 49bd
00000170: 3576 d83b b564 73bd f9ad f73a 39dd 19bd
00000180: 77f1 aebd c344 98bd 8b3e b3bd e9c5 a73d
00000190: 1b16 e6bd 20f7 f53d d08b 93bd 78a8 d13d
000001a0: 5043 a5bd d9d0 283c e133 b43d 166c f9bd
000001b0: 65e0 4fbd a2dd ba3d 0f38 c1bb db01 f9bd
000001c0: bde6 1fbd 4a59 cb3d 24fd da3d 4aff cc3d
000001d0: 76fa 7bbc d025 88bd 1365 a1bd 11fd 6ebc
000001e0: db33 efbc 2597 9ebd cbcf d33d ee4a 7c3d
000001f0: b8fe c8bd a102 7fbd 782b 7dbc 2f63 bf3d
00000200: b44f 06be 6a76 293d ca75 15be 027c 1cbd
00000210: 1794 24be f4ce 47be dbf0 8dbc 8b27 5bbd
00000220: a2e4 253e 2801 febc 32b8 8ebc 5f1d 8cba
00000230: d781 f23d ab83 fb3c b090 7d3c ded2 11be
00000240: a0de 213e d43e cfbc d37c 64bd 8891 233c
00000250: 80bf 36be d986 453e ba99 3cbc 1af2 c1bd
00000260: feaa 1bbc 589b b23d 878f 84bc 758b b33c
00000270: 19d0 40bd 46c3 df3d 2e8a 1ebe 4811 af3d
00000280: 4a63 92bd 7fd1 173e 586f dc3d 7a43 483e
00000290: 2783 dfbd 1060 2dbd 0317 96bc 803c ce3d
000002a0: cf5a 383e 47a8 ee3d 54b6 0f3d ae44 2ebe
000002b0: c83a 34be c66f 363e e97d b9bc 3b67 583e
000002c0: 986d 04be f884 1abd 06ab 893d 7db6 f53c
000002d0: 41a1 973d 3954 823d 75cd 023d ee36 febd
000002e0: 4bfc ebbd c26b 003e 75ae 4abd 0ba6 373e
000002f0: 630f 17bc 0cf3 4ebd 486e 29be afde 4b3e
00000300: bedd 553e 0f15 1cbe 36d6 fa3d 077b 183e
00000310: 79d7 093e 3959 423d 0b48 05bd e604 173e
00000320: 27ec e3bd 8971 e43d 5549 7d3d cdca 26bd
00000330: 494f ba3d 5d34 7b3e 7047 8e3c 0119 323d
00000340: b365 083d 6d20 3a3e 7a76 593e 1a7d 07be
00000350: c7c1 653d 8389 143e 3a2c 4d3d 9983 993e
00000360: 9d58 0f3e ac21 213e b69a a8bc c4fe 683d
00000370: b9ef e83d 8157 68bc d5ca 573e aff3 64bd
00000380: 73b7 0a3e 432e 96bd 1352 6d3a f632 49bc
00000390: 3178 4b3e c666 173d b7b9 4e3e 236a 623d
000003a0: 40a6 013c 3baa ea3d 8397 adbd 5bb0 4c3e
000003b0: 1db8 463d 308b e5bd f10d 3b3e 936a b63d
000003c0: df18 36be 3c4b 12be 2055 5c3d 7266 cebd
000003d0: 1b5c a4ba 22d9 8f3c 4cc7 133e 59ff 9f3d
000003e0: 1087 a03e cfc5 5ebd e4c2 c5bd bf81 3dbb
000003f0: af62 d93d 881b 68bc abb7 9a3d bf3e a7bc
0.22538458 -0.2147952 -0.08950155 0.061095607 0.03516468 0.14578348 0.03875811 0.10221062
0.06418257 0.11178996 0.11567203 -0.038518604 0.065128475 0.23050198 0.03094027 0.19939236
0.13215485 0.24275705 0.17068169 -0.13387306 0.22413176 0.08602315 0.112018466 0.06580806
0.0858826 0.2111274 0.106134966 0.019238971 0.09780937 -0.08901603 0.06186625 0.07607407
0.21225879 -0.10276955 -0.027042361 0.08535811 0.05065817 -0.06022475 0.062211502 0.10573503
-0.03432987 0.061339863 -0.01903735 0.25771907 0.14857541 -0.06697722 0.13630934 -0.08458767
-0.18834503 -0.21268825 0.21581274 -0.121485636 0.055811785 -0.15489979 0.28991145 0.047338784
0.14398424 0.020859279 -0.027899059 -0.0967382 -0.07763586 -0.01675728 0.13913284 -0.02557983
0.036000047 -0.08855893 -0.014155114 -0.122035444 0.086492695 -0.014632448 0.11542788 -0.08409965
0.05919998 0.106900625 -0.10377323 0.09534087 -0.09698784 -0.11681433 0.05742306 0.11575174
-0.06350239 0.11803733 0.085767545 -0.016021974 0.104766786 -0.13461952 0.05157227 0.09759985
0.07101711 0.086448975 -0.08921531 -0.04924714 0.0066058883 -0.059422214 0.0018896452 -0.03756449
-0.085421495 -0.0743499 -0.087521635 0.08192045 -0.11234685 0.12010026 -0.072044015 0.10237211
-0.080694795 0.010303699 0.087989576 -0.12178819 -0.05075111 0.09124304 -0.0058965753 -0.12158557
-0.03903841 0.0992914 0.10692814 0.1000963 -0.015379539 -0.06647837 -0.078806065 -0.014586703
-0.029199531 -0.07743672 0.10342368 0.061594896 -0.09814209 -0.062258366 -0.015452258 0.0934509
-0.13116342 0.041372694 -0.14595714 -0.0382042 -0.16072117 -0.1951254 -0.017326763 -0.053504508
0.16200498 -0.03100641 -0.017421816 -0.0010689906 0.11841171 0.030702433 0.015476391 -0.14240596
0.15807581 -0.025298513 -0.055783104 0.009983428 -0.17846489 0.19289722 -0.011511261 -0.09470005
-0.009501217 0.08721036 -0.01618172 0.021917084 -0.047073457 0.10925917 -0.15482399 0.08548218
-0.07147844 0.1482601 0.10763425 0.1955699 -0.10913687 -0.04232794 -0.01832152 0.10070133
0.1800339 0.1165319 0.03508599 -0.17018387 -0.17600548 0.17816076 -0.022643046 0.2113313
-0.12932432 -0.037724465 0.06722073 0.029994244 0.074038036 0.063637204 0.03193422 -0.12412821
-0.115227304 0.12541106 -0.04948278 0.17934434 -0.009219977 -0.050524756 -0.16545975 0.19909166
0.20885369 -0.15242408 0.12247889 0.14890681 0.13461103 0.04744837 -0.03253941 0.14747962
-0.11129027 0.111544676 0.061837513 -0.04072075 0.09097154 0.24531694 0.017368048 0.043480877
0.033300113 0.18176432 0.21236601 -0.13231316 0.056093004 0.14505582 0.050091006 0.29983214
0.13998647 0.15735501 -0.020581584 0.05688359 0.113738485 -0.014181019 0.21073468 -0.055896457
0.13546543 -0.073330425 0.00090530625 -0.012280216 0.19870068 0.036963247 0.20188032 0.055277
0.007913172 0.1145825 -0.08476164 0.1998915 0.048515428 -0.112081885 0.18267037 0.08907046
-0.17782925 -0.14286512 0.05379212 -0.10078134 -0.0012539657 0.017559592 0.14431494 0.078123756
0.31353045 -0.054387864 -0.09656313 -0.0028916446 0.106145255 -0.01416672 0.07554563 -0.020415662

layers.0.mag_mlp.2.bias f4 [64]
00000000: 65fb 483d 2f98 35bd 9600 0ebe d32c 083e
00000010: 4fb7 37be de95 8d3d 91db f0bd 25e2 153e
00000020: 03b2 8b3d 62fe be3d a921 653d 0153 2d3e
00000030: 0ff1 053e 8c6e 09be 4fd0 8b3d bfec 9fbd
00000040: 3e25 5a3d f074 ca3d e127 65bd b57c 7d3d
00000050: 63dc 6b3c 63c3 133e 16eb 1cbe 5db5 5e3d
00000060: 2d43 5abd 305a 813d 92e0 e53c 94d5 933d
00000070: 2915 01bd 39da 093e a16f 233e 95e4 763d
00000080: 9ca4 003d a9a9 11be d6b8 cfbd 748e 293e
00000090: 3c00 afbd 0db7 86bd 6c45 d1bc be3a 8d3d
000000a0: bd98 15be 9ca1 283d ed07 053e 0f18 893d
000000b0: 36e9 37be 9e19 083d 4000 213e 8e3b 48bd
000000c0: a3ec b13d 69be 05bd 33a8 d9bc 5629 ff3c
000000d0: 2330 28be 671f 80bb 029d 30be 38f1 9abc
000000e0: 1931 d93d b00c 5f3d 777e b63c 5243 c63d
000000f0: 1be9 30bd 144b 15be 5ebd 343e 2f74 063d
0.049067874 -0.044334587 -0.13867411 0.13298349 -0.1794102 0.069133505 -0.11760629 0.14637049
0.068210624 0.093258634 0.055940304 0.16926195 0.13080238 -0.13421077 0.06826841 -0.078088276
0.053258173 0.09885585 -0.055946235 0.061886508 0.014395806 0.14430003 -0.15324053 0.05437218
-0.05328672 0.0631603 0.028061185 0.07218471 -0.03151432 0.13462152 0.15960552 0.060276587
0.031406984 -0.14224876 -0.101426765 0.16558248 -0.085449666 -0.06577883 -0.025545798 0.0689597
-0.14609046 0.041169748 0.12991305 0.06694042 -0.17960057 0.033227555 0.15722752 -0.04888492
0.08687713 -0.032652292 -0.026569461 0.03114764 -0.16424613 -0.0039099935 -0.17247394 -0.01891385
0.10605068 0.05445546 0.0222771 0.09680809 -0.043191057 -0.14579421 0.17650363 0.032825645

layers.0.mag_mlp.4.weight f4 [1, 64]
00000000: c84d 2dbe 73b1 a138 43df 283e cc0f 2ebe
00000010: 7b59 3e3e 18d0 1c3e e53c c33d 277c 07be
00000020: 0d56 1f3e 8196 04be 05d7 4bbe 3682 21be
00000030: 6d96 4abe 0455 4a3e aa44 d3bd cbb7 e2bd
00000040: 77ba 23be 575c 433e 777b 183e 76d7 f8bd
00000050: 8ca7 58be 0440 2ebe bd49 323e d9d9 43be
00000060: d113 05be c7b3 bd3d 37ca a83d 0ecd 113e
00000070: ebb1 01be 255b e2be 79d5 d8bd 6c76 51be
00000080: e841 39be 46f0 ed3d c940 3a3e bfc4 3cbe
00000090: 8c72 333e d09e 903d 90f5 c53d 384e e93d
000000a0: 43b2 1b3e fd4a 063e f953 18be a7c6 bb3d
000000b0: 0811 123e aebd dd3d 1feb b4bd eda0 3cbe
000000c0: af8c 39be d7bc f43d d7fa 243e 2380 e93d
000000d0: 0ad4 0d3e 4201 61be 36e9 413e cd09 fbbd
000000e0: 68db 12be 1e68 d8bd a6df 503e ac71 2d3e
000000f0: 56ef c5be f94a 193e e3d9 19be d94f cfbd
-0.16924202 7.710131e-05 0.16491418 -0.16998214 0.18588822 0.15313756 0.09533099 -0.13230954
0.1556017 -0.12948038 -0.19906242 -0.15772328 -0.19783945 0.19758993 -0.10315831 -0.11070212
-0.159891 0.19078194 0.14890848 -0.12150471 -0.21157664 -0.17016608 0.17410941 -0.19126071
-0.1299584 0.092628054 0.082416944 0.14238378 -0.12665527 -0.44210163 -0.10587592 -0.2045533
-0.18091547 0.11618094 0.18188776 -0.18434428 0.17524165 0.07061541 0.09665978 0.11391872
0.1520472 0.13114543 -0.14875783 0.09168749 0.1426431 0.10827194 -0.08833908 -0.18420763
-0.18120073 0.11950081 0.16111313 0.11401393 0.13850418 -0.21973136 0.18936619 -0.12257729
-0.1434151 -0.10566734 0.20397815 0.16937894 -0.3865916 0.14970006 -0.15024523 -0.101226516

layers.0.node_mlp.0.weight f4 [64, 66]
00000000: 7c97 d63d 88fc eabd a9d0 9b3d c831 1ebe
00000010: 7fc9 f5bd b362 1c3e a989 853e e02c 353e
00000020: 87d1 4bbe 74c6 febd 4280 e3be 1c5e a43c
00000030: 5298 f23d 8164 18be 580f 2bbe d9b4 c43d
00000040: 3c5d 7fbd 7c74 fb3d 5ac3 bc3d a543 0e3e
00000050: 5f3a ba3e 6fc9 5fbc c5cd a73d c6e4 d4be
00000060: f234 aebe 31a9 a4be 7fba 81be e65b 803e
00000070: c76b a23e 608d 9cbe 1087 bfbd cafc 05bd
00000080: 4b95 45be d507 88be 8ac1 b73e eebe 5abe
00000090: 81ea d5be 7f13 2cbe b2bc 4fbe 33a3 fcbe
000000a0: f1df a7be f59e 463e 210c 5fbe b31a 053e
000000b0: c4ed e53d 0ba8 99be 0fb4 a7bd 1f25 9abe
000000c0: 1028 f73c 66c0 47be 97a5 733e 97a3 00bf
000000d0: 1b8d 6c3e 9ce5 b2bd 7991 05be 4ce6 64be
000000e0: 0d8e aabe 5071 6b3a 0ff4 b2be f7de 63be
000000f0: c3ff 74bd 0bf7 3bbe d36b 9e3e 934f 253e
00000100: b4bd 16be c5ab 66bd 94f7 243e eb2a 48be
00000110: 9281 733d cb46 dabd ee0f 69be 1142 743d
00000120: cdb7 df3d 0202 473e 13da 303c 9270 07be
00000130: f1ef 82be 8aaf 0d3e 78b9 1ebc 8b1b dbbc
00000140: 14ee 84bd bd17 c2bc 18d9 d7bc 5c2f bf3c
00000150: ca78 b63c 1963 1e3d cdab 583e 79c6 28bd
00000160: 26f8 46bd 2d70 29be 9917 7fbe 0884 afbe
00000170: e99b 05be 8b50 893e 89a5 613d 4d2b edbd
00000180: a359 57be d183 883d f901 d8bd 8a0b 5cbe
00000190: cd11 313e ece4 b1bd c555 70be d02b 04be
000001a0: 1df1 d3bd 65ae a6be c5a1 60be 3e7d 623e
000001b0: 7fb4 d9bc a77e a83c d5a7 14bb 439c c5bd
000001c0: 05a8 613d 67fb 64be 7bca fcbc 1be8 9bbd
000001d0: c732 3c3e 2d06 29be 69f8 863e 427c 99bc
000001e0: 50af 3dbe 8109 52be 1cbf a1be 92fa 7f3b
000001f0: 7ff5 97be bef9 66be 42ed 7b3d a513 22be
00000200: 6e62 e93d 8d2a e53d 76d1 bdbd cc7a f636
00000210: bdae 9f3d b981 89bd e401 883e 1b89 c13e
00000220: 8108 4a3e e106 85bb fa8c 0cbf 4c37 f63d
00000230: 7ae9 673e dda5 373e 7c58 14bc 43d3 83be
00000240: 77a8 363e 5dc9 43be 025e cf3b a573 6abd
00000250: 135c c1bd 3a48 6e3e b53b bb3e 9886 073e
00000260: fefe 1dbe 90b7 293d faae 993e e1c7 183e
00000270: d568 9dbd a9ad 613d 9089 94bc 66a6 09be
00000280: d5d9 cabe 6ab4 8d3d a064 98bc ff14 60be
00000290: 12ab 863d ea70 0a3e 3d18 44be 6570 9f3e
000002a0: 9523 d0bc dbb7 bebc 9ebe a1bc 1b5e 1ebd
000002b0: 3123 b43c 9f85 d53d c2d4 8c3e 0a67 913e
000002c0: 9c51 0bbd 2c82 cc3e 7d50 043e 0661 e83e
000002d0: dc4f 97bc 1936 973e b4bc 633c 5da7 863d
000002e0: 8c4c 4c3d 9c61 79bd 439f 7d3e cf64 313d
000002f0: 04af 0a3e 7aed 87be 0f74 5cbc b4ca 0a3e
00000300: 9246 823e 002c cc3e be91 d2bb 1452 103e
00000310: ff51 223e 6bed 4abe c6a7 cc3d 6103 1d3d
00000320: ee9b f13c 877a 753c e54b 693d b37b 003c
00000330: 2be1 20be 180b a03c c457 593e 4d33 90bd
00000340: 394e 563d c707 47be 82b2 723d 8e0a 24be
00000350: ca14 963d 78ba 023c 355d b9bd 0e77 2b3e
00000360: fe68 c93d 3433 9c3d 4fa0 2dbc f325 c2bd
00000370: 579a 1e3c b4e6 663d 1ec5 c53d f169 743d
00000380: 6e34 963c 754f 9b3d dd4a 3bbe 5b4f 9b3c
00000390: 53cb ddbd df88 83bd e992 b9bd 5a5d bebd
000003a0: eeb5 d0bb eb1d 163e a11b 91bd 7abc 04be
000003b0: c1d7 9ebd 5baf b03b cfb5 503d 52b6 f33d
000003c0: 40f2 713e d9c9 4dbd fd5a 1abd 7a90 a63e
000003d0: d5e7 acbd db50 433e 388d a43d bf6c ebbc
000003e0: 5b9a e83d 3092 b7bd 2216 eb3c 75a1 0ebe
000003f0: d216 a13d 4898 f1bd fdd5 6c3d 7792 54bd
0.10478112 -0.11473948 0.07608158 -0.15448678 -0.12001323 0.15272026 0.2608159 0.176929
-0.19904147 -0.12440196 -0.4443379 0.020064406 0.11845459 -0.14882089 -0.16705072 0.096048065
-0.062344775 0.12278077 0.09216948 0.13892992 0.3637266 -0.013658865 0.08193544 -0.4158079
-0.3402477 -0.32160333 -0.25337598 0.25070113 0.31722853 -0.3057661 -0.09351933 -0.03271178
-0.19295232 -0.26568475 0.35889846 -0.21361896 -0.41780475 -0.16804312 -0.20286825 -0.4934326
-0.3278804 0.19396575 -0.2178197 0.12998466 0.11226991 -0.3001102 -0.0818864 -0.30106446
0.03017047 -0.19506988 0.23793636 -0.5024962 0.23100702 -0.08735201 -0.13043775 -0.22353476
-0.333115 0.00089814235 -0.34951827 -0.22253023 -0.059814226 -0.18355958 0.30941638 0.16143636
-0.14720803 -0.056316156 0.16110069 -0.19547622 0.05944974 -0.10658034 -0.22759983 0.05963332
0.10923729 0.1943436 0.01079418 -0.13226536 -0.25573686 0.13836494 -0.009687774 -0.026746532
-0.06490722 -0.02369296 -0.026348636 0.023338012 0.022274394 0.038668726 0.21159287 -0.041204903
-0.048576497 -0.16546698 -0.24911346 -0.3428042 -0.13047756 0.26819262 0.055089507 -0.115805246
-0.21030287 0.06665767 -0.10547251 -0.21488777 0.17291947 -0.086862415 -0.23470218 -0.12907338
-0.10348723 -0.32554927 -0.2193671 0.22118089 -0.026575325 0.020568205 -0.0022683043 -0.09648945
0.055091877 -0.22361527 -0.030858269 -0.0761263 0.18378745 -0.16506262 0.26361397 -0.018736009
-0.18523908 -0.20511438 -0.31591117 0.0039059264 -0.29679486 -0.22556207 0.061505564 -0.15827806
0.11395727 0.111897565 -0.09268467 7.3456667e-06 0.077970006 -0.06714196 0.26563942 0.37799916
0.19729806 -0.004059658 -0.54902613 0.12022266 0.22647658 0.17934366 -0.009054299 -0.25747117
0.17837702 -0.19119783 0.0063283453 -0.057239193 -0.0944139 0.2326974 0.3656899 0.13234937
-0.15429303 0.041434824 0.3001631 0.14919998 -0.07686011 0.055097256 -0.018132001 -0.13442382
-0.39619318 0.06919177 -0.01860267 -0.2188301 0.06575598 0.13519636 -0.19149871 0.31140438
-0.025407592 -0.023281028 -0.019744214 -0.038663965 0.021989437 0.10425877 0.2750607 0.28398925
-0.034013376 0.39943063 0.12921329 0.45386523 -0.018470697 0.2953346 0.013899971 0.06574891
0.04987769 -0.060884103 0.24767785 0.04330903 0.13543326 -0.26548368 -0.013455405 0.13553888
0.25444466 0.3987732 -0.006426065 0.1409381 0.15851592 -0.1981713 0.09992938 0.0383333
0.029493298 0.014982826 0.056957144 0.007841992 -0.15710895 0.01953654 0.21224886 -0.07041035
0.052320693 -0.1943656 0.05925227 -0.16019651 0.07328184 0.007979028 -0.09050981 0.16744635
0.09834479 0.07626954 -0.010597303 -0.094798945 0.009680352 0.05637236 0.09656738 0.059671346
0.018335547 0.075835146 -0.18290277 0.018958738 -0.10829797 -0.064225905 -0.09061224 -0.09295149
-0.006369344 0.1465985 -0.07085348 -0.12962523 -0.077559955 0.0053919978 0.050954636 0.11900009
0.23627567 -0.050241325 -0.03768443 0.32532102 -0.08442656 0.19073813 0.08034748 -0.028738378
0.11357566 -0.0896343 0.028697077 -0.13928778 0.07865681 -0.117966235 0.057821263 -0.051897492

layers.0.node_mlp.0.bias f4 [64]
00000000: a377 90be b8bb 4abe 4adb 66be 91e4 2dbc
00000010: c768 033c 146e f4bd 9c51 bd3d 96fb 2d3d
00000020: 847a 9f3d 373d 37bd affb d1bd 9e25 323a
00000030: 5663 1dbe 7d8f e93b b9d9 d53c 3a8b 313d
00000040: 2bf8 023d 5118 1b3e 7d54 01bd c1a5 8a3d
00000050: 2401 8cbe d9a6 9d3c eb7b acbd de2c 4dbd
00000060: cf5d 33bd fa30 2f3d c587 6cbe bd49 d9bc
00000070: 9419 8c3d 6b80 5f3d c975 d73b 4b78 7d3d
00000080: 3c93 7b3d b304 d63d 177d 8dbd 00ca bd3c
00000090: 5787 4bba 2d1d e93c a8ab 363d 15f8 e83d
000000a0: 8c87 1dbe 27d1 6cbe bd94 773d ee45 38be
000000b0: f801 5dbc d53f b7bb 9a71 d1bd 326d 43be
000000c0: 0733 2cbe 165e a0bd 7c90 a43d 462a 41be
000000d0: 5b97 543d d055 353e 4d4c fcbb 6dae 4cbe
000000e0: ea20 833d 7751 b7bd c0f5 05be a834 9a3d
000000f0: 3e97 04be c075 ba3b 71e5 123e 3e33 4b3e
-0.28216276 -0.19798172 -0.2254459 -0.0106135765 0.008020586 -0.11935058 0.092440814 0.04247626
0.0778704 -0.044736113 -0.10253083 0.00067957665 -0.15369925 0.007127701 0.026104795 0.043345667
0.031974953 0.15145995 -0.031574715 0.06769896 -0.2734462 0.019244598 -0.08422073 -0.050091617
-0.043790635 0.042771317 -0.23098667 -0.026524419 0.06840816 0.05456583 0.0065753204 0.0618823
0.06141971 0.10450115 -0.069086246 0.02316761 -0.00077640027 0.028456295 0.044597298 0.11375443
-0.15383738 -0.2312666 0.060444582 -0.17995426 -0.013489239 -0.005592326 -0.10226746 -0.19084623
-0.1681634 -0.078304455 0.08035371 -0.18863782 0.051902156 0.17708516 -0.0076995254 -0.19988413
0.06402762 -0.08951085 -0.13082027 0.07529575 -0.1294832 0.0056903064 0.14345337 0.19843766

layers.0.node_mlp.2.weight f4 [64, 64]
00000000: 9167 d93d c595 cc3d bceb 2c3d 0e2d 1abe
00000010: 1665 943d 9204 083e 21e8 13bb 15d6 acbc
00000020: b597 bd3b c142 663d 6fcb 223e 409d 8f3d
00000030: 29a4 eb3c 9ed3 2bbe 8cfa 6ebc b201 15be
00000040: 8f85 303e 4020 7ebe 5e55 f43d 987a 143e
00000050: 9ae7 eb3b 31c5 a9bb 7580 233e 44f8 4ebb
00000060: fbd3 823d c49f 60bd 54b1 95bb 46db cfbd
00000070: b7d9 8b3c d57f aa3e 5c51 063e a56d 74bd
00000080: 877f 34bd 5fa5 743e 5647 c23d acbf 26bd
00000090: 2ff8 4abd 7906 91bd dc50 bdbc b5f6 233d
000000a0: 9894 f43d 9f31 e73d 1adf 113e f630 cabd
000000b0: 529e 57be 5c07 9b3d e72e 0dbe cf64 8dbb
000000c0: d7b4 ca3d 9b72 753d 47d0 e23c edd1 b73d
000000d0: d57d c63d 65d5 f33c 2e5c d73b ef11 1cbe
000000e0: b5a5 e93d 6277 4f3e edf8 a63d 942d c93d
000000f0: 7f1a 813d c040 0abd f0e8 e23d 37d1 eabe
00000100: 45f9 a53d 9ca7 a83d f3bb c5bc add0 09bd
00000110: 058c bd3c f2a0 203d 8aa5 1fbe 7d63 97bd
00000120: fe9b 0cbd 3da8 6f3d b3e3 913d a4c4 9b3d
00000130: c20b 14bd 7756 ebbd ceca 323d 7016 c8be
00000140: 855c 023e ba64 25be fd80 973d dc13 5a3e
00000150: 0b42 1ebc fd66 d63d 44cf 0b3e 6495 553e
00000160: b0ea c1bd 3235 e938 6132 4bbd dc69 103d
00000170: 9b2b 653c bb27 873e c5b6 813e f9a7 173e
00000180: 2355 543d 9fc3 8c3d 1fa8 5fbd b42a c03d
00000190: f6fc bd3d 7115 ba3d 2c47 9dbd 39de 063e
000001a0: b501 053e 044c 9d3d 2c7c 4b3e 37ca c8bd
000001b0: 545d 0cbe 82e9 f53d 9071 7ebd 3a1b 083d
000001c0: 4e5c 8e3d 505c a13d f997 013e 5137 253e
000001d0: 0fbc 07bb ae0b d73d a22b 7ebd 60b7 6abd
000001e0: cba2 c63c a7df 913d 6f3e c5bd c933 e5bd
000001f0: 6086 00be 73d0 ecbd ae96 6cbd 8f59 bebe
00000200: 85e2 23be 2197 cebd dbdb 22be bc77 c4bc
00000210: 0b03 8c3d 1ab9 7cbd 423e f63d 62e1 7e3d
00000220: 03bd 26be 8109 3c3b 38df 2abe 90a0 08be
00000230: 72d4 18be c88d d4bb 3755 b6bd 4867 a03e
00000240: 995f 50be 97b4 9f3e 7894 15be 7b12 2abe
00000250: a9ec efbb b0aa 7abe 8a30 c9be c432 0cbe
00000260: 1ea9 70bc c3b6 42bd 0765 f5bc 787f c5bd
00000270: e3e1 bbbc 3894 acbd 4692 80be 3a0b cbbd
00000280: c37f 38be f8fa d7bd 131b 2bbc af48 913d
00000290: 62bf 4fbd ceb0 083e d820 cd3c 2e5c c13d
000002a0: 13da ca3c 8a59 98bc 6972 b5bd 75ae bf3d
000002b0: 2d1f 233e ebb9 7cbd e9d4 74bd 6a2d 05be
000002c0: b035 9e3d 0d26 97be 85f9 d1bd cd66 63be
000002d0: cc2f e7bd 9386 d03d 3286 c03d bbf3 a93d
000002e0: dc95 05bd 000c 91be f82d 8ebd 88a0 d7bd
000002f0: 7f28 ce3c d905 a6bc d1f8 14be d298 a73e
00000300: bacb d43c c0d8 00be 4b84 d1bd ae22 f23d
00000310: 351a 943e d8cc 543c 436e c1be 39f2 dd3d
00000320: 3eac 3d3e 9f80 e63c 8366 38bd 315c 783e
00000330: 544a 51bd 3068 f03d b241 2e3e d482 e3bc
00000340: 9a3b 3d3e 9af4 73be 2915 903e 54cf 223e
00000350: ac03 88bc b30a 5a3d 7f83 06be 2966 84bd
00000360: a494 b2bd dfd3 87bd f3ba 4e3d 1608 37bc
00000370: a332 30be dc11 523e 8923 1a3e 9793 933a
00000380: 2ed0 b4bd 624b b03d 8ebb aabd bb8a dcbc
00000390: f0d7 04be 6e2f 2e3d 052b 00bc 15d5 8f3d
000003a0: 40d7 c0b9 e12c acbd 24b9 613e a6bc cbbd
000003b0: 2f1e 32be 32ee 983b 0606 b93b 918c fe3b
000003c0: d35f 9d3c 2821 3ebc 1b52 293e d9d7 2d3d
000003d0: c16f e4bd 0e2f 68bc 5445 9f3d 9a0e 9fbd
000003e0: 2254 0a3e 1d2e 713e 5259 c6bd 14d2 afbd
000003f0: ceba b83c 1cf6 02be 4961 863e 25a3 ecbd
0.10615457 0.09989504 0.042217 -0.1505625 0.07245843 0.13282993 -0.002256878 -0.021098176
0.005785907 0.056216005 0.15897916 0.07012415 0.028764801 -0.16779944 -0.014586102 -0.14551428
0.17238449 -0.2481699 0.11930345 0.14499891 0.00719924 -0.0051809778 0.15966971 -0.0031581083
0.06388088 -0.054839864 -0.0045682583 -0.10149245 0.017071588 0.33300653 0.13116974 -0.059674878
-0.044066932 0.23891209 0.094862625 -0.040710136 -0.049553093 -0.07081313 -0.023109846 0.0400302
0.119424045 0.11288761 0.14245263 -0.0987262 -0.21056488 0.07569763 -0.13787423 -0.004314996
0.09897774 0.05992375 0.027687205 0.08975587 0.09691969 0.02976484 0.006572268 -0.15241216
0.11408559 0.20260385 0.081529476 0.098231465 0.06303882 -0.033753157 0.110795856 -0.45862743
0.08104185 0.08235094 -0.024137473 -0.033646274 0.023138056 0.03921599 -0.15590492 -0.07392023
-0.034328453 0.058510054 0.07123508 0.076058656 -0.036144026 -0.11491101 0.04365044 -0.39079618
0.12730606 -0.16151705 0.073976494 0.21296638 -0.009659301 0.10468862 0.13653284 0.20857769
-0.09468591 0.00011120214 -0.049608592 0.035257205 0.013987447 0.263975 0.25334755 0.1481017
0.051839005 0.06873249 -0.054603692 0.09383145 0.09276764 0.09086121 -0.076795906 0.13170709
0.12988932 0.076805145 0.19871587 -0.098041944 -0.13707477 0.12007429 -0.06212002 0.03322909
0.069511995 0.07878935 0.12655629 0.16134383 -0.0020711457 0.105002746 -0.06205333 -0.057303786
0.024247548 0.071227364 -0.09631049 -0.11191518 -0.1255126 -0.11563196 -0.057760887 -0.37177703
-0.16004379 -0.10087419 -0.1590418 -0.023982875 0.06836518 -0.061699964 0.120235935 0.06222666
-0.1628304 0.0028692188 -0.16686714 -0.133425 -0.14924791 -0.006486628 -0.08902972 0.31328797
-0.20348968 0.31192467 -0.14607418 -0.16608612 -0.0073219133 -0.24479175 -0.39294845 -0.1369124
-0.014688758 -0.047537576 -0.0299554 -0.09643453 -0.02293486 -0.08426708 -0.25111598 -0.09914251
-0.18017487 -0.10545915 -0.010443467 0.070939414 -0.050719626 0.13348696 0.025040075 0.0944141
0.024762189 -0.018597383 -0.08859713 0.09359447 0.15929861 -0.061700743 -0.05977336 -0.13005605
0.07725084 -0.29521218 -0.1025267 -0.22207184 -0.112884134 0.10181918 0.09400596 0.08298441
-0.03261362 -0.28329468 -0.069423616 -0.10528666 0.025165794 -0.02026646 -0.14548041 0.3273378
0.02597605 -0.12582684 -0.10230311 0.11823021 0.28926244 0.012988292 -0.37779436 0.10837216
0.18522736 0.028137503 -0.045019638 0.24253918 -0.051096275 0.11738622 0.17017248 -0.027772345
0.18479767 -0.23823777 0.28141144 0.15899402 -0.016603313 0.05323286 -0.131361 -0.06464798
-0.08719757 -0.06632208 0.050471257 -0.011171361 -0.17206816 0.20514625 0.15052618 0.0011259195
-0.088287696 0.08608128 -0.083365545 -0.02692162 -0.12972999 0.0425257 -0.007822757 0.07023064
-0.00036781467 -0.084069975 0.22043282 -0.09948091 -0.17394327 0.004667067 0.00564647 0.0077682217
0.019210732 -0.011604585 0.16535227 0.042442176 -0.11154128 -0.014171375 0.07776895 -0.07766457
0.13508657 0.23552747 -0.09685005 -0.08584991 0.022550013 -0.12789196 0.26246098 -0.11554555

layers.0.node_mlp.2.bias f4 [64]
00000000: 6880 ccbd 4d74 97bd 3104 e03d 4dcc be3d
00000010: 2660 fd3d 6535 d3bc 07f5 11be 32cd 2a3c
00000020: dd8a b73d 0ab8 14be 0e65 223d 3bd6 2abd
00000030: bcfc f8b9 9ba5 a3bd 65ec a83d fdab 2abb
00000040: fd67 2bbe 4bfd fa3d 7126 ef3d b2cc 6ebe
00000050: b8ea 5e3d 232a bc3d ec82 263e dce7 fdbd
00000060: 55be 533d 04b3 ba3d 4daa e8bb 6a23 c53c
00000070: f7fa 2c3e 8b2b 53be 9e0b 9f3d d330 e6bd
00000080: 9880 9d3d f835 633e 659b 053e 783d 323e
00000090: c8d4 65be 96af ca3b b396 283d c00f 0f3d
000000a0: 2fa6 223c 0840 44be 225a e43c 9614 7ebd
000000b0: c95e 9f3c e9c5 a9bd 69ca 0d3e cdb5 9cbd
000000c0: d01c 263e 19e5 3fbd 53fd c93d 9d3e 0abd
000000d0: d6e4 5bbd d55d 473d 1880 173e ce69 7bbd
000000e0: 229a 16be 83c8 82bd 0e1a ea3d 09a6 89bd
000000f0: b60a d2bb 9b74 c2bd 39ec 10be 3392 ef3d
-0.09985429 -0.073952295 0.109382994 0.09316311 0.123718545 -0.025782296 -0.14253627 0.010424899
0.08962033 -0.1452333 0.039647155 -0.041708212 -0.00047490548 -0.07990571 0.08248214 -0.0026042454
-0.16738887 0.12255343 0.11677254 -0.23320273 0.054423064 0.091877244 0.1626088 -0.12397739
0.051695187 0.09116176 -0.0071003796 0.024064738 0.1689261 -0.20622079 0.07765888 -0.11239781
0.07690543 0.22188556 0.1304756 0.17406261 -0.22444451 0.0061854823 0.041159343 0.03492713
0.009927317 -0.19165051 0.02787501 -0.06203135 0.019454377 -0.082897015 0.13846745 -0.07651863
0.16221929 -0.046849344 0.09862771 -0.03375112 -0.05368503 0.04867347 0.14794958 -0.0613802
-0.14707235 -0.06385901 0.11430751 -0.06721122 -0.0064099682 -0.09494897 -0.14152612 0.11697807

layers.1.gate_mlp.0.weight f4 [64, 1]
00000000: 3946 58bc 9d11 c73e e9d2 eb3c 1900 a5bf
00000010: 7031 30bf ad21 7f3d 45d1 663f 5c2a 42bf
00000020: 65d6 61bf 99f6 37bf 9b8e 2e3f cbf9 6fbf
00000030: 69ae 0f3d 55af 88bf 93ea 363f cb84 f83e
00000040: d0e1 52bd 8ef6 d8bd 05c7 81be b708 1c3f
00000050: eea7 66be 20c0 b5ba 1be3 953e b43e ec3e
00000060: 234a dfbe 8cdb 1d3f 9ca3 573f f36b 5ebf
00000070: f9a1 5abf f9a3 6bbf 9507 133f e647 923e
00000080: 9093 17bf 3648 e53d fdb0 c03d 5fac 4ebf
00000090: 00d1 cd3e 2f0d 94bf e7b2 093f 8b02 50bd
000000a0: 3e71 a8bd 4450 e53e 01a4 87be f00e 813f
000000b0: 8566 52bf bf47 293f dead 28bf 960f 38bf
000000c0: 0d05 f93d d952 82bf 13c5 2ebf 9391 f73e
000000d0: f3b9 7a3f da1f da3e a0a9 6abf 0d7a f7be
000000e0: afb6 b13e 84f2 6c3f 35c5 1a3f 1ad7 823f
000000f0: 27e5 cb3d aaa5 8abf 3913 a63d 2383 223f
-0.013200336 0.38880625 0.028787093 -1.2890655 -0.68825436 0.062287975 0.9016307 -0.75845885
-0.88217765 -0.71860653 0.6818635 -0.9374053 0.03507844 -1.0678507 0.7145168 0.48538813
-0.051484883 -0.105939016 -0.25347152 0.609508 -0.22524998 -0.0013866462 0.2927483 0.4614159
-0.4361125 0.61663127 0.84234023 -0.8688347 -0.854034 -0.9204708 0.57433444 0.2857048
-0.5920954 0.11195414 0.09408758 -0.8073177 0.40198517 -1.1566523 0.5378861 -0.050783675
-0.08224724 0.447878 -0.26492313 1.0082684 -0.8218768 0.661251 -0.658903 -0.7189878
0.121591665 -1.0181533 -0.6826946 0.48353252 0.97939986 0.42602426 -0.9166508 -0.48335305
0.3470969 0.9255755 0.60457164 1.0221894 0.09955817 -1.0831807 0.08109135 0.6348135

layers.1.gate_mlp.0.bias f4 [64]
00000000: 4642 063c c8b0 c0be e14c e7be 0386 b03f
00000010: 51ef dc3b dc32 3abd 6a9d d8be 1a27 ab3e
00000020: 2273 883e 5c43 77be a03a 1bbf a768 d23e
00000030: f7da dfbd d042 613f 93ea 00bf 7e29 963d
00000040: eadb 123d 95b1 993d 13e8 f73e 33f5 2dbf
00000050: 1b89 6b3f f904 563a 9418 f83e bd93 bd3c
00000060: de5d 3bbf e488 143f 4bec 653f 78d5 a33e
00000070: c649 4b3f e166 d93e 58bb d23c fcf4 453e
00000080: 76d8 19be 2b5d 60be ed92 fb3e 795b 7d3f
00000090: 27fd e6bd 1bc3 803f a6fb 9b3e ed07 113d
000000a0: 0a8b 993e 9314 2fbf 86df 183f b923 6ebf
000000b0: 08b6 993d b24b aebe 7e6a 31be 06ae 33bd
000000c0: d172 4c3f 4a4a 3c3f c543 f1bd 1c3e e6be
000000d0: 77c6 0abf 7249 aabe a90b f63e 40b1 9ebe
000000e0: f9b5 993e a497 f53e b08c 0d3f 4eef 6abf
000000f0: 56d5 26be ac82 683f 125c 0d3e 8fa3 633f
0.008194512 -0.37634873 -0.4517584 1.3790897 0.006742396 -0.04545866 -0.42307597 0.3342827
0.2665034 -0.2414679 -0.6063633 0.41095468 -0.10930436 0.8799257 -0.5035793 0.07332133
0.035854258 0.07504574 0.48419246 -0.6795227 0.9200608 0.0008164193 0.48456252 0.023141736
-0.73190105 0.5802138 0.8981368 0.319988 0.79409444 0.42461303 0.025724098 0.19331735
-0.1502398 -0.21910541 0.49135533 0.989677 -0.11278754 1.0059541 0.3046543 0.03540795
0.2998889 -0.6839077 0.5971607 -0.9302326 0.07505423 -0.34042126 -0.1732578 -0.043867134
0.79862696 0.73550856 -0.11780504 -0.4496926 -0.54209083 -0.3325916 0.4805577 -0.30994606
0.30021647 0.47967255 0.552928 -0.917714 -0.16292319 0.9082439 0.13804653 0.88921446

layers.1.gate_mlp.2.weight f4 [1, 64]
00000000: 82ad 08ba ee64 05be 6c0a 223d 674a 4d3f
00000010: 449c 203e 2c41 673a dfa7 b53d ea18 a23e
00000020: 70c4 a03e 32d0 ca3d dd22 d4bc a6cf e63e
00000030: 39b9 e3bc 5531 5a3f 2cda 6e3d d8de 8a3d
00000040: 2798 87ba 218d f6ba a384 023c 50f2 0ebd
00000050: 0ebe 453d a8ba 3f35 88f4 9cbc 46ad b2bd
00000060: 7e9d 81bd 7d6d be3d 258b 7bbd 8b79 c63e
00000070: 2edd cd3e 81ff c03e 6f2b ccbc 6b28 6a3d
00000080: 20c5 453e 60c2 b1bd 0183 3c3c 8e75 bd3e
00000090: c161 3abd 1744 713f 47c5 32bd d009 8aba
000000a0: da36 b2bd 9f86 403d 6b50 f83d 7468 253d
000000b0: a452 063e e5cd 8b3d 3e0c fd3d a61a 2b3e
000000c0: 2992 a5bc be6c 473f 5f6f 703d 9083 efbc
000000d0: 3b84 e43d 9dd2 31bc 8bb4 013f 36ee 933d
000000e0: 7161 21bd 86bc bdbd 8859 9e3d 489c 413d
000000f0: 05c4 02bc 72c9 673f 8c5f 623d 115f bbbd
-0.0005213843 -0.13026783 0.03956072 0.80191654 0.1568461 0.0008821662 0.088699095 0.31659633
0.3139987 0.09902991 -0.02589553 0.45080298 -0.027798282 0.85231525 0.058313534 0.06780785
-0.0010345028 -0.001881037 0.007966193 -0.034899056 0.048276953 7.1424665e-07 -0.01915957 -0.087244555
-0.063288674 0.09298227 -0.061411995 0.38764605 0.4020781 0.37694934 -0.024923055 0.05716745
0.19313478 -0.08679652 0.011505843 0.3700375 -0.04550338 0.9424452 -0.04364517 -0.0010531489
-0.08701868 0.047003385 0.121247135 0.040382817 0.13117462 0.06826381 0.12355851 0.16709384
-0.020211296 0.779003 0.05869996 -0.029237539 0.111580335 -0.010853437 0.5066611 0.072231695
-0.039399568 -0.092644736 0.077319205 0.047268182 -0.007981305 0.90541756 0.0552669 -0.09148992
