results/checkpoints/hybrid_flow.pth (torch, 4997 bytes, 4 tensors)

net.0.weight f4 [32, 12]
0	0x3e4d58b7	0.20053373
1	0xbd516bde	-0.05112826
2	0x3e8afe5e	0.27147192
3	0xbe76b38e	-0.24091932
4	0xbe70addb	-0.2350382
5	0xbe132e12	-0.14373043
6	0xbecfcd56	-0.40586346
7	0x3c079c10	0.008276954
8	0xbe9bf85d	-0.30462924
9	0x3e89835d	0.26858035
10	0x3e888690	0.26665163
11	0xbc6d836c	-0.014496665
12	0xbddfe23b	-0.10931822
13	0xbd52ff0b	-0.05151276
14	0xbcbf0405	-0.023317346
15	0x3e86019a	0.26173097
16	0xbe5d469d	-0.21608968
17	0x3e8904bc	0.26761425
18	0x3dfd095a	0.12355299
19	0xbeaff95d	-0.34369937
20	0xbdb7df2a	-0.08978112
21	0x3e5531c7	0.2081977
22	0x3eca8e6f	0.39561793
23	0xbe7bd614	-0.24593383
24	0x3eacb1f4	0.33729517
25	0x3d8fb9e4	0.07017878
26	0x3d55c6ed	0.052191664
27	0xbd377a53	-0.04479439
28	0xbeb8605c	-0.36011016
29	0xbe1dad8c	-0.15398234
30	0xbdee3b84	-0.116324455
31	0xbd69a81e	-0.057045095
32	0x3e2d04df	0.1689639
33	0xbb398406	-0.0028307452
34	0xbe4b48cc	-0.19851989
35	0xbe13dfe9	-0.14440884
36	0xbe88a841	-0.26690868
37	0xbd788315	-0.060671885
38	0x3d39bc1c	0.04534541
39	0xbc36f299	-0.011166238
40	0x3d9c4b51	0.07631553
41	0xbe86d26e	-0.2633242
42	0xbe168012	-0.14697292
43	0xbdaf280e	-0.08552562
44	0xbe4a26d4	-0.19741374
45	0x3e29b3b9	0.16572465
46	0x3ed07c99	0.4072006
47	0xbe34803a	-0.1762704
48	0x3e9d3eae	0.30711883
49	0x3e48f94b	0.19626348
50	0x3e8f9a72	0.2804752
51	0x3d4b87e9	0.04969016
52	0xbc7e8978	-0.015535705
53	0x3ca5f2de	0.02025741
54	0xbbd69ed0	-0.0065496936
55	0xbd937cdc	-0.072015494
56	0xbe7e018f	-0.24805282
57	0xbe417b97	-0.18894802
58	0x3e265c66	0.16246185
59	0xbe150316	-0.14551958
60	0xbe930ed4	-0.2872225
61	0xbe77092c	-0.24124593
62	0x3cdec66e	0.027194228
63	0xbd2ba762	-0.041907676
64	0xbde257f1	-0.1105193
65	0xbe07431d	-0.13209195
66	0x3e405122	0.1878095
67	0xbd9fd381	-0.07804013
68	0xbe7e9744	-0.24862391
69	0xbe68774d	-0.2270176
70	0xbde55c42	-0.111992374
71	0xbe7db1dc	-0.24774879
72	0x3ea2db23	0.31807813
73	0x3e8ed1c1	0.27894405
74	0xbdd34779	-0.10316367
75	0xbe5ad053	-0.21368532
76	0x3e0afc30	0.13572764
77	0x3dc4314b	0.095797144
78	0xbccb7236	-0.024834733
79	0xbe625acb	-0.22104947
80	0x3e1c722d	0.1527793
81	0x3e94001a	0.28906327
82	0xbddfe1bc	-0.10931727
83	0x3e94ad06	0.29038256
84	0x3d98d936	0.07463305
85	0xbe935220	-0.28773594
86	0xbdac21a7	-0.08404856
87	0xbe431882	-0.19052318
88	0x3e6c873e	0.23098466
89	0xbe59d386	-0.21272096
90	0xbda27010	-0.079315305
91	0x3e35e769	0.17764057
92	0xbd8aacb2	-0.0677122
93	0x3eb94518	0.36185527
94	0x3e73a2d5	0.23792584
95	0x3e5adfab	0.21374385
96	0xbd7e5067	-0.062088396
97	0x3d3109f7	0.043222394
98	0xbdeed4bc	-0.116616696
99	0xbe04b900	-0.12961197
100	0xbe85c793	-0.26128826
101	0x3da30854	0.07960573
102	0xbea149c4	-0.3150159
103	0xbdb15c39	-0.08660168
104	0xbe413ab4	-0.1887005
105	0xbea819f8	-0.32832313
106	0x3d1b5a80	0.037928104
107	0x3e56e078	0.20984066
108	0x3ea8c8e0	0.32965755
109	0x3e5579b0	0.20847201
110	0xbdb978f4	-0.09056273
111	0x3da22a5b	0.07918235
112	0xbeb9061e	-0.3613748
113	0xbe250301	-0.16114427
114	0x3d007279	0.03135917
115	0x3dd60916	0.10450952
116	0x3e90cf62	0.2828322
117	0xbd7bce60	-0.06147611
118	0x3e7c3cb6	0.24632534
119	0xbd943ba9	-0.07237942
120	0xbe8c0d56	-0.27353925
121	0x3e5d2a6f	0.21598218
122	0x3e8d5886	0.276066
123	0x3e6da329	0.23206772
124	0x3e07727a	0.13227263
125	0xbdc643ab	-0.096808754
126	0x3e78f419	0.24311866
127	0x3e9ee35b	0.31032833
128	0x3d07a796	0.033118807
129	0x3e10b4f7	0.14131533
130	0xbe541bcf	-0.20713733
131	0x3e3abe3b	0.1823663
132	0x3e815450	0.25259638
133	0xbe27e480	-0.1639576
134	0xbceb9283	-0.028756386
135	0x3e0b3f87	0.13598453
136	0xbe9ba92f	-0.30402514
137	0x3db6e1d2	0.089297906
138	0xbe0e1b2c	-0.13877553
139	0x3e4d9164	0.20074993
140	0xbe4ebd89	-0.2018949
141	0x3eb1e36d	0.34743825
142	0x3dbfbfd0	0.09362757
143	0x3e3c5d0a	0.18394867
144	0xbe1e2fa4	-0.15447861
145	0x3de25f47	0.11053329
146	0xbdb2a45d	-0.08722756
147	0xbd7c4961	-0.061593417
148	0x3e9924ed	0.29910985
149	0xbe8421ff	-0.25807187
150	0x3e605952	0.21909073
151	0xbe4c0986	-0.19925508
152	0x3c185ff8	0.0093002245
153	0xbea2a534	-0.31766665
154	0xbeae3063	-0.3402129
155	0xbd56499f	-0.052316304
156	0xbe5787d4	-0.21047908
157	0x3d95ad06	0.07308392
158	0x3e2e4b16	0.1702083
159	0x3e9f4c67	0.31112978
160	0xbe39332d	-0.18085928
161	0xbe043994	-0.1291259
162	0x3e15450d	0.14577122
163	0xbea806aa	-0.32817584
164	0x3e5a3413	0.21308927
165	0x3d79286b	0.06082956
166	0xbdd25d30	-0.1027168
167	0xbec42fff	-0.38317868
168	0xbd912ab9	-0.07088227
169	0xbe6e0553	-0.23244219
170	0xbdecff62	-0.11572148
171	0xbc91d5de	-0.017802175
172	0x3e04fb34	0.12986451
173	0xbe7d5ae4	-0.24741703
174	0x3e2e53b8	0.17024124
175	0xbda89412	-0.08231367
176	0x3ec41887	0.38299963
177	0x3cd7f10c	0.026360057
178	0xbd88942b	-0.06668886
179	0xbe702d0b	-0.23454683
180	0x3e7943a5	0.2434221
181	0x3cb3f4bd	0.021967286
182	0x3db2d078	0.087311685
183	0xbde3aae5	-0.1111658
184	0xbcdf103a	-0.027229417
185	0x3dce9da8	0.10088664
186	0x3e975e90	0.29564333
187	0x3e5494bd	0.20759864
188	0x3d61ae39	0.055097792
189	0x3e7df9d5	0.24802335
190	0xbe92dbb1	-0.28683236
191	0x3e4dbbac	0.20091122
192	0xbde1f676	-0.11033337
193	0xbdeca0a6	-0.11554079
194	0x3e26d0b4	0.16290551
195	0x3dd11b14	0.10210243
196	0xbe7a3deb	-0.24437682
197	0xbe965d30	-0.2936797
198	0x3700306c	7.640669e-06
199	0x3b45889b	0.0030141238
200	0xbde8b63b	-0.11362883
201	0xbe85ba51	-0.2611871
202	0xbbef0181	-0.0072938805
203	0x3caecbab	0.02133735
204	0xbc424d9d	-0.011859325
205	0x3e9e93a2	0.3097201
206	0x3d2f0b68	0.042735487
207	0x3e0d381d	0.13790937
208	0xbe6ef8e1	-0.23337127
209	0x3da0a332	0.07843627
210	0x3d4805e4	0.048833743
211	0xbe00ea73	-0.12589435
212	0xbebcd2d4	-0.368796
213	0x3e777dc2	0.24169067
214	0x3cd62e71	0.026145192
215	0x3ec707c9	0.38873127
216	0x3c55ba16	0.013044855
217	0xbc31fa1f	-0.010862856
218	0xbe83d5b1	-0.2574897
219	0x3e8516ba	0.25993901
220	0x3e119663	0.14217524
221	0x3ea0ee1f	0.31431672
222	0x3e2ac6b4	0.16677362
223	0xbe6e9250	-0.23298001
224	0x3e5be254	0.21473056
225	0xbe9a58b0	-0.30145788
226	0xbe40bf75	-0.18823035
227	0xbe96e75e	-0.29473394
228	0x3ea1ec7a	0.3162573
229	0x3dab78bf	0.0837264
230	0x3e892bed	0.26791325
231	0xbea8af8c	-0.32946432
232	0x3de605b1	0.11231554
233	0x3e895bec	0.26827943
234	0x3e28ed99	0.16496886
235	0xbe5f0c05	-0.21781929
236	0x3e90bc1b	0.28268513
237	0xbe7c12b8	-0.24616516
238	0xbe0e9369	-0.1392342
239	0xbd5e51e5	-0.05427732
240	0xbe7be29a	-0.2459816
241	0x3dbcec03	0.09224703
242	0xbe0edcf8	-0.1395148
243	0xbe2c469f	-0.16823815
244	0xbe06867a	-0.13137236
245	0x3d58698e	0.05283504
246	0x3ea0b5d4	0.31388724
247	0xbe8a6441	-0.27029613
248	0x3e9bf495	0.3046004
249	0xbe4f724a	-0.20258442
250	0xbec5daaa	-0.3864339
251	0xbd237dae	-0.03991478
252	0xbbc84ea6	-0.0061128912
253	0xbe027bbd	-0.12742515
254	0xbe9a02a1	-0.3008013
255	0x3e11bd3f	0.14232348

net.0.bias f4 [32]
0	0xbc975195	-0.018471519
1	0xbdc3148f	-0.095254056
2	0xbe44bfd8	-0.19213808
3	0x3e4ce65d	0.20009752
4	0x3e9707da	0.29498178
5	0xbbcdb248	-0.0062773563
6	0x3d168fef	0.03675836
7	0x3e27d8dc	0.16391319
8	0xbdd1e425	-0.10248593
9	0x3d50c4c6	0.050968908
10	0x3e2e117d	0.16998859
11	0x3d63f3e5	0.055652518
12	0x3e6333a4	0.22187668
13	0xbde6e0e6	-0.11273365
14	0x3e2627ba	0.16226092
15	0x3e835748	0.25652528
16	0xbe8ff16e	-0.28113884
17	0xbe7ecfb2	-0.24883917
18	0x3e7c4327	0.24634992
19	0x3dd4547e	0.10367678
20	0x3e7bc91f	0.2458844
21	0x3dd4f862	0.10398938
22	0x3e869aa1	0.26289847
23	0x3e8037bb	0.2504252
24	0x3e5fea79	0.21866788
25	0x3cd7baff	0.026334284
26	0x3e35ce7d	0.1775455
27	0xbe29b294	-0.16572028
28	0x3c309166	0.010776853
29	0x3dbb4759	0.09144468
30	0xbd7bbc0e	-0.06145864
31	0xbe194dcc	-0.14971083

net.2.weight f4 [6, 32]
0	0xbdd1244b	-0.102120005
1	0x3d879234	0.06619683
2	0xbdd0a6f2	-0.10188092
3	0x3d847863	0.064682744
4	0xbd7d5263	-0.06184615
5	0x3d525d5f	0.051358577
6	0xbd567650	-0.052358925
7	0xbda25e13	-0.079280995
8	0x3d63fd78	0.05566165
9	0xbd8e8e52	-0.06960739
10	0xbd729e2e	-0.059232883
11	0xbda54278	-0.080693185
12	0x3da4e477	0.08051389
13	0x3d8f2da0	0.06991124
14	0x3dc16e6d	0.0944489
15	0xbd579c46	-0.05263927
16	0x3d58a848	0.05289486
17	0xbdb6b3b1	-0.08920992
18	0x3de887a3	0.11353996
19	0xbd65c56c	-0.05609648
20	0x3db388ab	0.08766302
21	0x3da61952	0.08110298
22	0xbd893084	-0.06698707
23	0xbd7caa54	-0.061685875
24	0x3d9c316a	0.076266125
25	0xbdb1d74c	-0.08683643
26	0xbd93cade	-0.07216428
27	0xbd941b8b	-0.07231816
28	0xbd80baa6	-0.062856
29	0xbd6f3ce1	-0.058407668
30	0x3dd0dd0d	0.10198412
31	0x3d5ddffa	0.05416868
32	0x39c8c95a	0.0003829699
33	0xb96722af	-0.00022042797
34	0xb99e4419	-0.00030186845
35	0x3921f3af	0.00015444936
36	0xb9692ef8	-0.00022238109
37	0x3aca4fb9	0.0015435136
38	0x3ac66dae	0.0015138888
39	0xb98d0331	-0.00026895994
40	0xba9916da	-0.0011679784
41	0x3896f9a6	7.199058e-05
42	0xb9f4a0b4	-0.0004665904
43	0x36137672	2.1973651e-06
44	0x387d77b0	6.043137e-05
45	0x38a9b481	8.0921694e-05
46	0xb80f8d11	-3.4225235e-05
47	0x376f2b22	1.4255553e-05
48	0x39259d0b	0.0001579413
49	0xb95fe028	-0.00021350442
50	0x39bd29f0	0.00036080135
51	0xb95148b8	-0.00019958883
52	0xb83e59f1	-4.5383294e-05
53	0xb9ded4f8	-0.00042501814
54	0x39f1850c	0.0004606623
55	0xb9bb3c3c	-0.00035712298
56	0xb8a29107	-7.7517754e-05
57	0xb961c4b9	-0.00021530957
58	0x39b403b2	0.0003433503
59	0xb84d7acc	-4.8990172e-05
60	0x39cae6e1	0.0003870046
61	0x39600fac	0.00021368143
62	0x390777d4	0.00012919243
63	0x3a208911	0.000612394
64	0x3d78da4c	0.06075506
65	0x3d43bef4	0.04778953
66	0x3db7dccd	0.08977661
67	0x3cbb1665	0.022837827
68	0x3d8322ae	0.06403099
69	0x3c6069b0	0.013697073
70	0xbc88472d	-0.016635502
71	0xbdd7848a	-0.10523327
72	0x3d262684	0.040564075
73	0x3deab470	0.11460197
74	0xbd3bc813	-0.045845103
75	0x3da8ecb6	0.08248274
76	0xbdca683f	-0.098831646
77	0x3d12fda6	0.03588643
78	0xbde562e7	-0.11200505
79	0xbca03efc	-0.019561283
80	0x3ca3dbe9	0.020002322
81	0x3db38e4b	0.087673746
82	0xbd17d10e	-0.037064604
83	0xbc89195b	-0.016735723
84	0xbd1659a8	-0.036706597
85	0xbdc3e937	-0.095659666
86	0xbd8f2981	-0.06990338
87	0xbcf8c754	-0.030368485
88	0xbe0389ad	-0.12845488
89	0x3dc63752	0.0967852
90	0x3dd465f0	0.103710055
91	0x3ddb4cb6	0.10707991
92	0xbc468fdf	-0.0121192625
93	0xbd5b2c6d	-0.053509165
94	0xbd9ecaea	-0.077535465
95	0x3c2a6a25	0.010401283
96	0xbd7f97dc	-0.062400684
97	0xbd83981e	-0.064254984
98	0x3dc05ef7	0.09393113
99	0xbd488c4b	-0.04896192
100	0x3d727f20	0.059203267
101	0xbd4157a4	-0.04720272
102	0x3d389e03	0.045072567
103	0xbdbaa420	-0.091133356
104	0xbd5170c1	-0.05113292
105	0x3d94586d	0.072434284
106	0x3d6c79f6	0.0577335
107	0xbdc764e8	-0.09736043
108	0x3dd2c197	0.102908306
109	0x3dfbb43e	0.12290238
110	0x3dc3ce9a	0.095608905
111	0x3d24e19f	0.04025423
112	0xbd2e6769	-0.04257909
113	0xbdbe88bd	-0.093034245
114	0x3d5b7942	0.053582437
115	0x3d4ad212	0.049516745
116	0x3dcfd131	0.10147322
117	0x3dad9f98	0.08477706
118	0x3d77b358	0.06047377
119	0x3d75372b	0.059867065
120	0xbdabdc6f	-0.08391654
121	0xbdb2a188	-0.08722216
122	0xbdc46239	-0.09589047
123	0x3da65be6	0.08122997
124	0x3d8383a0	0.0642159
125	0x3d5e2e48	0.054243356
126	0x3d8d01be	0.06885098
127	0xbd471d72	-0.048612066
128	0xbd84e1b2	-0.064883605
129	0xbd46b50c	-0.048512504
130	0xbda54340	-0.080694675
131	0xbd5acc59	-0.053417537
132	0x3d3d5960	0.046227813
133	0xbd1c1783	-0.03810836
134	0x3d4495bd	0.047994364
135	0xbdd9abb2	-0.106284514
136	0xbc3155c0	-0.010823667
137	0xbe0b72df	-0.13618039
138	0x3d5c8c16	0.053844534
139	0xbdc9585e	-0.09831308
140	0x3dbee649	0.09321267
141	0xbd90f6c2	-0.07078315
142	0xbdaa84b5	-0.08326093
143	0x3d42cbec	0.047557756
144	0xbd43860c	-0.04773526
145	0x3dcb9c70	0.099419475
146	0x3d5e37d0	0.054252446
147	0x3d45af13	0.048262667
148	0x3da977db	0.08274814
149	0xbdb835e5	-0.089946546
150	0x3d615e3f	0.05502152
151	0x3d4d49d5	0.05011924
152	0x3dd44a5b	0.10365745
153	0x3da08438	0.07837719
154	0x3d9575e3	0.07297876
155	0xbe05c979	-0.13065137
156	0x3d687285	0.05674984
157	0x3d4b0500	0.049565315
158	0xbe1342cc	-0.1438095
159	0xbd08906e	-0.033340864
160	0xb91f5e09	-0.00015198452
161	0xb9a3acb3	-0.00031218454
162	0xb89caae5	-7.470491e-05
163	0x38a41ca8	7.825467e-05
164	0x396a77d5	0.0002236062
165	0x39db15ae	0.00041787088
166	0xb956048e	-0.00020410327
167	0x386a0a06	5.5799283e-05
168	0xb9471374	-0.00018985366
169	0x383b742f	4.469248e-05
170	0xba21454d	-0.0006151989
171	0xb68c81c0	-4.18743e-06
172	0x37133648	8.774521e-06
173	0x39980df2	0.0002900209
174	0x39a778ba	0.0003194267
175	0x3a17158a	0.00057634024
176	0x3a2d09e6	0.0006600901
177	0xb94ee89b	-0.00019732343
178	0xb7df81af	-2.664406e-05
179	0xba1c6bfc	-0.00059670187
180	0xb9f4ec1f	-0.0004671523
181	0xba1e91d2	-0.00060489506
182	0x398e9c01	0.00027200583
183	0xb9a50234	-0.00031472894
184	0x3a0af78c	0.00053011696
185	0xb8b66cad	-8.698679e-05
186	0xb6ef2e3c	-7.1281374e-06
187	0xb89b8e56	-7.417488e-05
188	0x3a130b02	0.0005609245
189	0x39149866	0.00014171153
190	0x38bcda26	9.005172e-05
191	0xba561565	-0.000816664

net.2.bias f4 [6]
0	0xbd502129	-0.050812874
1	0xb84a7a12	-4.827424e-05
2	0xbc8d05aa	-0.017214615
3	0x3d3e7f15	0.046507914
4	0x3d40296a	0.046914496
5	0x3a03b297	0.00050238654
