results/checkpoints/hybrid_jump.pth (torch, 20869 bytes, 5 tensors)

magnitude_mlp.0.weight f4 [64, 2]
0	0xbf27a7e9	-0.65490586
1	0xbd42863a	-0.04749129
2	0xbdf8eb57	-0.121542625
3	0x3f20dfae	0.6284131
4	0xbdcffb48	-0.1015535
5	0x3edcde73	0.43138465
6	0x3f1328dc	0.5748422
7	0x3e8d6f2d	0.27623883
8	0xbf0a1cec	-0.5395038
9	0x3cc66d5d	0.02422207
10	0x3dc4d416	0.09610765
11	0x3ef51e5e	0.4787473
12	0x3f016ffc	0.505615
13	0xbee47cb4	-0.4462639
14	0xbeb505dc	-0.35356033
15	0x3b69e6a0	0.0035690442
16	0xbe88057c	-0.26566684
17	0x3ec03983	0.37543878
18	0xbecf6dab	-0.40513358
19	0xbf1a2799	-0.6021667
20	0x3ccb0261	0.024781408
21	0x3f14c8a4	0.58118653
22	0xbf069208	-0.52566576
23	0xbcbdb010	-0.023155242
24	0x3f2d5eb8	0.67722654
25	0x3e1bdfb5	0.15222056
26	0xbec08b33	-0.376062
27	0x3e607db6	0.21922955
28	0x3e8cfbb5	0.27535787
29	0x3f1f1b12	0.6215068
30	0xbf154059	-0.5830131
31	0xbf0dcc70	-0.5539007
32	0x3c637dab	0.013884942
33	0xbf2e631b	-0.6811997
34	0xbe24f5b5	-0.16109355
35	0xbe923586	-0.2855646
36	0xbd9c7b5b	-0.07640716
37	0xbee0e559	-0.43924978
38	0x3ef6966c	0.48161638
39	0x3ef4e56e	0.4783129
40	0x3f294517	0.6612105
41	0x3ee8c4a7	0.45462534
42	0x3ef60757	0.48052475
43	0x3ed5ad09	0.41733578
44	0x3e437fc8	0.19091713
45	0x3f12e9e1	0.5738812
46	0xbf0c6694	-0.5484402
47	0x3e199191	0.14996935
48	0xbf0dce42	-0.5539285
49	0xbebe6e1a	-0.37193376
50	0x3edf3538	0.4359529
51	0x3ebc5934	0.36786807
52	0x3c891193	0.016732013
53	0x3f00dafd	0.5033415
54	0xbed8671d	-0.4226617
55	0x3f1a5669	0.602881
56	0x3ed3220d	0.41236916
57	0x3ecb92ed	0.39760533
58	0x3eceae14	0.40367186
59	0x3f33f9d9	0.7030311
60	0x3c0dea1f	0.008661776
61	0xbeab86d2	-0.33501297
62	0x3be89d96	0.007098864
63	0x3eeeb7b8	0.4662454
64	0xbe79789c	-0.24362415
65	0xbf154ff6	-0.58325136
66	0x3df8cf8b	0.12148961
67	0xbf2a7d8e	-0.6659783
68	0xbed4fe4b	-0.4160026
69	0x3e1fe1c4	0.15613467
70	0xbe29a3cc	-0.1656639
71	0x3d80cd17	0.06289118
72	0x3dc8cccf	0.09804689
73	0xbf3765bc	-0.7163961
74	0xbc890b0a	-0.016728897
75	0xbf120ce4	-0.5705092
76	0x3eafe9fe	0.3435821
77	0xbe269f9b	-0.16271822
78	0xbe66c2c7	-0.22535239
79	0xbf033e36	-0.512668
80	0xbedc9645	-0.43083397
81	0xbeff49c2	-0.4986096
82	0x3ec27244	0.37977803
83	0xbf096e88	-0.5368428
84	0x3eeeea5e	0.46663183
85	0x3e9439c8	0.28950334
86	0xbea4d275	-0.32191816
87	0xbf29f0dc	-0.6638315
88	0x3f2e1716	0.68003976
89	0xbe4a19d1	-0.1973641
90	0xbd81e3cc	-0.06342277
91	0x3e0bb8f9	0.1364478
92	0x3f2035b8	0.6258197
93	0x3e830e68	0.2559693
94	0x3e2d71c0	0.16937923
95	0x3ed4bcef	0.41550395
96	0xbedc6bf4	-0.43051112
97	0x3e11afb0	0.14227176
98	0x3cf36155	0.029709497
99	0x3f2afebb	0.6679494
100	0x3f1e51ff	0.61843866
101	0x3e0b9037	0.13629232
102	0xbe1eb966	-0.15500411
103	0x3ebc8438	0.36819625
104	0xbea98287	-0.33107397
105	0x3e9c77b3	0.30560073
106	0x3d8622d6	0.06549613
107	0x3e744d12	0.23857525
108	0x3e89e84b	0.26935038
109	0x3e9907f8	0.29888892
110	0x3efe9504	0.49723065
111	0xbdac2186	-0.084048316
112	0x3ea0f863	0.31439504
113	0x3ef3833a	0.47561055
114	0x3eb0aeec	0.34508455
115	0xbf261fe5	-0.6489242
116	0x3ec1265e	0.37724584
117	0xbc3ede65	-0.011649703
118	0x3e6fe2d1	0.23426367
119	0x3f190058	0.5976615
120	0xbc3c00a7	-0.011474765
121	0xbee32ad4	-0.44368613
122	0x3db6068b	0.08887967
123	0x3d839dd9	0.064265914
124	0xbe9f7f48	-0.31151795
125	0xbeb4fd89	-0.35349682
126	0xbf2c82b6	-0.6738695
127	0x3ea3ff52	0.3203073

magnitude_mlp.0.bias f4 [64]
0	0x3e923e81	0.28563312
1	0xbf1a7102	-0.60328686
2	0xbedaf11a	-0.4276207
3	0x3e0fe295	0.14051278
4	0x3eae69d6	0.3406512
5	0x3f287a08	0.65811205
6	0xbeb12184	-0.34595883
7	0xbf20b453	-0.6277515
8	0x3c516f8a	0.012782941
9	0x3f1c2c3f	0.61005014
10	0x3f0d458b	0.5518424
11	0xbf30d62a	-0.6907679
12	0xbe50f792	-0.2040694
13	0xbe99a6ef	-0.30010173
14	0xbdcedc44	-0.10100606
15	0x3e82e203	0.25563058
16	0xbe2dad8a	-0.16960731
17	0x3c6afbf5	0.014342298
18	0xbf1201b7	-0.57033867
19	0x3e3c9f91	0.18420245
20	0xbe4df981	-0.2011471
21	0xbecf8f30	-0.4053893
22	0x3f2568ea	0.6461321
23	0xbe9b17b2	-0.30291516
24	0xbf105120	-0.56373787
25	0x3f27de51	0.655736
26	0xbf126468	-0.5718446
27	0x3f25f579	0.64827687
28	0x3ecd49d0	0.40095377
29	0x3f2ae37d	0.6675337
30	0xbefe5f80	-0.49682236
31	0x3f28ff7d	0.66014844
32	0xbf181bff	-0.5941772
33	0x3ecb81e9	0.3974755
34	0x3e908208	0.28224206
35	0x3e7689ff	0.24076079
36	0xbdceb1da	-0.10092516
37	0xbabd03e8	-0.001442072
38	0x3ebbdf18	0.36693645
39	0x3f1a87c8	0.60363436
40	0xbe044fc7	-0.12921058
41	0x3f25f98b	0.648339
42	0xbeb1dd21	-0.3473902
43	0x3f2b50c3	0.6692011
44	0xbeae610a	-0.3405841
45	0xbf243e89	-0.6415792
46	0x3e9b6b43	0.30355272
47	0x3f086056	0.53271997
48	0xbf1e5fe0	-0.61865044
49	0x3f26c719	0.6514755
50	0xbf291a44	-0.66055703
51	0xbea98792	-0.33111244
52	0xbe90dde3	-0.28294286
53	0x3c22c18f	0.009933843
54	0xbe0dbc67	-0.13841401
55	0x3ed9cfab	0.4254125
56	0xbe1fb32d	-0.15595694
57	0xbefeda30	-0.4977584
58	0x3e8a10f9	0.26966074
59	0xbe3b20d7	-0.18274246
60	0x3ed3296a	0.41242534
61	0xbef23616	-0.4730689
62	0x3f1d85d7	0.6153235
63	0x3e040f15	0.12896378

magnitude_mlp.2.weight f4 [64, 64]
0	0xbdb71c22	-0.08940913
1	0xbe0ca7b8	-0.13735855
2	0xbdb94f96	-0.09048383
3	0xbd949f03	-0.072568916
4	0x3ce3ca1d	0.027806336
5	0xbd09e81f	-0.033668634
6	0x3dd1f25c	0.102513045
7	0x3c83134e	0.016000416
8	0xbda19141	-0.07889033
9	0x3da8f0f7	0.082490854
10	0xbc9b4d0f	-0.018957643
11	0xbd582d82	-0.052777775
12	0xbd10cc96	-0.03535136
13	0x3d658eaa	0.05604426
14	0xbc887a1a	-0.016659785
15	0xbd45f5db	-0.04833017
16	0x3d2f14e2	0.042744525
17	0x3d905d68	0.07049066
18	0x3e1fc9f9	0.1560439
19	0xbd457716	-0.048209272
20	0xbca2fe88	-0.01989676
21	0x3d9eaafe	0.07747458
22	0xbe19b5fc	-0.15010828
23	0xbde32bae	-0.110923156
24	0x3dda7383	0.10666563
25	0x3d1a47a8	0.037665993
26	0xbc9623de	-0.01832765
27	0xbda44e01	-0.080226906
28	0xbddc7cb0	-0.1076597
29	0xbdb70b86	-0.08937745
30	0x3cbc51dc	0.022988252
31	0xbdf1832e	-0.11792599
32	0x3e0ebd4d	0.139394
33	0x3e0ad361	0.13557197
34	0x3bbac284	0.0056994576
35	0x3d0082a1	0.031374577
36	0xbc7509f4	-0.014955986
37	0x3dcd8852	0.10035767
38	0x3e0f63d3	0.14002924
39	0xbda7b8c9	-0.08189542
40	0xbbc5dc05	-0.0060381913
41	0xbd411210	-0.047136366
42	0xbe10a32f	-0.1412475
43	0xbd8f68da	-0.07002421
44	0xbd321707	-0.04347899
45	0xbda7d703	-0.08195307
46	0xbc1b7b68	-0.009489872
47	0xbe158431	-0.14601208
48	0x3dc39bb0	0.095511794
49	0xbc9748cd	-0.018467331
50	0x3d5c8a5a	0.05384288
51	0x3d52186d	0.051292825
52	0xbd1eb12f	-0.038743194
53	0xbc9cde53	-0.019148981
54	0xbc843440	-0.016138196
55	0x3d9265b4	0.071483046
56	0xbdf84860	-0.121231794
57	0xbd96d757	-0.073652916
58	0x3dbebe4d	0.09313641
59	0xbd554c5a	-0.052074768
60	0x3e1bc5c2	0.15212157
61	0xbda992bc	-0.082799405
62	0x3dc6757b	0.09690376
63	0xbdf22a09	-0.11824424
64	0xbcf413e7	-0.029794646
65	0xbd724be1	-0.059154395
66	0xbde0c2f5	-0.10974685
67	0xbe028149	-0.12744631
68	0x3ceea00f	0.029129056
69	0xbd2aab01	-0.04166699
70	0x3dbeeb96	0.09322278
71	0x3c735aba	0.014853174
72	0xbe10a425	-0.14125116
73	0x3de71087	0.11282449
74	0xbe1ff356	-0.15620169
75	0x3b04ceac	0.0020264788
76	0xbc0af528	-0.008481301
77	0xbd6cd0ed	-0.057816435
78	0xbdeb04c3	-0.114755176
79	0x3991a4d5	0.00027779365
80	0xbd4ee1ff	-0.050508495
81	0x3d16970f	0.036765154
82	0xbd63bff7	-0.055602994
83	0xbc34b9f5	-0.011030664
84	0x3d9f1ce0	0.07769179
85	0xbd6296f2	-0.055319734
86	0xbd335d66	-0.043790244
87	0x3cc9f9bb	0.024655214
88	0x3d5927a9	0.05301634
89	0x3d214461	0.03937185
90	0xbda6f7f4	-0.08152762
91	0xbd3db7b9	-0.04631779
92	0xbb05bd56	-0.0020407042
93	0xbdd3c625	-0.103405274
94	0x3d73de35	0.059538085
95	0x3b8da8a5	0.0043230825
96	0x3956a006	0.00020468244
97	0xbd221f78	-0.039580792
98	0x3d9c23a1	0.07623983
99	0x3d619ab3	0.055079173
100	0x3bedc5f8	0.0072562657
101	0x3dbad06b	0.09121784
102	0x3d24a845	0.040199537
103	0x3e01b5b9	0.12666978
104	0x3bd4f4e7	0.006498921
105	0x3c4a8d72	0.012362825
106	0x3dbec049	0.09314019
107	0x3e13e049	0.14441027
108	0x3d75a737	0.05997392
109	0xbd6c9c94	-0.057766512
110	0xbdbef86f	-0.09324729
111	0x3d014810	0.031562865
112	0xbd137a57	-0.036005344
113	0xbdeb325e	-0.11484216
114	0x3da46512	0.0802709
115	0xbd7af79d	-0.0612713
116	0x3dd1813a	0.10229726
117	0xbd08660f	-0.033300456
118	0x3d488b65	0.048961062
119	0x3d1a1753	0.0376199
120	0xbe127e66	-0.1430603
121	0x3df52a93	0.11971011
122	0xbc51921d	-0.012791184
123	0x3dcb578c	0.099288076
124	0x3d8b46c0	0.06800604
125	0x3ce204b4	0.027590133
126	0xbd5e0494	-0.054203585
127	0xbde60784	-0.11231902
128	0xbdb2541c	-0.08707449
129	0xbdf08103	-0.11743357
130	0x3c7d6f24	0.0154683925
131	0xbd418cca	-0.047253408
132	0xbc8fdb47	-0.017560614
133	0xbc9a2df3	-0.018820738
134	0xbd702faa	-0.058639206
135	0x3dc8809a	0.09790154
136	0x3ca07df6	0.019591313
137	0x3b1a922b	0.0023585658
138	0xbb6e2849	-0.003633993
139	0x3d5a5ee2	0.053313144
140	0xbd107837	-0.035270896
141	0xbd42b3d3	-0.047534775
142	0xbc8dc5be	-0.017306205
143	0x3dfd2bb9	0.12361855
144	0x3d2503fb	0.040287
145	0x3ca5ba2a	0.020230372
146	0x3c8c0e4b	0.01709666
147	0x3cf0f8b6	0.02941547
148	0xbd3bba0a	-0.045831718
149	0x3be1a824	0.006886499
150	0xbdde11fa	-0.108432725
151	0xbdcb56ad	-0.099286415
152	0xbd99f3ec	-0.075172275
153	0xbb21fefa	-0.0024718628
154	0x3db16adf	0.08662962
155	0xbd2ace8f	-0.041700896
156	0xbdfa7ea8	-0.12231189
157	0xbdd2e0f9	-0.102968164
158	0x3c8d0854	0.017215885
159	0x3cb36678	0.021899447
160	0xbcb3234c	-0.021867417
161	0xbdc1774c	-0.09446582
162	0x3c621108	0.013798006
163	0xbd63dae6	-0.05562868
164	0xbcd59da3	-0.026076144
165	0x3c6aaa0b	0.014322768
166	0xbd389966	-0.045068167
167	0x3c9b39e3	0.018948501
168	0x3aae2636	0.0013286534
169	0xbd68e5e2	-0.05685986
170	0x3d4aea13	0.049539637
171	0x3dfe41cb	0.12414893
172	0xbd28e471	-0.041233484
173	0xbd209f4f	-0.03921443
174	0x3dc3e214	0.09564605
175	0x3be24a3a	0.006905821
176	0x3c0bf67c	0.008542653
177	0x3c826e58	0.015921757
178	0xbc87d9cb	-0.016583344
179	0xbe08e584	-0.13368803
180	0xbd1fefec	-0.039047167
181	0x3d6eaae2	0.058268435
182	0xbd3b1a50	-0.04567939
183	0xbdbcc5ff	-0.09217452
184	0xbdcbf628	-0.0995906
185	0xbd512396	-0.051059328
186	0xbdba1d06	-0.09087567
187	0xbd530423	-0.051517617
188	0x3dfc8d16	0.123315975
189	0x3d854a91	0.06508363
190	0x3d8df620	0.0693171
191	0x3b607852	0.0034251404
192	0x3dbe842c	0.093025535
193	0xbc9ed6cc	-0.019389533
194	0xbdc90cf7	-0.09816926
195	0xbd8aa21e	-0.06769203
196	0xbdd98710	-0.10621464
197	0x3d901433	0.07035103
198	0x3d8cbac5	0.06871561
199	0x3c4ceae7	0.012507177
200	0x3ce41b5f	0.027845083
201	0x3dcfb66d	0.10142217
202	0xbcb1c380	-0.021699667
203	0xbe05615e	-0.13025424
204	0xbca79abc	-0.020459525
205	0xbd87d1ef	-0.066318385
206	0xbdcdeb22	-0.10054614
207	0xbcc31df3	-0.023817992
208	0x3c95ecea	0.018301446
209	0x3d724dd9	0.059156273
210	0x3e0a25d5	0.13490994
211	0xbddce3be	-0.10785626
212	0x3cda47dc	0.026645593
213	0x3dbe149e	0.09281276
214	0x3d2b74c3	0.0418594
215	0xbdd4d641	-0.10392428
216	0x3d9cf1e3	0.07663324
217	0x3bb087f5	0.005387301
218	0x3ce1416b	0.027497014
219	0xbe01237f	-0.12611197
220	0xbdc42bf9	-0.095786996
221	0xbcf4cd3b	-0.029883018
222	0x3d23d4a0	0.039997697
223	0xbe274ef1	-0.16338708
224	0x3e084378	0.13306987
225	0x3dcbbabe	0.099477276
226	0xbd58118c	-0.05275111
227	0xbd7312bc	-0.05934404
228	0x3d93a80c	0.07209787
229	0xbd8b4e57	-0.068020515
230	0x3d3bc61f	0.04584324
231	0x3d172b0d	0.03690629
232	0x3da76f4a	0.081755236
233	0xbb39e87d	-0.0028367334
234	0x3d9087ac	0.07057127
235	0x3db24b58	0.08705777
236	0x3da4728c	0.080296606
237	0xbc90e97d	-0.01768946
238	0x3ae6348c	0.0017563268
239	0x3d81906e	0.06326376
240	0x3d14b279	0.036303017
241	0xbde247c0	-0.110488415
242	0xbd595909	-0.053063426
243	0xbe1804a7	-0.14845525
244	0x3c9afaac	0.018918358
245	0xbde93e36	-0.11388819
246	0x3d3c834e	0.04602366
247	0xbcb6ddb7	-0.022322519
248	0xbd8ce671	-0.06879891
249	0xbd4332b3	-0.047655772
250	0xbd539dc3	-0.051664125
251	0x3dab0d0f	0.083521
252	0x3dbcb7f7	0.09214776
253	0x3a16a8a5	0.0005747176
254	0xbc7ad865	-0.015310382
255	0xbb87df0d	-0.004146463

magnitude_mlp.2.bias f4 [64]
0	0x3d866309	0.06561858
1	0xbd5d630e	-0.054049544
2	0xbdca60f0	-0.098817706
3	0xbd864a33	-0.06557121
4	0x3d208103	0.039185535
5	0x3d8ee91a	0.06978054
6	0xbdb4d687	-0.0882998
7	0x3c8b1f3e	0.01698267
8	0x3cd233c2	0.025659446
9	0xbd5a6abf	-0.053324457
10	0xbdba4737	-0.090956144
11	0xbc1a156c	-0.009404521
12	0x3d1fd3b1	0.039020244
13	0xbcd061a6	-0.025437187
14	0x3dcac84f	0.09901487
15	0xbd572b40	-0.05253148
16	0xbd9619bf	-0.073291294
17	0x3db2171f	0.08695816
18	0x3da9c0d9	0.08288736
19	0xbc49ed4f	-0.012324645
20	0xbccf0c2a	-0.025274355
21	0xbcbe6807	-0.023242963
22	0x3d76dcc7	0.060269143
23	0x3d6f704f	0.058456715
24	0x3d973199	0.07382507
25	0x3dd46803	0.10371401
26	0xbdeee083	-0.11663916
27	0xbc84ab0a	-0.016194839
28	0xbd8b566c	-0.06803593
29	0x3d869554	0.06571451
30	0x3daad419	0.08341236
31	0xbd087d1b	-0.033322435
32	0x3d483ee9	0.04888812
33	0x3db9a535	0.09064714
34	0x3dc6e313	0.0971128
35	0x3dc7a2e2	0.09747864
36	0xbdcbd337	-0.099523954
37	0x3d327078	0.04356429
38	0xbcbbb51d	-0.02291351
39	0xbda3d678	-0.07999891
40	0x3c1047ff	0.008806228
41	0x3db8fa17	0.09032076
42	0x3e09f8f3	0.13473873
43	0x3cbd99d9	0.02314465
44	0x3d6497db	0.055808883
45	0x3cf5e008	0.030014053
46	0xbda0826e	-0.078373775
47	0x3dcf9369	0.10135538
48	0x3d62d155	0.055375416
49	0xbd0891f4	-0.033342317
50	0x3cbe0de8	0.02319999
51	0x3d949e6b	0.07256778
52	0x3dc92445	0.09821371
53	0xbda20779	-0.079115815
54	0xbc8dbb4f	-0.01730123
55	0xbda66c22	-0.081260934
56	0xbd64346d	-0.05571406
57	0xbda2eb28	-0.07955009
58	0x3c360441	0.011109413
59	0xbd8e8d64	-0.06960562
60	0x3d19fb43	0.037593137
61	0xbcd5df1c	-0.026107363
62	0xbdf2db62	-0.1185825
63	0x3e121645	0.14266308

magnitude_mlp.4.weight f4 [1, 64]
0	0xbdf68c41	-0.1203847
1	0xbd0afed8	-0.033934444
2	0xbdb5cece	-0.088773355
3	0xbda69daf	-0.081355445
4	0x3d753c69	0.059872065
5	0xbdff82d1	-0.12476123
6	0x3d03e3a6	0.032199524
7	0x3ddaf5ad	0.1069139
8	0x3d9824ab	0.07428869
9	0xbd011842	-0.031517275
10	0xbd8edca0	-0.06975675
11	0xbd94ca88	-0.07265192
12	0x3db04f46	0.0860887
13	0x3e0f7e0e	0.1401293
14	0x3c869574	0.016428687
15	0x3c97eb1b	0.018544724
16	0xbdaffd6e	-0.0859326
17	0xbd21abf4	-0.039470628
18	0x3dd64fb4	0.10464421
19	0x3cb1c02f	0.021698086
20	0xbe060d05	-0.13090904
21	0x3da9b09d	0.082856394
22	0xbdfc0fe9	-0.12307722
23	0x3d022d92	0.03178174
24	0xbdfe513c	-0.12417838
25	0x3d9c2b94	0.07625499
26	0x3e181637	0.14852224
27	0xbd00c2da	-0.031435825
28	0xbdec612d	-0.11541972
29	0xbddb6ecc	-0.10714492
30	0x3e085ce5	0.13316686
31	0x3dde21d7	0.10846298
32	0x3d572270	0.052523077
33	0xbd04f1c7	-0.03245714
34	0xbd612963	-0.05497111
35	0x3d4ea286	0.050447963
36	0x3c5fe5f7	0.013665668
37	0x3dfcd6e7	0.12345677
38	0x3d188422	0.037235387
39	0xbd3631c6	-0.04448106
40	0xbe0c1b8b	-0.13682382
41	0x3e0b37bd	0.13595481
42	0xbd8d4723	-0.06898334
43	0xbdaf2f92	-0.08553995
44	0x3e06842c	0.13136357
45	0xbd44f823	-0.048088204
46	0x3dd01ba3	0.10161521
47	0x3da3e387	0.08002382
48	0x3d6a4d93	0.057202887
49	0xbd9fd13d	-0.07803581
50	0xbe0602a0	-0.13086939
51	0x3cfd6f53	0.030936873
52	0xbcb502cb	-0.022096058
53	0x3c74321e	0.014904527
54	0x3d619985	0.05507805
55	0x3d2bc7e0	0.041938663
56	0x3cf78b69	0.030217843
57	0x3e113ea7	0.14184056
58	0xbc8d9e11	-0.017287286
59	0xbc91e267	-0.017808152
60	0xbe0551fc	-0.13019556
61	0xbc6fe33d	-0.01464158
62	0x3d14535c	0.03621231
63	0xbe0d168b	-0.1377813
