results/checkpoints/mlp_baseline.pth (torch, 555667 bytes, 8 tensors)

net.0.weight f4 [256, 12]
00000000: 2810 043f eef9 023e b09e bc3d e3ad c2bc
00000010: 1085 3cbe 35c7 39be f057 ee3d 6ce3 213d
00000020: 37bf 173d e16f 04be 26f4 4b3d 76bc f73d
00000030: ab00 3ebc 62e7 093d 9b76 54be 6ab1 57be
00000040: 7409 26be e6ef 513d 460b 90bd 125d 613d
00000050: 2103 efbd 1de9 bc3e 7b60 293e 23db c7be
00000060: 5673 a93e 9add 59be 097d 3ebd b53f 80bd
00000070: bc63 ee3b 9d86 1bbe 1b3e 52be b76d 823e
00000080: 744b 5fbe fbc9 0c3d 7661 273e 79a4 003e
00000090: addc 5d3d d494 cfbe 4826 12be 5fa7 393c
000000a0: 9537 9b3e 633e 5cbe a826 fcbd 3405 69be
000000b0: eebf 7f3e e89a bbbd 8d7a 6dbe 3d4e 5a3e
000000c0: f280 19be d438 c2bd c136 803e 48d8 0a3d
000000d0: acd4 c43c 127f 87bd 02fd 083e 2828 efbd
000000e0: 3b77 edbd 0512 d93d 93bb 113e a0a2 f93d
000000f0: c879 7ebd e192 3d3e 339f 633e 4a0f 0dbe
00000100: b0a5 9d3c c75a 5cbe 61dc 46be f7f1 ba3e
00000110: 19f8 dd3c 7e16 a83c bf3a 363e 4eea a9bd
00000120: 4ff9 bbbd c4ef 0fbe 7edf aa3d 6383 533e
00000130: 1319 373d 385a 753a 25ad 6fbd f3e1 d13b
00000140: bdb8 8a3e 5183 afbc 29b0 9ebe 9f00 4b3e
00000150: 906c 413d 3e9f 4bbe 3dba 16be 123d 2cbe
00000160: a318 aa3d 26c4 dd3d 1c48 be3d bf32 6fbe
00000170: 8744 38be 26b6 d83d cef9 0ebe dafc 1a3e
00000180: b6ee 783e df01 0ebe f580 6c3d cc8b 4ebe
00000190: 1f1d 1c3e 8393 413e 6020 e73d 010d f4bd
000001a0: 75f1 34be 386e 8dbe 321f ce3e 6e65 09be
000001b0: 9919 713e 269c 2c3e fd04 55be bcd2 5c3e
000001c0: 0dac 3a3e 38d3 953c 991c 943d e470 9cbe
000001d0: ecb4 9a3d 5166 123e bd15 563e 4652 903d
000001e0: 36a5 063e c52f 243e ba65 b53d 74a1 cdbd
000001f0: 4038 80be 0573 a43d ce51 b93d 12b9 663e
00000200: efaf 7e3e 8418 9abe 6213 643e 02ce b03d
00000210: c729 583e 5e03 513d 0639 60be c5f2 72bd
00000220: 3fb8 96be c72a aebe 1a35 6a3e 123a e5bd
00000230: ed2c 0f3d c917 eabd 763d 4a3d 7ede 543e
00000240: cecb 37be ccd5 983d aa1f 16be 6fd7 663d
00000250: de73 c9bd fc2b 1bbc 344b 593d 4765 973e
00000260: dea5 753d e5df b4bd ef73 fcbc 04d4 833e
00000270: 8f53 52bd 2917 16be 9e4a 073e a62e 9c3c
00000280: ada7 1ebe 3f80 3bbe 2082 053e 8da7 313d
00000290: 51b7 8abe bdd3 233e dbe6 8a3e 5496 d43d
000002a0: cdab 463e 46c9 90be 873c 5dbe 0144 213e
000002b0: a49a 28be 5462 d3bb 3916 11be ef86 c03d
000002c0: e36c fdbc ce79 243e 42a5 aebd 3e57 89be
000002d0: fd71 2ebd 3b1b 253d cd02 ff3d 0d0a 65be
000002e0: 0805 063e c2d4 8c3e ec08 31be a676 dd3c
000002f0: 8287 863e 75fd c73d bc4b abbd e10f 853e
00000300: 1b81 f8bd 5839 50bd b819 a03e 4a13 803e
00000310: 92ce 36bd 9023 23be 1815 453e a058 463e
00000320: e9b4 a8bc 0c58 52bb 0339 d2bd c855 9b3a
00000330: 5b2d d23e 9771 823e d1e2 e13d 923e 153e
00000340: e02f 86be ee12 b8bc 89e2 613e da98 123e
00000350: 1deb 2cbe a70d c13e 88d1 d23d 2d9c 263d
00000360: 441d 403e a39d 36be 3bd0 fb3d b8b5 003d
00000370: 9767 413e bf96 acbd a107 90be 8eca 93be
00000380: 169e 14bc 673b 17be adc0 0f3d 131b fdbd
00000390: 61d7 fe3d 849c 943d ec9f debd ac5d ae3e
000003a0: 0b34 243e 45f6 4c3e 7f5f 49be 913c 4bbd
000003b0: a3a7 15be 147d 683e 80c1 41be f14f 0fbe
000003c0: 9678 2f3e 3cf3 123e 34f0 9dbe e0e3 963d
000003d0: 9795 bf3d 5d0b 19be d689 943d e10c 793c
000003e0: c99c a5be 5437 083e 85fe 14be 7247 9abe
000003f0: cd95 573c ebad 183e 2547 7cbe 95c9 81bd
0.5158715 0.12790653 0.09209955 -0.023764556 -0.18410134 -0.18142398 0.116378665 0.039523527
0.03704759 -0.12933303 0.049793385 0.12096493 -0.011596839 0.03366793 -0.2074837 -0.21063772
-0.16214544 0.051254176 -0.070334 0.0550204 -0.11670519 0.368966 0.1654071 -0.39034376
0.33095807 -0.2127594 -0.04650596 -0.06262151 0.007275073 -0.1518807 -0.20531504 0.2547433
-0.21806127 0.03437231 0.16345772 0.12562741 0.05416553 -0.40543234 -0.14272416 0.011331408
0.30315843 -0.21508174 -0.123120606 -0.22755891 0.24975559 -0.091604054 -0.2319128 0.21318908
-0.14990595 -0.09483495 0.25041774 0.033897668 0.024027191 -0.066160336 0.13377765 -0.11677581
-0.11595007 0.1059914 0.1423171 0.121892214 -0.06212786 0.18513061 0.22228698 -0.13775364
0.019244045 -0.21519004 -0.19420005 0.3651273 0.027095841 0.020518538 0.17795847 -0.08296643
-0.09178411 -0.14056307 0.08343409 0.20655589 0.044701647 0.0009359452 -0.058514733 0.006405109
0.2709407 -0.021424921 -0.30993775 0.19824456 0.047222674 -0.19884965 -0.14719482 -0.16820171
0.0830548 0.10828428 0.092910975 -0.23359202 -0.17994891 0.10581617 -0.1396248 0.15135518
0.24309811 -0.13867901 0.05774017 -0.20170516 0.15245484 0.18903928 0.11285472 -0.11916543
-0.17670234 -0.27623153 0.40258175 -0.13417599 0.23544921 0.16856441 -0.20802684 0.21564764
0.18229695 0.018289194 0.07232017 -0.3055488 0.07554039 0.14296843 0.2090673 0.070469424
0.1314896 0.16033848 0.088572934 -0.1004056 -0.25042915 0.08029751 0.09048806 0.22531536
0.24871801 -0.3009683 0.22273019 0.08633043 0.21109687 0.0510286 -0.21896753 -0.059313554
-0.29437444 -0.34017012 0.22871819 -0.11192717 0.034954954 -0.11430318 0.04937502 0.20787999
-0.17948839 0.074626535 -0.14660516 0.056357797 -0.09836553 -0.009470936 0.053050235 0.29569456
0.059972636 -0.08831767 -0.030817 0.25747693 -0.05134922 -0.14657272 0.13212058 0.019065212
-0.1549365 -0.18310641 0.1303792 0.04337268 -0.27092984 0.1599874 0.27129254 0.10380235
0.19401474 -0.2827856 -0.2160512 0.15748598 -0.1646524 -0.0064509306 -0.14168634 0.094007365
-0.03093571 0.1606209 -0.08527614 -0.26824373 -0.042589176 0.040309172 0.12451706 -0.22367115
0.13087857 0.2750607 -0.1728856 0.027034115 0.2627526 0.0976514 -0.083640546 0.25988677
-0.12134 -0.050835937 0.31269622 0.25014716 -0.044630595 -0.15931535 0.19246328 0.19369745
-0.020594077 -0.0032095937 -0.1026478 0.0011851126 0.41050228 0.25477287 0.1102959 0.1457465
-0.262084 -0.022469964 0.22059073 0.1431612 -0.16886564 0.37705728 0.10293871 0.040676285
0.18761164 -0.17833571 0.12295576 0.0314233 0.18887173 -0.0842719 -0.2813082 -0.28865474
-0.009070894 -0.14768754 0.03509586 -0.123586796 0.12443424 0.072564155 -0.108703464 0.3405584
0.16035478 0.2001582 -0.19665335 -0.049618308 -0.1461473 0.22703964 -0.1892147 -0.13995339
0.17135844 0.14350599 -0.30847323 0.073676825 0.09354704 -0.14945741 0.072528526 0.0152008245
-0.3234618 0.13302356 -0.14550216 -0.30132633 0.013158274 0.14910094 -0.24636514 -0.06337277

net.0.bias f4 [256]
00000000: e286 d3be 677d d6bc d954 823d 96a2 3dbe
00000010: d34d 383e 6513 e2bd 188c e93b dfa0 2c3e
00000020: 6344 2f3e a695 3bbe d603 133d 3173 913c
00000030: 8cac f1bd afb4 bebd 11df c63d e98b c9bd
00000040: 3a8a cbbe 3f84 94be 5145 323d b319 aebd
00000050: e4b4 883e d613 2a3e 7923 acbe e75b d6be
00000060: 0876 bfbe 9d41 c5be 0027 86bb ba0d 8abe
00000070: 24f2 b23e 2b7e b2be ef8b 933e e647 93be
00000080: 40f3 94be ea45 32be dc03 e63e 9901 46be
00000090: 5993 81be bf7b 653e 31bb 7fbe 27b5 393e
000000a0: 2fbe 673e 8f11 b8be 57b7 37be df20 14bd
000000b0: 5c86 823d 03f1 b63e 67aa c1bd 3a8f 86be
000000c0: b725 05be b777 1fba 2899 10be 9bbf dabe
000000d0: bf00 44be 9f21 3fbe 877b 9cbe 4ac2 0ebd
000000e0: 8e88 35be fe99 43be 6566 98be 7949 9c3e
000000f0: 2992 f03d 9a27 cebe d830 543d 8a07 a8be
00000100: 7482 a7be 237d 983e 09f6 283e c4e2 06be
00000110: 1d81 1a3e 9e06 57bd 1ca0 b9be d9d6 91be
00000120: adbf dcbe ba02 00bf f5da 4c3c f5c2 043e
00000130: 2011 d3be 89d4 573d a046 e1be a091 123e
00000140: c580 46be 3aef abbe 3405 1c3e 1923 96be
00000150: 9393 46be 3669 71be a7ff b6be f136 d5bd
00000160: 1675 18bd 3558 59ba 1d04 bcbd 912c c2be
00000170: 9dba a4be 93f9 bcbe 594a 8ebe 6b67 a8be
00000180: 9f88 24be 1347 0ebf 5ea1 83be 920a 8fbe
00000190: c613 ba3e b3d1 fdbe c395 91bd ebf4 6e3e
000001a0: 9e13 9e3d 4fb5 fdbc 6892 70be 0472 a9bd
000001b0: e27c a8be 5a2d a9be 4b99 13bf 51a6 5bbe
000001c0: d2b6 533d 5171 dabe 9c1b de3d bd27 633e
000001d0: a813 e6be daa2 54bd 8dea 243e 6afa 013d
000001e0: b356 a5be dc4a b6be ef11 90be 87bd 013e
000001f0: 799c 5ebe 7c7e c1bd 5957 2b3e c0eb d9be
00000200: c1b8 303e 9253 c63d 122d 683c 6503 d6be
00000210: e095 8c3d 415e 92be 1a3c bdbe 7c93 1abd
00000220: ce6c 8e3d 6a74 4a3e c4d7 913c 787b a23e
00000230: 7d5f c7bd 03e6 c7be a755 bfbd 3bac 353e
00000240: 33e1 a9be 88f7 333c 3d89 90be 7433 9abe
00000250: 2da6 a33e cd0e 96be 1019 30be c2da 6a3e
00000260: 6a99 00be 36dd 5bbd d3dc 4abe aea3 1dbe
00000270: 3614 5f3e 7229 96be 3dcd 69be a9a8 c3be
00000280: 8dca a8be d69e 8d3d 422b 01be c576 6f3e
00000290: 50df 453e dd7b dabe 4d17 6b3e bbec 0a3e
000002a0: eb3f 10be 8f62 16ba d843 bbbe b277 62bc
000002b0: ac75 fabe 8031 9dbe 3399 77bd 4d98 29be
000002c0: 9079 4abe 3cb9 483e 9e7d 4dbe e484 173e
000002d0: d45d 38be 75fd 763d 9574 66bc e7ad b53e
000002e0: dc57 523d da37 f0be 8f08 d13d 8ee5 efbd
000002f0: 5400 a0be ef69 7bbe 5626 a2bd 89f0 bebc
00000300: 2bde 0ebd 4e00 d6be d8c0 f43d dff0 95bd
00000310: f951 103e 042f 9f3e cc01 133e 8f66 be3c
00000320: 862e c5be eeb5 8fbe 26de 4fbe ca07 6ebe
00000330: 5d01 b8be 59be e4bd 51b6 c43d 3d61 09be
00000340: 96b8 333e b3eb 123c cb17 7bbe b488 23be
00000350: fc8f 8abe 7a2f 71bd c8ed 04be 8f85 77be
00000360: ed29 7cbe c38f eb3d 2fa6 48be ec20 bcbd
00000370: 930e 873e 7edb e9bb 0b20 ae3d 83f3 eebe
00000380: 5767 99be e5f1 3bbe a559 8bbe 6f37 163c
00000390: c826 bc3d d748 f13d e904 24be 0b80 963e
000003a0: 218f af3d d7f5 91be 1093 15be ead7 053e
000003b0: b9c3 5bbe b83d c3be 4e91 37be 1964 1f3e
000003c0: 6d6c 663e 1e1b 77be 3605 5fbe 3aa0 cbbe
000003d0: 9644 dbbe 5b05 92be 67d8 91bd 42b8 e13d
000003e0: d93a 22be 835b cebe 317b bebe 9174 9dbd
000003f0: 2f39 8cbe 72db 57be bd67 90be c029 eb3d
-0.41313845 -0.026182843 0.0636384 -0.18519053 0.17998438 -0.110388555 0.007127296 0.16858242
0.17115931 -0.18318805 0.03589233 0.017755123 -0.11800489 -0.093118064 0.09710515 -0.09841139
-0.39753896 -0.29007146 0.043523137 -0.085009955 0.2670051 0.1660913 -0.33620813 -0.4186699
-0.37394738 -0.3852662 -0.0040940046 -0.26963598 0.34950364 -0.34861884 0.28817698 -0.28765792
-0.29091835 -0.17409483 0.4492482 -0.19336547 -0.2530773 0.22410487 -0.24973752 0.1813551
0.22631143 -0.35950896 -0.17941032 -0.03616416 0.06373283 0.35730752 -0.0945633 -0.26281148
-0.13002668 -0.00060832076 -0.14120924 -0.42724308 -0.1914091 -0.18665169 -0.30562994 -0.034853257
-0.17727873 -0.19101712 -0.2976562 0.30524805 0.11746628 -0.4026459 0.051804394 -0.32818252
-0.32716715 0.29782972 0.16500105 -0.13172442 0.15088315 -0.052496545 -0.36254966 -0.28484228
-0.43114987 -0.5000416 0.012503375 0.12964995 -0.41224003 0.052692924 -0.43999195 0.14313364
-0.19385059 -0.33580953 0.1523636 -0.29323652 -0.19392233 -0.23575291 -0.35741922 -0.1041087
-0.037221037 -0.0008291037 -0.09180472 -0.37924626 -0.32173625 -0.3690916 -0.27791098 -0.32891402
-0.16067742 -0.555772 -0.2570905 -0.27937752 0.3634321 -0.4957405 -0.07108643 0.23335616
0.077185854 -0.030970244 -0.2349335 -0.082737 -0.32907778 -0.33042413 -0.5765578 -0.21450163
0.051688023 -0.4266458 0.1084511 0.22183128 -0.44936872 -0.05191312 0.16105099 0.031732954
-0.3229271 -0.35603988 -0.28138682 0.12669955 -0.21739377 -0.09447953 0.16732539 -0.42562675
0.17257978 0.096839085 0.014170902 -0.41799465 0.06864524 -0.28587535 -0.36959916 -0.03773831
0.069543466 0.19770971 0.01780308 0.31734824 -0.0973501 -0.39042673 -0.09342509 0.17741482
-0.33179626 0.010984309 -0.28229704 -0.3011738 0.3196272 -0.29308167 -0.1719706 0.22935012
-0.12558523 -0.05367776 -0.198108 -0.1539447 0.21785054 -0.29328495 -0.22832198 -0.38214615
-0.32967034 0.06915061 -0.12614158 0.2338515 0.19323468 -0.42672625 0.22958107 0.13566868
-0.14086883 -0.0005736732 -0.36575198 -0.013822483 -0.48917902 -0.30701828 -0.060448837 -0.16562004
-0.19772935 0.19601911 -0.2006745 0.14796788 -0.18004543 0.06030031 -0.014065881 0.3548424
0.05135332 -0.4691761 0.102067105 -0.11713706 -0.3125025 -0.24552129 -0.07917468 -0.023308055
-0.034879845 -0.41797107 0.119508445 -0.07321333 0.1409377 0.31090558 0.14356154 0.023242263
-0.38512057 -0.2806849 -0.20299587 -0.23245159 -0.3593854 -0.111691184 0.096050866 -0.13416
0.17550883 0.008967328 -0.24520795 -0.15970117 -0.27062976 -0.058883168 -0.12981331 -0.24172042
-0.24625368 0.1150203 -0.19594644 -0.09185967 0.26378307 -0.007136761 0.085022055 -0.4667016
-0.29961655 -0.18353994 -0.2721683 0.00916849 0.091870844 0.11781471 -0.16017498 0.29394564
0.085722215 -0.28507873 -0.14606881 0.13070646 -0.21461381 -0.38133025 -0.17926523 0.15565528
0.22502299 -0.24131438 -0.21779332 -0.3977068 -0.42825764 -0.2851971 -0.071213536 0.110214725
-0.15842761 -0.40304193 -0.37203363 -0.07688249 -0.27387378 -0.21079805 -0.28204146 0.114825726

net.2.weight f4 [256, 256]
00000000: 795e 6fbd 9435 593d ba12 b5bb c3b9 2e3d
00000010: 22fa 573c ef1a 1dbd e2da 1bbe 4774 153d
00000020: 098b 1bbc fa0c 53bd d85b e2bc 8f4e eabd
00000030: d184 2fbd 2b43 fcbc 836c 14be b08b b63c
00000040: a91e 0bbe d24b 0a3d fd31 b2bd 2c73 ddbe
00000050: a69e 84be 3ad4 8d3d 694b a63d af35 4dbc
00000060: 1d13 af3d e65a b83d 4d31 53bd 9d44 3fbe
00000070: 2c8b 32bc 1736 103e e438 2abd b430 b13c
00000080: 16d2 323d 3acd fdbe 116b 0ebe e6df e73c
00000090: 644e 723d 5ba0 863d d820 44be 8106 08be
000000a0: a597 883d 8065 55bd 57a9 1b3e 29c1 b0bd
000000b0: bc1f 553d 213b a4bd cdb3 883d d038 4f3d
000000c0: f5f2 f7bc d67f 3fba f885 7ebd 2523 093e
000000d0: 7537 1ebe 7834 803d ba1d bebd ecf0 84bc
000000e0: e1d0 133e bbe9 773d 04cf 333d af98 39bd
000000f0: 265e 18be 4480 5abd 8f8f 06be 9814 ea3c
00000100: c133 1abc 7dd5 1abe 95d4 803d c53f abbd
00000110: cc22 fcbd 8a25 49be 707c 203d 3a81 f7bd
00000120: 1e61 f83b 869b 0b3e 15c9 adbd 7cd3 e0bd
00000130: 9477 643e 4421 313c 75c7 b53d 2f6a 303d
00000140: f043 a13d ff92 43be 763c 2dbe 65ee 21be
00000150: ebd1 73bd 5204 ff3d 8d06 0c3e 0059 d8bd
00000160: f057 053e b9c2 9b3b 6032 a4bb 6627 0d3e
00000170: edcc 09be 5933 77bd c8bd 22bd 74b9 9abb
00000180: 88a2 ed3d 7549 e0bd 32cd 85be abe9 043d
00000190: 13ad 4ebc 6bb4 8e3d bcfe 6ebb 81b2 f3bd
000001a0: 3b46 e43c 5d0c 223e 050f dfbc be9a 913d
000001b0: ac3e 18be f071 30bc e953 da3d 1736 883d
000001c0: a915 a4bd fddc 6d3d a55c dbbd b7b5 80bc
000001d0: c7ec e43b 94f4 97bd 52aa 0fbe 56c6 db3d
000001e0: 267a abbb 09f8 7f3d 440c f0bd 8a87 84bb
000001f0: d8c5 a3be 4d3f abbc 4fc3 e4be beb0 c43b
00000200: dbe7 9abe 1f8f 8b3d de57 7bbc f1ef 83bd
00000210: 4874 bdbd 79b7 ce3d 268b dc3d 7a80 40bb
00000220: f117 093e 6791 85be d534 87bc 94a2 d0bc
00000230: 277c 36bc 2fdd 493e 9256 6abe 80c5 e6bc
00000240: d930 0abe 7bbd 87bd 27ab 2c3c 929c b2bc
00000250: 0bb9 9cbd b51a c6be b1c5 0eba ff28 79be
00000260: f56d e43c 2bd3 793d 0b68 0cbd 9a4a 89bc
00000270: aac1 c13c 7ec3 95be 2c62 f73c cc9b b3bd
00000280: 8876 c73d 4247 e7bd 82a9 e13d 3b85 173d
00000290: 2131 bf3c 3a20 a43d 6a6a 9fbd 6612 e93c
000002a0: 487c 2f3d a5d3 2ebd b133 1bbd 37ff 7fbd
000002b0: ca13 743e bc2a 85be 9959 5fbd 8508 a0bc
000002c0: 0d26 edbb 6677 c3bd 4ee6 77bd 2cb7 573d
000002d0: f72b 2d3d 0ad7 993d e09a b4bc a3b6 bd3d
000002e0: 36d7 51be fc3d 80be 10ab 12be 7aed fbbd
000002f0: 932a c13d 31c1 12bc c570 773d fcf1 e6bb
00000300: efc1 9bbd 0e41 983c 3368 30bd 24ee 85bd
00000310: 60d1 82be f0da 39be e322 9b3c ed1a adbd
00000320: bf09 14bb 52e1 433d 4ea0 8dbd da8b e83d
00000330: 20ec 85bd 8025 f2bb c6c7 eabd 6e8d 943b
00000340: 0df8 5cbd 9ce8 503d 28cf 88be ee94 b2bc
00000350: 0949 843d 1d72 9dbd f06f d63d c3e6 50bd
00000360: fcd4 1e3c afa8 18bc 3991 093d 5c80 c63c
00000370: 4978 06bb b1e4 6fbe 101c a53c fc58 62be
00000380: db7f 00be dc4e 353d d067 c9be 8d20 91be
00000390: ae10 173d 19f6 8e3c 3179 183e 298d a3bd
000003a0: c328 bebd f30e d7bc ce63 363e c6bb 83bd
000003b0: 5365 aabd 1193 0f3e 878f 98bb 4428 a7bd
000003c0: d052 27be 0440 883c 8c74 9e3c e568 c33b
000003d0: 2ea5 573d a2dc 58be 2c32 e63c 03e7 31bc
000003e0: 6398 a8bd 9bdc ef3d 8ce1 35bd e2e7 263c
000003f0: 9fc0 c9bc 0380 213e 25c6 323c 9558 d83d
-0.058439706 0.05302961 -0.005525914 0.042657625 0.013182195 -0.038355764 -0.15220216 0.036487844
-0.009493598 -0.051526047 -0.027631685 -0.11440765 -0.042851273 -0.030793747 -0.14494519 0.022283405
-0.13585915 0.033763714 -0.08700941 -0.43251932 -0.2590229 0.06925245 0.08119852 -0.012525006
0.085485674 0.090017125 -0.05156069 -0.18678518 -0.010897439 0.14083134 -0.04155816 0.021629669
0.043657385 -0.49570638 -0.1390803 0.028305005 0.05915679 0.06573554 -0.19153154 -0.13283731
0.06669549 -0.05209875 0.15201317 -0.086305924 0.052032217 -0.080190904 0.06674919 0.05059129
-0.030267218 -0.0007305121 -0.06213948 0.13392313 -0.15450843 0.062600076 -0.09283014 -0.016228162
0.1443515 0.060525637 0.043898597 -0.045311626 -0.14879665 -0.05334498 -0.13140701 0.028574273
-0.009411753 -0.15120502 0.06290547 -0.083617724 -0.123113245 -0.19643226 0.039181173 -0.12085195
0.0075799366 0.13633546 -0.08485619 -0.109778374 0.2231124 0.010811154 0.08875934 0.043070015
0.07874286 -0.19099043 -0.16917595 -0.15813597 -0.059526365 0.12451996 0.13674374 -0.105638504
0.13021827 0.0047534374 -0.005010888 0.1378456 -0.13457079 -0.060351703 -0.03973177 -0.0047218148
0.11603266 -0.10951511 -0.26133114 0.032449406 -0.012614506 0.06968006 -0.0036467751 -0.11899281
0.02786552 0.15825029 -0.027228842 0.07109593 -0.14867657 -0.010769352 0.10660536 0.06650942
-0.08011944 0.05807208 -0.1071103 -0.015711648 0.006986234 -0.074196965 -0.14029816 0.10731189
-0.005233067 0.062492404 -0.117210895 -0.004044478 -0.3198688 -0.020904208 -0.4468026 0.0060025146
-0.30255017 0.068144076 -0.015340773 -0.064422496 -0.092506945 0.100935884 0.10768728 -0.0029373453
0.13388039 -0.26087496 -0.016504684 -0.025468148 -0.011137999 0.19713281 -0.22884586 -0.028170347
-0.13495196 -0.066279374 0.010538853 -0.021803174 -0.07652482 -0.3869225 -0.00054463284 -0.24332045
0.027884463 0.0609924 -0.03427891 -0.016759206 0.023651917 -0.2925071 0.03019818 -0.0876995
0.09739405 -0.11292888 0.11018659 0.036992293 0.023338856 0.08013959 -0.07783969 0.028451156
0.042843133 -0.04268231 -0.037891094 -0.06249925 0.23835674 -0.26009166 -0.054528806 -0.019535312
-0.007237202 -0.09544258 -0.06052237 0.05266492 0.042278256 0.075117186 -0.022046506 0.09263351
-0.20492253 -0.2504729 -0.14323068 -0.123011544 0.094319485 -0.008957193 0.06041028 -0.0070478898
-0.07605349 0.018585708 -0.043068122 -0.06539562 -0.25550365 -0.18149924 0.018937534 -0.08452401
-0.0022588817 0.047822304 -0.06915341 0.113547996 -0.06539178 -0.0073897243 -0.11463885 0.0045334613
-0.053947497 0.051003084 -0.26720548 -0.02179953 0.06459243 -0.07687781 0.10470569 -0.05100132
0.009694334 -0.009317561 0.03358576 0.024231128 -0.0020518473 -0.23427083 0.020154983 -0.22104257
-0.12548773 0.04426466 -0.39337015 -0.28345147 0.03688114 0.017451333 0.14889981 -0.079859085
-0.092851184 -0.026252246 0.1781151 -0.06432299 -0.08320107 0.14020945 -0.0046557817 -0.08161977
-0.16340184 0.016632088 0.019342683 0.005963432 0.052647762 -0.21177915 0.028100096 -0.0108583
-0.082321905 0.11711999 -0.04440455 0.010187121 -0.024627982 0.15771489 0.010911499 0.10563771

net.2.bias f4 [256]
00000000: 4c1d debd e2b0 20bd 60e2 76bc 91e8 5ebd
00000010: e051 e8bd 5413 863b 5473 21bd fb0a 7f3b
00000020: 545b a33c b405 29be 497f 4b3d 4fa0 16be
00000030: 8684 4fbd cb06 7f3d 1a81 fcbd 5ac3 adbd
00000040: d3c6 62bd 8540 91bc e809 fabc b01e 40be
00000050: 0bff 25bd 712b e93b 0344 84bd 1b27 d2bd
00000060: 6a5c 883d 93dc 83bc 7f8d 1dbc bef2 a8bc
00000070: b23d 1ebe f29d e03b ceed 6dbd c1e0 9abd
00000080: d072 5fbe 0a06 b9bd 97bc 98bc 9763 5a3d
00000090: 008f 903a ece0 41bd 6661 fd3c 23b6 1abd
000000a0: 5aba b9bd 3476 a6bd e4d1 84bd 75ac 7cbd
000000b0: d387 923d dad5 b3bd 1924 3a3d 10bd 753d
000000c0: ecb7 463b 3180 4abd 9e0d cc3a 1154 163d
000000d0: d3ad 54bd 6aab 13bd f1bc 33be 0c51 90bd
000000e0: 6b78 d8bc 0bda 64be 700f 8c3c bed2 18be
000000f0: 91b7 613b 8420 913d 3bc5 30bc 3c13 c0bd
00000100: d326 70be c501 f43b 665c 28bd b647 22be
00000110: aaf5 b2bc 882c a2bd de7b bb3b cea9 54bd
00000120: 78ac bcbd 1bb2 85bc 6b83 e93c 0871 dfbd
00000130: 2b41 b73d 6655 cab9 997b e53b 2b06 21be
00000140: 60a4 01be 0bce c6bc 6687 ec3d a43b a63d
00000150: d163 babb 1c7c 04bc 4b3f 19be 7753 b63d
00000160: b100 51bd 44ed a23d 3fb0 f8bd 2f84 92bd
00000170: 9f26 0abe 2a63 39be 79f2 21be 2840 e5bb
00000180: 2792 cebd a23b 40be 6d1d 423b 4965 e53b
00000190: 8632 cabd 499c cabd 6ae2 cfbd a13e 2bbd
000001a0: ad41 95bd c11d 4bbe 256d 8c3d 3d14 c4bd
000001b0: 00ac 77bc ff73 8a3c 0294 a83c 2544 43bd
000001c0: c6e0 3a3c bf5e 90bc 9fe8 fbbc eb7f 803c
000001d0: e55e c8bd 1e7f 503b 50a4 b1b8 5c40 213b
000001e0: 7d66 153d 8dec 8cbd a2ab 913a 3a75 17be
000001f0: ec7d a03c 56e6 45bd bb51 3b3d 7bf0 42bd
00000200: c47b 8c3c 1082 9b3d e402 1cbe aa3e acbd
00000210: 198c 8dbd ecfe 08bd 5dc7 0ebd f4be 453d
00000220: ba06 1c3d 189c 4abe bf1b 6e3d 284c 133d
00000230: 460f 43be 87c6 2dbe a7d5 10be 1577 8abd
00000240: b831 dbbd 57ab 1fbd 9289 083c 5d65 9fbd
00000250: 2a83 4d3d 68e4 143c da77 25be 3993 0dbd
00000260: dfca 43bd d458 e73c 031d be3a 21d7 0b3d
00000270: f67a e83c 59f6 53be bb4d b93d a865 c0bd
00000280: 67fc d53d f2bc c0bd b8e6 f4bd 0ee0 02bc
00000290: 79ec ba3b 75c6 d7bd 5aed 06bd b405 b9bd
000002a0: c154 5abd 4501 37bc 8f21 8739 b1cf d3ba
000002b0: 698d adbd 2325 dabd 3a57 03bd 2230 dcbd
000002c0: d517 85bd 99ee 2c3d 9d98 8dbd 8dcc 16bc
000002d0: bf83 0dbe d094 c6bd 52a4 f2bc 5bf1 9ebd
000002e0: 7ec8 3ebd 8d53 013c bfe8 c4bd d60f 09be
000002f0: 1fd8 413b 5af6 04bd 213c 32be 649d 08bd
00000300: 9480 bbbc 0792 68bd df5e 9dbd e806 b4bd
00000310: 6992 2fbd 662a 2bbe c837 37bd fbf9 75bd
00000320: 2d7e adbd c65a fabd 281d f2bc 6445 6bbd
00000330: a67d 743c b6d6 e4bd 592e 42be c2ba 30bd
00000340: d8e7 a4bc d558 70bd c046 75bd 3490 20be
00000350: 7ae5 54be a6b2 dbbd 728f 5cbc d8d7 2ebe
00000360: c172 ddbd 121b a3bd b83f 563d afd4 87bc
00000370: df8b 11bd 80d0 05be eecd fdbd a8a6 48bd
00000380: 9019 73bd 13e4 9dbd 4f14 bcbb 3206 023d
00000390: 5182 ad3b 55ee 2cbe 0737 31bd ba20 913c
000003a0: 637f c2bd 6473 cdbc 8cea fabd 3252 9ebd
000003b0: fc91 013c c3f5 923c 9ed6 36be 01ef a8bd
000003c0: edc0 e3bd 6174 5abd 9b27 2bbc a952 2dbd
000003d0: bbc5 c73d 5d8c e1bd c389 b4bd 2314 4cbb
000003e0: 9fba 84bc 5f95 14be 8f2f c03c d872 d3bc
000003f0: 034f 3bbd 9167 28be cf1f d3bd a099 4bbc
-0.10845432 -0.03923119 -0.01506862 -0.05442101 -0.113437414 0.0040916596 -0.039416626 0.0038916457
0.01994101 -0.16506082 0.049681935 -0.1470959 -0.050663494 0.062262338 -0.12329312 -0.08484526
-0.055365395 -0.01773096 -0.030522302 -0.18761706 -0.04052643 0.0071157743 -0.06458285 -0.10261365
0.066582516 -0.016096389 -0.009616255 -0.020623561 -0.15453222 0.006854766 -0.058088116 -0.075624
-0.21821141 -0.09034355 -0.018644614 0.053317633 0.0011028945 -0.047333643 0.030930232 -0.037771355
-0.09068747 -0.08128014 -0.06485346 -0.061687905 0.07154813 -0.08781023 0.04544458 0.059994757
0.0030322028 -0.04943866 0.0015568023 0.036701266 -0.051923584 -0.036052145 -0.17552544 -0.070467085
-0.026424607 -0.22348802 0.017097205 -0.14924142 0.003444169 0.0708628 -0.010789211 -0.09378669
-0.2345231 0.0074465 -0.041103743 -0.15847668 -0.021845657 -0.0791865 0.005721553 -0.05191975
-0.09212583 -0.016320279 0.028505048 -0.10910231 0.08947977 -0.0003859207 0.0070032594 -0.15725009
-0.1266036 -0.02426817 0.11549263 0.08116844 -0.0056881686 -0.008086231 -0.1496555 0.089026384
-0.05102605 0.07955411 -0.12142991 -0.07154118 -0.13491295 -0.18104234 -0.15815152 -0.0069961734
-0.1008647 -0.18772748 0.002961959 0.0070005995 -0.09872918 -0.0989309 -0.10150607 -0.041807774
-0.07287917 -0.19835569 0.06856755 -0.09574173 -0.015116692 0.016901014 0.020578388 -0.04767241
0.011406129 -0.017623303 -0.03075057 0.015685996 -0.09783725 0.003181405 -8.470623e-05 0.0024605012
0.036474694 -0.06881056 0.0011113773 -0.14790812 0.019591294 -0.04831537 0.04573224 -0.04759262
0.01714886 0.07593167 -0.15235478 -0.0841039 -0.06911487 -0.033446237 -0.034858096 0.04827781
0.038092352 -0.19786108 0.05813193 0.0359613 -0.19048795 -0.16970263 -0.14144002 -0.06760994
-0.107028425 -0.03898176 0.008333581 -0.077830054 0.050173916 0.009087659 -0.16159001 -0.03456423
-0.047800895 0.028240599 0.0014504496 0.03414071 0.028378945 -0.20699443 0.09048029 -0.093943894
0.104485326 -0.094110385 -0.119580686 -0.007987989 0.0057044593 -0.105358995 -0.0329412 -0.09034291
-0.053303484 -0.011169736 0.0002577421 -0.0016159919 -0.084742375 -0.106516145 -0.032065608 -0.10751368
-0.06498686 0.042219732 -0.06913874 -0.009204042 -0.13819788 -0.096963525 -0.02961937 -0.07760879
-0.046577923 0.007893455 -0.09614705 -0.13384947 0.002957828 -0.0324615 -0.1740575 -0.033353224
-0.02288846 -0.056779888 -0.07684111 -0.0879038 -0.042864237 -0.16715392 -0.04473093 -0.060052853
-0.08471332 -0.12224345 -0.029554918 -0.057439223 0.014922535 -0.11173765 -0.18962993 -0.043146856
-0.020130083 -0.058678467 -0.059881926 -0.15680009 -0.20790663 -0.10727434 -0.013461934 -0.17074525
-0.10812903 -0.079641476 0.05230686 -0.016580908 -0.035533782 -0.13067818 -0.123927936 -0.04898706
-0.05935055 -0.07709517 -0.0057397257 0.03174419 0.005295076 -0.16887791 -0.04326537 0.0177158
-0.09496953 -0.025079437 -0.122517675 -0.07730521 0.007908341 0.017939454 -0.17855307 -0.082487114
-0.11120782 -0.053333644 -0.010446454 -0.04231516 0.09754511 -0.110131 -0.088153385 -0.0031139932
-0.01620227 -0.14510106 0.023460178 -0.025811598 -0.04572965 -0.16445757 -0.103088014 -0.012426764

net.4.weight f4 [256, 256]
00000000: 1c19 c63d 1880 b33d 43ac a43b 831f 203d
00000010: f636 44bd 8b80 10be 9dea 603d 6e9e 173b
00000020: 6514 1dbd f568 6abd baa6 04be f9e1 c13d
00000030: a6cd 34bd 2d95 623c 28d4 fd3a 0bac 273e
00000040: 76d1 57bd c9aa 30bd 5af6 dd3d cb7b d6bd
00000050: c7f0 84bd d298 533d abdc 6b3d 4079 9f3d
00000060: 165d 09be 7adb 0b3d cc0e 95ba eb4b d4bc
00000070: 06c1 4abe d86b 06bd c890 813c 8c13 8f3d
00000080: e352 513d c9f5 84bd a695 dcbd a3e0 0abd
00000090: f4c5 983d 85b3 b1bd 7094 633d b263 b6bd
000000a0: ed59 dfbb ef18 283e 4a79 a0bd bf5a b13d
000000b0: 3ebe f13c b2ef a8bc 5d2e 2f3d 88bc ccbd
000000c0: ad88 0e3c cd70 3dbd ba94 37bc 72ad 26bd
000000d0: f0cd 82bd f9e1 fbbc b6b8 ac3e 5be5 45bd
000000e0: f33a f5bd 0f46 e53e ef28 86bd 8e2c 4c3e
000000f0: 0dfc 69bd 38ff f93c 7a9e 943c 4405 893c
00000100: 0857 ffbd d82c b13d c162 333c ca47 a53d
00000110: 17e8 1c3d 1b9d b93c d0bf 7fbc 73e9 a9bd
00000120: cab7 65bd b90b dbbc 93f7 8abd d2b0 313e
00000130: 0afb b4bd dad4 4b3c 2da3 cbbd 98c0 a13d
00000140: b8aa 02bd 59ae 66bd d45f 12be 37e6 81bc
00000150: 2640 52bc 8c11 893b 2696 3f3d 8079 103d
00000160: 6cd9 0a3c 4c3b c13d 59e5 bc3e f4a2 933b
00000170: f92f af3d 29ec aa3d 425f 943e 821b 653d
00000180: cd13 96bd 0fa9 6e3e bfcb 9ebd bea5 b8bd
00000190: ae72 0c3d c5a0 0abd 0425 193d e131 aa3d
000001a0: bc8f 863d 08d4 223e 7bf7 39bd 744e 1a3d
000001b0: 6d4e d0bd c1b1 fe3b 67e3 f93d 96cc 2a3d
000001c0: 9487 11be 539d 233e a775 86bc 1028 e5bc
000001d0: 1e28 e0bd d0a4 a83d a488 1d3c f894 c2bc
000001e0: 0095 dbbc 08f7 e93c ad72 9fbb c854 aa3d
000001f0: f4ca 3dbc 8d11 113d 3dcd a33d 37d4 d53d
00000200: dcd0 c5bb a346 79be e5f3 38be b851 a53e
00000210: f4fc 04bd f61b 1dbd e20a f7bb c7c0 d1bd
00000220: bada 04bd 8e58 3bbc 60a7 d83d fd85 f5bd
00000230: bc73 0ebe 4b13 51be fb5b 0d3e 9790 e83c
00000240: 19b5 bfbc 1e2e 82bb 6330 d0bc 5933 a5bd
00000250: c8e4 23bd b895 963c 72b5 003e b308 fa3c
00000260: 2c9f 22bd 7721 c63c cc35 8e3d 6758 a5bd
00000270: 9f2c 1cbe e851 8f3e 60e5 2fbc 6d40 0fbc
00000280: f568 b4bd 3c2f 2abe 05e2 683b b255 0fbd
00000290: 78fa aa3c 5976 1f3b a8a8 673c 05c9 c13d
000002a0: 2055 2a3d ef10 323a 5551 f3bc 3792 b33d
000002b0: 7fc7 1f3e 2445 923d e7be 533e 3762 993c
000002c0: 6256 9a3d e3a5 e83b c565 7d3d ab2f 2bbc
000002d0: 457c 11be 0402 323c 503f 113d 4df0 c33b
000002e0: 3ce7 bb3d d25d ae3c dcbe 96be 50d8 9dbd
000002f0: 8860 813d ac75 583c 1ceb 20bd 587c bc3c
00000300: 5857 ab3d e070 183e a5e8 aabd 37b8 b4bc
00000310: 2dce b33d 76f0 dfbd 4632 0e3d ed6f 5abb
00000320: 6b22 65bd c6bf ae3c 9e08 e1bd 7269 81be
00000330: c616 54bd af02 293d a569 b73e 1918 eebd
00000340: 0c0d 853d 3f2c 18bd 1443 0b3d 82b4 303e
00000350: 5db1 60be 8efc c1bc 9100 a33d e2df 9abc
00000360: 606a d9bd 9346 99bc ef13 0a3e a286 3d3d
00000370: e586 febc 455c b63d 2c25 ae3c 6b82 6f3d
00000380: 642e b9bd ca56 2ebc 9039 983d b983 a83d
00000390: e66d e23c adbc 693d 640d b9bd aa3d b0bd
000003a0: 7e9a 59bc fe42 813c 0da9 553c c3f4 b6bd
000003b0: de6b 853d a43c 373d 346b 143e 29e1 33be
000003c0: 2003 3cbe 3400 a4bc 16cd f9bd e7a4 a03c
000003d0: 67ac 0d3e 902a debd c232 ff3c e00e d3bd
000003e0: 2c5e 6d3d a3f2 27bd c715 1cbd 4b3b af3c
000003f0: 4a54 9e3d 12b6 a0bc 1ac8 97bd 7bbe c33d
0.09672758 0.08764666 0.005025418 0.039092552 -0.047903977 -0.14111535 0.054911245 0.0023135203
-0.038349528 -0.057229 -0.12954226 0.09466929 -0.044141434 0.013829512 0.0019365596 0.16374223
-0.052689992 -0.043131623 0.108380035 -0.104728304 -0.06491237 0.051659413 0.057583492 0.077867985
-0.13414416 0.034144856 -0.0011372208 -0.025915107 -0.19800195 -0.03281769 0.015816107 0.0698615
0.051104438 -0.06492192 -0.10770731 -0.033905637 0.074596316 -0.08676819 0.055561483 -0.08905734
-0.00681614 0.16415761 -0.07835634 0.086598866 0.02950966 -0.020622108 0.042768825 -0.09996897
0.008699578 -0.046250153 -0.011204893 -0.040692754 -0.06386936 -0.0307474 0.33734673 -0.048314434
-0.11974134 0.44780013 -0.06550776 0.19938871 -0.05712514 0.030517206 0.018141974 0.016726144
-0.12467772 0.086511314 0.010948838 0.08070333 0.038307276 0.022657922 -0.0156096965 -0.0829648
-0.056083478 -0.026738988 -0.06785502 0.17352608 -0.088369444 0.0124408845 -0.09943233 0.078980625
-0.03190109 -0.056318615 -0.14294368 -0.015856845 -0.012832677 0.004183 0.046774052 0.03527212
0.008474689 0.09435138 0.36893728 0.0045055095 0.08554072 0.08345825 0.28978926 0.055934437
-0.073279954 0.23306678 -0.07753705 -0.09015988 0.034289055 -0.033844728 0.037388816 0.08310295
0.06570384 0.15901196 -0.04540203 0.037672475 -0.101712085 0.0077726548 0.12201577 0.041699015
-0.14211875 0.15977983 -0.016413523 -0.027973205 -0.10945152 0.082345605 0.009615097 -0.023752674
-0.026804447 0.028560176 -0.0048659653 0.08316952 -0.011584032 0.03541713 0.079981305 0.104408674
-0.006036861 -0.24343352 -0.18061788 0.3228891 -0.032467797 -0.038356744 -0.007539139 -0.102418475
-0.032435156 -0.011434687 0.10578799 -0.11988447 -0.13911337 -0.20417516 0.13804619 0.028389258
-0.023401784 -0.0039727828 -0.025413698 -0.080664344 -0.040013105 0.018381938 0.12569216 0.030521726
-0.03970258 0.02418588 0.06943855 -0.08073502 -0.15251397 0.27992177 -0.01073584 -0.008743388
-0.088090815 -0.16619581 0.0035535109 -0.034993835 0.020871386 0.0024332015 0.014139332 0.094621696
0.041585088 0.00067926844 -0.029701868 0.08768123 0.15603445 0.07142094 0.20678292 0.01872359
0.075360075 0.0070998534 0.061864633 -0.010448377 -0.14207561 0.010864738 0.03546077 0.005979574
0.09174964 0.021284971 -0.2944249 -0.07707274 0.0631724 0.013211649 -0.039286718 0.02300851
0.08366269 0.14886808 -0.08345155 -0.022060497 0.08779559 -0.10934536 0.034715913 -0.0033330873
-0.055941027 0.02133168 -0.10987972 -0.2527576 -0.05177953 0.041262325 0.35822788 -0.1162569
0.06496629 -0.03715157 0.033999518 0.17256358 -0.21942659 -0.023679998 0.079590924 -0.018905584
-0.106159925 -0.01871041 0.13484167 0.046270974 -0.031070182 0.08904318 0.02125796 0.058473986
-0.090420514 -0.010640809 0.07432854 0.08228249 0.027640294 0.0570647 -0.09035757 -0.086055115
-0.013281463 0.015779015 0.013040793 -0.08933403 0.06514715 0.044735566 0.1449402 -0.1756636
-0.18360567 -0.020019628 -0.1219732 0.019609882 0.13835298 -0.10847962 0.031152133 -0.103055716
0.057951137 -0.04100288 -0.038106706 0.021390578 0.077309206 -0.019618068 -0.07411213 0.09557816

net.4.bias f4 [256]
00000000: e273 a1bc bdf7 953d d089 9c3c f9f1 e9bc
00000010: 27b5 223d 924a 4c3d 53d7 973d 5cdb d2bd
00000020: 4955 3d3d 7359 b1bd c64b a03d b6b3 07be
00000030: 5b90 ac3d 4bd0 8a3c 5cc6 a43d 7257 93bd
00000040: 5b1a b93d 2c0d a2bd 7202 2bbe 5bec b53c
00000050: c566 84bc d6f2 0a3c 1fd5 37be 4573 f3bd
00000060: 1ec8 d83a 56a0 12bd 0125 223c d9ab 1ebd
00000070: c19b 423d aa65 74be 6cb9 dbbd 058b 003d
00000080: d46a 3dbe f842 53bd 6c39 67bd 2c30 203d
00000090: 57d0 11be ed35 dbbd c21e c53c 8565 c3bd
000000a0: d5f6 8dbd a468 0bbe c332 b9bd bc56 a6bc
000000b0: ebc2 c5bd 04f7 c9bb c159 dabd 4a06 96bd
000000c0: 8dfd b3bd c704 b33c a8fd 29be 9ccd fbbb
000000d0: 68aa 913c 32dd 0fbe 16a9 1fbb 8b2e 0dbd
000000e0: ae20 4dbe 3ec6 19be 48af bbbd 1d44 14be
000000f0: 0f76 9ebb 483d 81bd ed55 373c c509 0dbe
00000100: e16b 88bd 97c1 aabd 3c2e b83b e620 c13d
00000110: 604c c73c afb3 50be bde3 1dbd ff80 c6bc
00000120: 68fd 46be 2676 cfbc 9de7 303b 5b4b 3abd
00000130: 9da3 5ebd 7e4d 38be f840 bb3b 68be d3bd
00000140: 9258 2abe 527a ff3c 7a7b 4abd a4e6 003e
00000150: 2f9a 2dbd f84e 47bd d810 86bc 28ee 50bc
00000160: 6ca4 dc3d ebff 53ba 6be7 6fbd ade8 34be
00000170: ff57 91bd b129 1ebe 24ac bebd c913 343c
00000180: e62a 17be e2ce 1fbd 5ba1 953d c84d 6fbc
00000190: eec0 f4bd 6a65 063d 1481 9e3c 3a98 20bd
000001a0: 632d 7d3c c09b 633c 4002 edbd 8d4b 19be
000001b0: 0661 073d dc74 26be 0d1d c0bd d18e 05bd
000001c0: 8a29 d5bc 625c 80bd 3fa8 ebbc 7453 633d
000001d0: f1be 98bd 4173 6bbd a550 56bd b66a 3cbd
000001e0: 3f80 0cbb f181 0e3d 2f0a 133d 3eac 32bd
000001f0: 4aab a8bd 5f8c 45bd 0dbc 2f3d e5fb e13d
00000200: 7791 7abb 55f6 f63b 0bed edbd cf7e 95bd
00000210: de1b 573d 70e7 423d 34ed d2bd 21c1 e1bd
00000220: dc84 f0bc 5446 a0bd c568 a1bd ca65 fc3c
00000230: 4863 d8bc 72ab 5abd a5b7 9fbc e3f0 ae3d
00000240: cf8e 33bd f9df 903d d6a8 98bb 86f4 9ebd
00000250: 32ec e3bc 6339 583c 1735 c53c 32d0 133d
00000260: 1f74 2c3c ecd4 cfbd 68e0 8f3c f8e3 b6bb
00000270: 5ac2 35bc 04bc 12be b08b 8f3d 0473 1bbd
00000280: b4f3 4b3d dc19 67bd be20 02be e13b 72bd
00000290: a060 a83d 6ac9 0e3c 37ee bb3d 95b1 853c
000002a0: 1c53 923a 8851 14bd 38e6 ebbd 6d59 61be
000002b0: a3f2 4abd 7110 bfbc 65d4 b1bd cc22 edbd
000002c0: 2f96 a7bd b889 cd3d e4b1 a4bd 5e05 413d
000002d0: 3f22 cbbd d0f8 a83d 9154 75be 1a61 6dbd
000002e0: 77a8 90bd 82ec acbb 0cf1 6dbd d196 b03d
000002f0: 02f8 303d 4fbd 36bd 9ad1 f2bc 66ae 20be
00000300: 6efa 99bd 2e6c 39be 87ec ccbc 3fae 033b
00000310: bd06 25bd 3f07 58be dfa5 32bd c24b 253d
00000320: c4eb 5c3d 4ff7 233d e88a c5bd 1a4a 083e
00000330: 4a03 eabd 25b1 08bd 53b9 23bc adc6 8c3c
00000340: 010d 3aba 2492 f6bc a1e0 0abe 527a 53bd
00000350: 2b83 b8bd 5bdb b5bc 8fe2 8dbd ed85 4fbe
00000360: 7411 e6bc 1d72 15bd 41da acbd c1ad 11be
00000370: 449d fdbc 1201 c5bd e0bf a43d 43cc b3bd
00000380: 3bd1 31bd 0e7e 453d 8f99 6b3d eae3 463b
00000390: 9d67 d2bd 51f0 1d3e 7e0a 05bd d883 41bd
000003a0: 9043 f1bc fd6c 70bd adfb 89bc 141e 9ebd
000003b0: cee7 e83c 093a 9abc 22e9 cd3c 046d b53d
000003c0: 6d1e 1fbd d0d9 69bd 13c6 51be 4838 c9bd
000003d0: fc5b 1c3d ae1e 47bd e65d 863d 33ac 08be
000003e0: 0af6 0dbe 2e4b c83b 5d85 72be e3d7 f9bd
000003f0: 859b ae3d 8356 f5bd f708 c13c 510a 90bd
-0.019708578 0.07322643 0.019108683 -0.028557764 0.03972354 0.049875803 0.07414117 -0.10295746
0.046223912 -0.08659639 0.07826953 -0.13252148 0.08425971 0.016945025 0.080456465 -0.07194413
0.0903823 -0.079126686 -0.16700152 0.02220743 -0.016162286 0.008480748 -0.17952393 -0.1188722
0.0016539132 -0.03579744 0.009896518 -0.038738105 0.04751182 -0.23866907 -0.10728726 0.03138258
-0.18497783 -0.05157754 -0.056451246 0.03910844 -0.14239632 -0.10703645 0.024062518 -0.09540848
-0.06931845 -0.13614136 -0.09042885 -0.02030503 -0.09656318 -0.0061634798 -0.106616504 -0.07325418
-0.08788595 0.021852864 -0.16600668 -0.0076844227 0.017781451 -0.14049223 -0.0024362258 -0.034468215
-0.20031998 -0.1501703 -0.091642916 -0.14479108 -0.004835851 -0.063105166 0.01118992 -0.13773258
-0.06661201 -0.083377056 0.005620746 0.09430103 0.02432841 -0.20381044 -0.038547266 -0.024231432
-0.19432604 -0.025324892 0.002699352 -0.04548202 -0.054355253 -0.17998311 0.005714532 -0.103390515
-0.1663535 0.031186257 -0.049434163 0.12587982 -0.04238337 -0.048659295 -0.016365454 -0.012752093
0.107735485 -0.0008087146 -0.058570307 -0.17666884 -0.07096862 -0.15445592 -0.09310177 0.010991045
-0.14762458 -0.03901566 0.07306167 -0.014605947 -0.11950861 0.03281156 0.019348659 -0.039207675
0.015452716 0.013892114 -0.11572695 -0.14970227 0.033051513 -0.16255516 -0.09380541 -0.032606903
-0.026020784 -0.062676206 -0.02876675 0.05549951 -0.07458294 -0.05748296 -0.052323002 -0.046000205
-0.0021438745 0.03479189 0.035898384 -0.043621294 -0.08235796 -0.04822957 0.04290395 0.11034373
-0.0038233676 0.0075366893 -0.11617478 -0.072995774 0.05251681 0.047583997 -0.10299149 -0.110231645
-0.029360227 -0.07825914 -0.07881311 0.030810256 -0.026414528 -0.05338616 -0.019496748 0.08542039
-0.043837365 0.070739694 -0.0046587987 -0.07761483 -0.027822588 0.013197276 0.024073167 0.036087222
0.010525732 -0.101480335 0.01756306 -0.005581375 -0.0110937 -0.14329535 0.07009065 -0.037951484
0.04979296 -0.056421146 -0.12707803 -0.059139136 0.08221555 0.008715013 0.09176295 0.01632003
0.0011163685 -0.036210567 -0.1151852 -0.2200677 -0.049547803 -0.02332327 -0.08683089 -0.115789026
-0.08182942 0.100360334 -0.080417424 0.04712426 -0.09918641 0.08250582 -0.23958041 -0.05795393
-0.07063382 -0.0052772174 -0.05809121 0.08622516 0.04320527 -0.044614132 -0.029640961 -0.15691528
-0.07518469 -0.18107674 -0.025015129 0.0020092872 -0.04028963 -0.21096514 -0.04361522 0.04035545
0.05393578 0.040030774 -0.09645635 0.13309518 -0.114264086 -0.033372063 -0.009992915 0.01718458
-0.00070972746 -0.030098982 -0.13562252 -0.051630326 -0.09009393 -0.022199323 -0.06927978 -0.20265932
-0.028084494 -0.03648578 -0.08440066 -0.14226438 -0.03095878 -0.09619345 0.0804441 -0.08779194
-0.04341243 0.04821592 0.05751949 0.003034825 -0.10273669 0.15423705 -0.03248071 -0.047244877
-0.029451162 -0.05869769 -0.016843641 -0.07720581 0.028430846 -0.018826501 0.02513558 0.08858684
-0.038847376 -0.057092488 -0.20485716 -0.09825188 0.03817366 -0.048613243 0.065608785 -0.13346939
-0.13863388 0.0061124777 -0.23683687 -0.1219938 0.08525757 -0.119793914 0.023563845 -0.07033218

net.6.weight f4 [12, 256]
00000000: 014a 0d3e 1263 b23d e95c 463e a5b4 9c3d
00000010: 8ff0 663c f4f3 1dbd 8e6e 133d 73e4 03be
00000020: 1912 f8bd 78a1 9cbd 6f29 3c3e 4b06 46bd
00000030: d4fd 87bd c068 5a3c 95d6 bbbe c4ad 0cbe
00000040: 8494 433d 7234 71bd 0a50 a1bc 1079 fcbd
00000050: c80c d43d edf4 fdbd d224 363d 0258 bdbd
00000060: 433f 0b3e 299a c23d 2630 2abc e960 a43d
00000070: cab1 b93d ca12 57bc e605 ee3c 9f05 45bd
00000080: d60a 483d 8bf5 ba3c da10 8cbb b282 fabd
00000090: f230 263c 436f 8ebd c467 bbbd b607 c3bd
000000a0: eb2e d63c ee0f ce3c f552 683c 9ccd 483d
000000b0: c78c 1f3c 9772 743d 386d 18be 592b 5abd
000000c0: 0597 753d 89c9 ddbd 1aea 1f3d 5821 a5bd
000000d0: 06fd b13c d524 91bc b6fd c9bd a12d 92bd
000000e0: 7e16 c93d 8eb6 1b3c 768e 9bbc f450 5d3c
000000f0: afe1 eebd 5879 08be 6be8 9d3d 010d 833d
00000100: f41d bebd 1ded 5fbc 837e 0a3e 645e df3d
00000110: c2c4 e73c 7d21 29bd a5b4 f6bd 66b3 26be
00000120: 7a05 fbbc e3a3 223d ae6b 6f3e b383 4a3e
00000130: 586e 843c 5df5 063e e410 a33c 858b 1cbe
00000140: f06f bebc 4db3 79be 9514 19be 4980 4b3d
00000150: 3eef debd 5140 c03d 7f8a aebd 19dc 673c
00000160: 87ee 32be 11a3 513e 8232 81bc 4d4f 53bc
00000170: 13a4 6ebd bf11 093d ab9b 7f3c 6c92 f0bc
00000180: 9a44 373d b0ec cebd ca14 e4bd e77f 993d
00000190: 4e8e 9f3c 93af 423d 3545 af3d d9f2 41bd
000001a0: cb31 3ebe dbd8 91bd 5b61 72bd b11f 0e3c
000001b0: f9f4 713c 4f38 67bd ea02 e93b 05bd 673d
000001c0: ab99 f7bd 3be2 81bd 4212 253d 3bcd 8bbd
000001d0: 3269 223d 910c 223e 693b 723d 8b94 92bb
000001e0: c97f fcbd 8daa fb3d a4e0 08bd 5abd ff3d
000001f0: 44c1 3538 0b45 e1bc d440 15be c12d 773d
00000200: 75b3 093e 071b 4b3d 6f7d 6f3d 0626 cdbc
00000210: 3592 48be 77d0 003e 047c dabc 7e4d b73b
00000220: 74a9 fbbd b67b 8c3d 611e aabd bc47 b73d
00000230: 62fc 8cbb 107c b03c f8f7 70bd 2f23 9fbd
00000240: fd06 69bc 7663 5dbe dfa9 073e 5527 6c3d
00000250: e3a1 12be eab3 0b3e e652 3dbe fd93 0cbe
00000260: ad1d 3fbd 6c82 ea3c 5636 d63d 8b79 8cbd
00000270: df8a 153d b115 81bd 0059 89be 624f 2b3e
00000280: 8154 4e3e b925 a2bc ab18 21bc e0bb 943d
00000290: 821d 583e c45a 113e 9a74 3f3e faa8 1dbe
000002a0: c30b 4bbe 9f34 e9bc 3648 553c 036a 773d
000002b0: c5ac 10be 2fff 683d 4e72 e1bd 12f5 3b3b
000002c0: bbed cf3d ba98 28bd 2026 2a3c daf9 debd
000002d0: 918f 39bc c5ad 60bd 4539 5b3d 0556 3b3e
000002e0: 79e8 cf3c 96ef 4e3d 9094 5c3c fcdd a3bd
000002f0: d4d0 503d 6f3b d0bd ca67 edbb b9f6 c93c
00000300: d7fe 09ba 80f7 8c3b ca98 d8bc 130c dcbc
00000310: 3058 513d 6e86 08bd 9377 543d 859b 3dbe
00000320: dcee 49be 2788 673c 526c ea3c 1918 a63e
00000330: dd92 9abc c928 02bc 50fc ae3b dd97 f8bc
00000340: 23c5 a3bd c4aa aabd bb63 82bb 857b 243d
00000350: bf44 173d 6bbd 9abd c107 a93d 3c4a 4abc
00000360: 0a21 583d 5413 a9bc ad30 9a3c e758 b53c
00000370: 68c8 25be fa34 ccbc f5c4 463e 2c19 693d
00000380: b7b4 0c3e f5f2 b33d 89bb 34bd a597 633d
00000390: a4b6 2b3d 8937 723e 5c54 14bd 7522 3ebe
000003a0: 87eb 54bd 594d 7c3b d5c8 7cbd e661 013e
000003b0: 7ec8 643d b07c f23d 14b4 f63d 86a8 3cbe
000003c0: 3a45 d03c 3114 e3bc 3e1b dfbd c0a1 013d
000003d0: 5487 bb3d 0979 0f3d 54c5 ad3d 4c95 12bd
000003e0: 4dd8 2dbc 823f 373e 1954 15bd d127 81bc
000003f0: c042 23bd 3436 e8bc a0ba 1e3e 4849 5f3c
0.13797761 0.087103024 0.1937138 0.07651643 0.01409544 -0.03856273 0.035994105 -0.12880115
-0.12112827 -0.07647985 0.1837518 -0.048345845 -0.06640211 0.013330638 -0.3668715 -0.13738161
0.047749057 -0.058887906 -0.019691486 -0.12327778 0.10354 -0.124002315 0.04446871 -0.09245302
0.13598351 0.0950206 -0.010387456 0.08026297 0.09067114 -0.013127038 0.029055547 -0.048101064
0.04883846 0.022822162 -0.00427447 -0.122319594 0.010143505 -0.06954815 -0.09150651 -0.09522955
0.02614542 0.02515408 0.014179935 0.04902421 0.009738154 0.059679594 -0.14885414 -0.053263996
0.059958477 -0.108294554 0.039041616 -0.080630004 0.021727096 -0.017717758 -0.09862845 -0.07137609
0.09818743 0.009503974 -0.01898883 0.01350807 -0.116641395 -0.13327539 0.07710346 0.06398965
-0.09283057 -0.013667372 0.13524823 0.109066755 0.028292064 -0.041291703 -0.12046174 -0.16279373
-0.03064226 0.039707076 0.2338092 0.19776802 0.016165897 0.13179536 0.019905515 -0.15287597
-0.023246735 -0.24384804 -0.14949258 0.04968289 -0.108854756 0.093872674 -0.0852251 0.014151596
-0.17473803 0.20472361 -0.015771154 -0.012897325 -0.058261942 0.03346419 0.015601079 -0.029366694
0.044743158 -0.10103738 -0.11136778 0.074950986 0.019477036 0.047530722 0.08558122 -0.04735074
-0.18573682 -0.0712144 -0.059174877 0.008674548 0.014767879 -0.056450184 0.007110943 0.056576747
-0.12089857 -0.06341978 0.040300615 -0.06826254 0.039651103 0.15825106 0.05913869 -0.004473274
-0.123290606 0.12288389 -0.03341736 0.12487288 4.3333755e-05 -0.027498743 -0.14575511 0.06034637
0.13447364 0.049586322 0.058469232 -0.025042545 -0.19587024 0.12579523 -0.026670463 0.0055939546
-0.1228818 0.068595335 -0.083065756 0.08949229 -0.0043025473 0.021543533 -0.05883023 -0.077703826
-0.014222858 -0.21619973 0.13248394 0.057654697 -0.14319567 0.1364285 -0.18488654 -0.13728328
-0.04665916 0.028626643 0.104595825 -0.0685912 0.03650939 -0.063029654 -0.26825714 0.16729501
0.20149423 -0.019793378 -0.009832541 0.07262397 0.21105006 0.1419478 0.18696824 -0.1539649
-0.19828705 -0.028467475 0.013017705 0.060403835 -0.14128406 0.056883987 -0.1100813 0.002868001
0.10152765 -0.041161276 0.010385066 -0.10887499 -0.011325733 -0.05485322 0.053521413 0.18294533
0.025379406 0.050521456 0.013463154 -0.080013245 0.050980404 -0.10167586 -0.0072450386 0.02465378
-0.00052641093 0.0043019652 -0.026440043 -0.026861226 0.051109493 -0.033331327 0.051871847 -0.18516357
-0.19720024 0.014131582 0.028616104 0.3244026 -0.018868858 -0.007944294 0.0053401366 -0.030345852
-0.07996585 -0.08333352 -0.003979174 0.04015686 0.036930796 -0.0755566 0.08253432 -0.0123468
0.052765884 -0.0206391 0.018822039 0.022137119 -0.1618973 -0.024927605 0.1941107 0.05690877
0.13740812 0.08786575 -0.04412416 0.05556454 0.041922227 0.23653997 -0.036213264 -0.18567832
-0.05198243 0.0038498251 -0.061714966 0.12635002 0.055855267 0.118401885 0.12046066 -0.18423662
0.025423635 -0.027719589 -0.10893868 0.031648397 0.09156671 0.035027537 0.08484903 -0.03578691
-0.010610652 0.1789532 -0.036457155 -0.015766056 -0.03985858 -0.028346159 0.1550088 0.013628311

net.6.bias f4 [12]
00000000: 5c70 1c3d a56e d6bc 5f43 29bd cd8c 49bd
00000010: 0057 663d 0fe7 2d3d bf5a 18b9 6561 1abd
00000020: 649b 4b3d 23f3 393c 6d9e 29bd adc5 e9bc
0.03819309 -0.026175806 -0.041324016 -0.049206544 0.056235313 0.042456683 -0.00014529655 -0.03769054
0.04970874 0.011349472 -0.041410852 -0.028536642
