results/checkpoints/normal_impulse.pth (torch, 26965 bytes, 14 tensors)

gate_mlp.0.weight f4 [64, 1]
0.5093392 0.7601257 0.6846534 0.8558974 -0.62419146 5.7580415e-05 0.3460447 -1.3098
-1.2644824 0.8589314 -0.0339195 0.8945142 -0.45386985 -1.0505291 0.2820282 0.25629547
-0.6301757 0.81314576 0.108143285 0.28761154 -0.13165464 0.14219579 0.7382749 0.8434194
0.031036427 0.81672454 0.15595385 0.9266812 -0.5643149 -1.1931472 -1.025765 -0.6066178
0.35653076 0.4059202 -0.45519894 0.82014024 -0.9809001 -1.1590348 -0.23787995 0.57745814
-0.8822903 -0.48613775 -0.9223802 0.15262853 -0.9983648 1.18671005e-05 3.183321e-05 -2.1594438e-05
-0.06272144 -0.077909656 -0.70661175 9.193369e-06 0.20213328 0.323429 -0.44939342 0.6711382
0.45731434 0.7049072 0.741484 -0.6831165 0.21856992 0.01643284 0.26496333 0.19537148
00000000: 0e64 023f 9997 423f 7245 2f3f 181c 5b3f
00000010: 03cb 1fbf 8082 7138 c52c b13e 87a7 a7bf
00000020: 8fda a1bf eee2 5b3f 2cef 0abd e2fe 643f
00000030: a161 e8be bd77 86bf 0066 903e 2939 833e
00000040: 3253 21bf 522a 503f 3a7a dd3d d241 933e
00000050: 79d0 06be c69b 113e 95ff 3c3f 55ea 573f
00000060: 1b40 fe3c dc14 513f 5eb2 1f3e fb3a 6d3f
00000070: f176 10bf 0cb9 98bf 444c 83bf 4e4b 1bbf
00000080: 338b b63e c6d4 cf3e d60f e9be b6f4 513f
00000090: 451c 7bbf 415b 94bf cd96 73be 4cd4 133f
000000a0: c7dd 61bf 0ce7 f8be 1c21 6cbf a74a 1c3e
000000b0: d694 7fbf cf18 4737 a684 0538 b425 b5b7
000000c0: 1974 80bd 198f 9fbd 82e4 34bf 383d 1a37
000000d0: 07fc 4e3e 7c98 a53e e516 e6be b7cf 2b3f
000000e0: 1b25 ea3e cc74 343f e5d1 3d3f b9e0 2ebf
000000f0: cbd0 5f3e 2a9e 863c 46a9 873e 760f 483e

gate_mlp.0.bias f4 [64]
-1.0085152 -0.3692223 -0.8522639 -0.113675065 0.44390544 0.00015920853 -0.9028714 0.7708668
-1.2019007 0.1359369 0.35890394 0.45360485 -1.0163854 0.42772692 -0.03537438 -0.060233694
0.28045395 0.90654874 0.21578874 0.7594738 0.4528669 -0.637146 -1.0137473 0.83825094
0.7498629 -0.983 -0.9091344 -0.5339422 0.306643 0.63813835 0.6533083 0.6101121
0.76214105 0.894503 -0.75992966 0.50989276 -1.1608963 0.51540583 -0.75739104 -0.8094708
-0.39091766 0.65011173 0.41925234 0.0053783027 -0.09282465 1.0951347e-05 0.00050922827 -1.7376797e-05
0.2502383 -1.0521271 0.29579982 8.090173e-06 -0.27425218 0.22710757 -0.56583077 -0.28783125
0.05543887 -0.015421953 0.7571767 0.35872534 0.47186297 0.63831353 -0.18994038 -0.07332343
00000000: 0717 81bf b50a bdbe f82d 5abf 79ce e8bd
00000010: 9347 e33e 37f1 2639 9422 67bf 8757 453f
00000020: e2d7 99bf 0b33 0b3e 42c2 b73e e53e e83e
00000030: eb18 82bf 06ff da3e bae4 10bd 9bb7 76bd
00000040: a997 8f3e 9413 683f b9f7 5c3e e06c 423f
00000050: 2cde e73e 001c 23bf 79c2 81bf 9d97 563f
00000060: 04f7 3f3f e3a5 7bbf 08bd 68bf 70b0 08bf
00000070: 5000 9d3e 095d 233f 363f 273f 4e30 1c3f
00000080: ad1b 433f 26fe 643f c08a 42bf 5588 023f
00000090: 4098 94bf a3f1 033f 61e4 41bf 7a39 4fbf
000000a0: 5c26 c8be b96d 263f 3ea8 d63e 793c b03b
000000b0: da1a bebd adbb 3737 bb7d 053a 63c4 91b7
000000c0: 3c1f 803e 1aac 86bf 1373 973e 07bb 0737
000000d0: c86a 8cbe e38e 683e 49da 10bf 9e5e 93be
000000e0: de13 633d 5cac 7cbc 55d6 413f d9aa b73e
000000f0: 0698 f13e 8468 233f bb7f 42be 982a 96bd

gate_mlp.2.weight f4 [1, 64]
-0.08511426 0.036081877 0.039995246 -0.038529202 0.013197975 -5.893985e-05 -0.026612412 0.64910746
-0.12596278 0.08058618 0.08482999 -0.09594939 -0.059416756 0.21954328 -0.045609187 0.053656805
0.14485028 -0.09591335 0.04787347 0.057795126 0.008798205 0.041245755 0.018030427 -0.061395157
0.02858606 0.03832595 -0.13256152 0.040743083 0.005001302 0.54251397 0.34071308 0.06500606
0.06123421 0.08245648 -0.106124006 -0.023524312 -0.15589967 0.29515362 -0.14615498 0.10463427
0.022569705 0.0083020115 0.2318133 0.08945132 0.13473399 -8.833926e-06 9.442583e-05 1.7632643e-05
0.01068553 -0.09398389 0.14196882 -6.7946407e-06 -0.0009732227 0.030335432 0.0658726 0.018059146
-0.08631712 -0.05641006 0.025517808 0.009913171 0.0008956659 -0.03104796 -0.05528807 -0.0061110193
00000000: 6350 aebd 97ca 133d 0ed2 233d ccd0 1dbd
00000010: 523c 583c 2f36 77b8 4602 dabc e82b 263f
00000020: 63fc 00be 5e0a a53d 59bb ad3d 1d81 c4bd
00000030: fc5e 73bd f4cf 603e b3d0 3abd 3dc7 5b3d
00000040: a253 143e 386e c4bd f916 443d 95ba 6c3d
00000050: 5926 103c 4ff1 283d 8cb4 933c 7d79 7bbd
00000060: 502d ea3c acfb 1c3d 35be 07be 38e2 263d
00000070: f6e1 a33b 32e2 0a3f f271 ae3e e621 853d
00000080: b9d0 7a3d f1de a83d 8b57 d9bd 0fb6 c0bc
00000090: 2aa4 1fbe 601e 973e a7a9 15be 7e4a d63d
000000a0: 1ae4 b83c 2905 083c 7760 6d3e 4132 b73d
000000b0: b5f7 093e 6c35 14b7 7b06 c638 d0e9 9337
000000c0: 5c12 2f3c a07a c0bd 4660 113e 85fd e3b6
000000d0: df1f 7fba 0382 f83c 37e8 863d c6f0 933c
000000e0: 08c7 b0bd 3c0e 67bd b90a d13c da6a 223c
000000f0: 1fcb 6a3a 4b58 febc be75 62bd f23e c8bb

mag_mlp.0.weight f4 [64, 2]
1.0821978 0.54592925 -0.434386 -0.16238369 -0.83888257 0.39802876 -0.16264658 -0.2538149
-0.5495931 -0.38650084 0.45048037 -0.3406621 -0.5602108 -0.54027426 0.13462736 0.3679805
0.9443323 -0.29375142 0.4676105 0.43228686 0.28519675 0.4708081 -0.26181823 0.57500577
-0.8927811 -0.43273416 -0.7439379 -0.77556294 -0.7142706 0.15482098 -0.98583275 -0.4615884
0.78303665 0.61874276 0.6168732 -0.33359048 0.35998556 -0.13104784 0.44358495 -0.014890439
-0.2687043 -0.00071686984 -0.67896104 0.45667985 -0.6101013 -0.7443236 -0.13305268 0.383741
0.83832103 -0.41733477 -0.8119287 -0.10126043 -1.0852873 -0.12434714 0.8060086 0.4473794
-0.9000517 0.5628266 -0.60348374 -0.20680054 -0.8595387 0.30186608 0.77338535 0.28113914
-0.7118946 -0.5873431 0.29826313 0.3443455 -0.6848492 -0.22384848 0.19786844 -0.2583631
-0.74109554 -0.032823585 -0.102333315 -0.035386004 1.2231483 0.33990115 0.1798586 -0.57114977
-0.1908133 0.20203087 0.005102974 -0.10878739 0.3725488 -0.28820267 -0.4209407 0.5552564
0.936196 0.17007612 -0.112033114 0.4857201 -0.65592444 -0.4377262 -0.12000059 -0.5739068
0.055096354 0.6528681 0.4209841 0.021782275 -0.92651194 -0.3209478 -1.083425 -0.15528636
-1.0292821 -0.08959165 1.247851 0.42804164 0.42670244 0.47380352 0.38381383 -0.42549935
-0.9118761 -0.5735841 -0.3218178 0.15125525 -0.2849715 0.2638907 -0.7591877 -0.57488084
-0.28182942 -0.6969673 0.5615481 0.2733094 -0.4777962 -0.24609385 -0.6815843 -0.53074515
00000000: 7585 8a3f 05c2 0b3f d767 debe e947 26be
00000010: 02c1 56bf 6dca cb3e d38c 26be 07f4 81be
00000020: 22b2 0cbf 70e3 c5be 5da5 e63e 436b aebe
00000030: fa69 0fbf 6a4f 0abf c1db 093e f167 bc3e
00000040: c3bf 713f 9666 96be a56a ef3e b454 dd3e
00000050: 4f05 923e c20d f13e 0a0d 86be 9433 133f
00000060: 4d8d 64bf 558f ddbe b772 3ebf 4b8b 46bf
00000070: 70da 36bf 6489 1e3e 895f 7cbf 5155 ecbe
00000080: 1775 483f ed65 1e3f 67eb 1d3f 5fcc aabe
00000090: 0750 b83e 6831 06be 911d e33e 07f7 73bc
000000a0: 9c93 89be 52ec 3bba 64d0 2dbf f1d1 e93e
000000b0: 992f 1cbf fe8b 3ebf f63e 08be b379 c43e
000000c0: 359c 563f e7ac d5be 8fda 4fbf a161 cfbd
000000d0: b2ea 8abf b7a9 febd 9456 4e3f ea0e e53e
000000e0: ca69 66bf 6715 103f e97d 1abf 85c3 53be
000000f0: ba0a 5cbf 318e 9a3e 95fc 453f 78f1 8f3e
00000100: b93e 36bf 1e5c 16bf f2b5 983e 0e4e b03e
00000110: 4752 2fbf 8938 65be 069e 4a3e 2b48 84be
00000120: 70b8 3dbf 0672 06bd 2194 d1bd eaf0 10bd
00000130: 2090 9c3f 8607 ae3e da2c 383e df36 12bf
00000140: 9064 43be 2ee1 4e3e d936 a73b eccb debd
00000150: b7be be3e 4d8f 93be 8a85 d7be 4925 0e3f
00000160: 8baa 6f3f 6f28 2e3e 9e71 e5bd 4eb0 f83e
00000170: aaea 27bf a61d e0be dfc2 f5bd 8eeb 12bf
00000180: b7ac 613d 5d22 273f 3a8b d73e be70 b23c
00000190: e32f 6dbf 4553 a4be acad 8abf 6303 1fbe
000001a0: 84bf 83bf d47b b7bd 95b9 9f3f 4628 db3e
000001b0: be78 da3e 6096 f23e 3f83 c43e 0ddb d9be
000001c0: b670 69bf 68d6 12bf 4dc5 a4be a8e2 1a3e
000001d0: c9e7 91be af1c 873e 205a 42bf 642b 13bf
000001e0: f24b 90be 736c 32bf 9ec1 0f3f 36ef 8b3e
000001f0: b4a1 f4be 0700 7cbe 4f7c 2ebf eade 07bf

mag_mlp.0.bias f4 [64]
-0.0039487323 -0.5878147 0.8670604 -0.10852006 0.0017955821 -0.45391738 0.121568926 -0.47846234
-0.65718955 0.042246833 0.38722932 0.7390751 0.3826398 -0.081610925 -0.19088086 -0.33951515
-0.10948525 -0.026627032 -0.030508125 -0.6820011 0.33732396 -0.13680127 -0.19546442 -0.04214763
-0.5722821 -0.10259346 -0.021498702 0.17675507 -0.50485057 0.053859822 0.9748895 0.008109818
0.31002885 0.25093433 0.3672413 -0.10174092 0.71073055 0.3619146 -0.5534922 -0.54317683
0.45568863 0.18070059 -0.4719764 -0.71477634 -0.5368526 0.43712476 0.13499258 0.29814035
0.3493608 0.09515676 -0.01244557 0.05645655 -0.1046142 -0.17654924 0.52620065 0.61066145
-0.24899094 0.5625139 0.18663019 0.19239712 0.2709972 0.41659188 0.3052122 0.00446741
00000000: 5e64 81bb 067b 16bf acf7 5d3f c43f debd
00000010: bd59 eb3a dc67 e8be 21f9 f83d 04f9 f4be
00000020: 933d 28bf 040b 2d3d ec42 c63e 0734 3d3f
00000030: 5de9 c33e a123 a7bd 4676 43be eed4 adbe
00000040: ce39 e0bd ef20 dabc 2dec f9bc a097 2ebf
00000050: bab5 ac3e a215 0cbe d327 48be fea2 2cbd
00000060: 1481 12bf 851c d2bd 0c1e b0bc 48ff 343e
00000070: e33d 01bf 1e9c 5c3d 5c92 793f 0bdf 043c
00000080: 1abc 9e3e 777a 803e 0d07 bc3e 8b5d d0bd
00000090: 70f2 353f df4c b93e aab1 0dbf a30d 0bbf
000000a0: 0550 e93e 9309 393e e4a6 f1be 95fb 36bf
000000b0: 2c6f 09bf d1ce df3e 7f3b 0a3e daa5 983e
000000c0: 6bdf b23e 8ce1 c23d 81e8 4bbc fc3e 673d
000000d0: f83f d6bd 53c9 34be 16b5 063f 4f54 1c3f
000000e0: 7bf7 7ebe e900 103f fc1b 3f3e c003 453e
000000f0: 25c0 8a3e 884b d53e c644 9c3e 5a63 923b

mag_mlp.2.weight f4 [64, 64]
-0.4668843 -0.054247778 -0.35747656 0.077783585 0.21745135 0.004167104 0.1842534 -0.20794757
-0.15975401 -0.2794594 -0.21428685 -0.2743244 0.077728994 0.08558066 -0.31493545 -0.06316191
-0.34865028 0.08017294 -0.0908782 -0.11299839 0.15386477 -0.079041086 0.02415669 -0.273708
0.00072981487 -0.172227 -0.20672765 -0.5031873 -0.15456043 -0.07935639 -0.41155565 -0.36434498
0.12867004 -0.13715988 0.083740644 -0.01332097 0.10574437 0.002285125 -0.5075641 -0.027509967
-0.08420535 0.20293353 0.014687237 -0.03846655 -0.41469723 -0.1912132 0.2439341 0.085199706
-0.3431827 0.02169741 -0.20245296 -0.2947006 -0.22951035 -0.82067853 -0.103744514 0.17668748
0.0065216846 0.012797695 -0.18775585 0.16490278 0.040033765 -0.047116373 0.1328358 0.26731813
-0.49231818 -0.024942087 -0.23475344 0.107963994 -0.48889363 0.30225116 -0.31634694 -0.07003023
-0.019908153 -0.23683493 -0.36068198 -0.2588659 -0.64639825 -0.39609852 -0.0088823205 -0.39287108
-0.44090208 0.016300118 0.023594748 -0.13352327 -0.2793527 0.050272033 -0.10895702 -0.024622878
0.19522262 -0.123053335 -0.1071318 -0.3353485 0.10698126 -0.36493677 -0.68352157 -0.3181049
-0.39391702 -0.11822119 -0.59526324 0.19403014 -0.8040114 0.042009484 -0.36519665 0.47774383
-0.44457078 0.033046976 0.20108914 0.054457426 -0.3964509 -0.28547493 -0.48424336 0.15454586
-0.2681669 -0.05214781 -0.36880818 -0.266763 0.030512359 -0.20739076 -0.13543373 0.13113742
-0.53489774 -0.22732504 -0.14871988 -0.41359323 -0.051766336 -0.18817246 -0.21591574 -0.5397431
-0.12501563 0.09703788 -0.3568589 0.17801614 0.21207985 -0.04629478 0.06279766 -0.03180854
-0.06534827 -0.06085398 -0.14301921 -0.017246656 0.1758602 0.1979788 0.01878624 -0.08482131
-0.18001574 -0.057729397 -0.08963199 -0.12724818 -0.01918285 -0.16978167 0.02426904 -0.047566827
0.02456549 -0.2139053 -0.30644667 -0.16585986 -0.04364603 -0.0063631083 -0.26660097 -0.21907976
0.08478241 -0.10527122 0.08238521 0.13426061 -0.0793665 -0.084917404 -0.34354463 0.17487699
-0.0043316945 -0.073656134 0.16463794 -0.052697748 -0.39577723 -0.13481171 -0.018565774 0.0917699
-0.17705926 -0.04714703 -0.2791229 -0.23029113 -0.16148385 -0.42162886 -0.24183156 0.07076482
0.08253175 -0.19748114 0.028048223 0.06268732 0.022057 -0.15539272 0.1822385 0.15627956
-0.41177887 -0.10602253 -0.28905752 0.14704901 0.20378053 0.08699498 0.27721947 -0.15935695
-0.2449635 -0.22877866 -0.24813753 -0.31140262 0.08812422 0.12768108 -0.2334917 -0.1513903
-0.24309504 -0.0876185 0.10266646 -0.24583004 0.12899555 -0.2402278 0.21439335 -0.12709075
0.035083942 -0.18594 -0.3053073 -0.4715519 -0.1487555 0.05422442 -0.23265879 -0.49052262
0.16486605 -0.123160414 0.11540677 0.11972709 0.11013763 0.09259181 -0.30187765 0.11091804
-0.10423486 0.0036911943 -0.07799561 -0.083903775 -0.32367912 -0.14746064 0.085648894 0.09350953
-0.22823401 -0.09422784 -0.27499914 -0.20533459 -0.13117324 -0.7633248 -0.1382803 0.14212397
0.15144905 0.05973186 -0.22567919 0.2779914 0.07844045 -0.14359039 0.3159053 0.13247816
00000000: 750b efbe eb32 5ebd 2b07 b7be 004d 9f3d
00000010: 91ab 5e3e 348c 883b ecac 3c3e 35f0 54be
00000020: 8e96 23be 4d15 8fbe 036e 5bbe 3f74 8cbe
00000030: 6130 9f3d ea44 af3d 383f a1be 085b 81bd
00000040: 4a82 b2be b631 a43d 5a1e babd b36b e7bd
00000050: ba8e 1d3e 4be0 a1bd 40e4 c53c 7423 8cbe
00000060: 0c51 3f3a 465c 30be 6ab0 53be e2d0 00bf
00000070: 1745 1ebe 9a85 a2bd 6cb7 d2be 6d8b babe
00000080: 14c2 033e a473 0cbe 3780 ab3d 3340 5abc
00000090: 8190 d83d 09c2 153b b9ef 01bf 955c e1bc
000000a0: db73 acbd cfcd 4f3e bda2 703c 1a8f 1dbd
000000b0: 3253 d4be 65cd 43be dcc9 793e 2f7d ae3d
000000c0: a5b5 afbe c4be b13c d44f 4fbe ffe2 96be
000000d0: c304 6bbe fd17 52bf 0178 d4bd 90ed 343e
000000e0: dbb3 d53b 6cad 513c 1243 40be 46dc 283e
000000f0: 72fa 233d 19fd 40bd 1c06 083e ecdd 883e
00000100: 2111 fcbe 5953 ccbc 3563 70be 3a1c dd3d
00000110: 4450 fabe aac0 9a3e 3af8 a1be 026c 8fbd
00000120: 6c16 a3bc db84 72be 4fab b8be 128a 84be
00000130: 5b7a 25bf 6dcd cabe 2787 11bc 6626 c9be
00000140: ebbd e1be d387 853c c649 c13c 53ba 08be
00000150: 5107 8fbe 0cea 4d3d dc24 dfbd ebb5 c9bc
00000160: 70e8 473e 6303 fcbd eb67 dbbd ccb2 abbe
00000170: fe18 db3d fed8 babe 45fb 2ebf a5de a2be
00000180: 7eaf c9be f41d f2bd 2c63 18bf d6af 463e
00000190: b1d3 4dbf 2312 2c3d 0efb babe d79a f43e
000001a0: c89e e3be 445c 073d 50ea 4d3e c00e 5f3d
000001b0: 9dfb cabe c529 92be bfee f7be 4541 1e3e
000001c0: 2c4d 89be f198 55bd 6dd4 bcbe 2995 88be
000001d0: 0ef5 f93c 3e5e 54be 24af 0abe e348 063e
000001e0: 0fef 08bf e5c7 68be 064a 18be 7ec2 d3be
000001f0: f008 54bd 48b0 40be 0419 5dbe 9b2c 0abf
00000200: 1904 00be ccbb c63d 36b6 b6be dd49 363e
00000210: 762b 593e 989f 3dbd 0f9c 803d ac49 02bd
00000220: 50d5 85bd 0642 79bd a173 12be dc48 8dbc
00000230: b214 343e f4ba 4a3e 9ae5 993c ccb6 adbd
00000240: 0c56 38be a975 6cbd fa90 b7bd 594d 02be
00000250: 5a25 9dbc 3fdb 2dbe decf c63c 6fd5 42bd
00000260: 913d c93c fe09 5bbe 94e6 9cbe 2bd7 29be
00000270: 2ec6 32bd 9f81 d0bb ec7f 88be 7256 60be
00000280: 66a2 ad3d 7098 d7bd 94b9 a83d 9d7b 093e
00000290: e78a a2bd 2de9 adbd 15e5 afbe f412 333e
000002a0: e3f0 8dbb 07d9 96bd d996 283e 98d9 57bd
000002b0: 50a3 cabe 150c 0abe 4017 98bc dbf1 bb3d
000002c0: 064f 35be 3e1d 41bd 32e9 8ebe 70d1 6bbe
000002d0: 065c 25be bddf d7be b1a2 77be 25ed 903d
000002e0: 6806 a93d 7f38 4abe 63c5 e53c 3662 803d
000002f0: e2b0 b43c 451f 1fbe bb9c 3a3e c007 203e
00000300: aed4 d2be 5722 d9bd 59ff 93be 0494 163e
00000310: d8ab 503e 6d2a b23d b6ef 8d3e 782e 23be
00000320: b6d7 7abe f444 6abe c417 7ebe 2a70 9fbe
00000330: 797a b43d d4be 023e 7318 6fbe 0f06 1bbe
00000340: e8ed 78be 5471 b3bd cb42 d23d dfba 7bbe
00000350: 6917 043e 47fe 75be ee89 5b3e 1424 02be
00000360: 2eb4 0f3d 0e67 3ebe 3d51 9cbe 406f f1be
00000370: 5d53 18be 6d1a 5e3d 1b3e 6ebe c825 fbbe
00000380: a5d2 283e 873b fcbd 625a ec3d 7a33 f53d
00000390: d68f e13d c6a0 bd3d b58f 9abe ff28 e33d
000003a0: 1679 d5bd f7e7 713b 2abc 9fbd bed5 abbd
000003b0: 45b9 a5be ecff 16be b068 af3d ed81 bf3d
000003c0: 2db6 69be 87fa c0bd b0cc 8cbe 3b43 52be
000003d0: 4752 06be 4169 43bf 5a99 0dbe f288 113e
000003e0: 7615 1b3e 65a9 743d 7218 67be e454 8e3e
000003f0: 63a5 a03d 5c09 13be 57be a13e 5ba8 073e

mag_mlp.2.bias f4 [64]
0.044838835 -0.17093864 -0.057847396 0.22552942 -0.11660517 -0.05855611 -0.23034509 -0.08706165
0.02081803 0.10238572 -0.0044530137 -0.1297835 -0.0634655 -0.010900654 -0.05048111 0.012789297
-0.13683677 -0.07205773 -0.022782512 -0.14506266 0.1766361 0.11016702 -0.09054882 0.0893524
0.02033794 0.07208839 0.045854773 0.10284717 0.092882276 0.071291536 -0.09273283 0.032370634
-0.04633142 -0.030275252 0.05572104 -0.0017154784 0.04606607 -0.020038296 0.02661898 -0.08640245
-0.09737358 -0.003722968 -0.11074883 0.11522034 -0.05867719 -0.000623315 0.1311821 0.004804353
-0.0313501 0.08397604 -0.023995344 0.042643867 -0.0647062 -0.11705701 -0.08068775 -0.0010793403
0.027771756 -0.08586346 -0.03220417 0.037465114 0.14106958 -0.033763804 0.017103486 0.0004813853
00000000: eda8 373d 8a0a 2fbe 64f1 6cbd 2ff1 663e
00000010: b1ce eebd 88d8 6fbd 95df 6bbe 614d b2bd
00000020: 938a aa3c 9baf d13d 96ea 91bb f7e5 04be
00000030: 33fa 81bd a898 32bc 48c5 4ebd 338a 513c
00000040: f01e 0cbe 0193 93bd 64a2 babc 4e8b 14be
00000050: 18e0 343e 3f9f e13d a971 b9bd 64fe b63d
00000060: c09b a63c 14a3 933d 37d2 3b3d 89a1 d23d
00000070: 1039 be3d 4c01 923d b6ea bdbd 1297 043d
00000080: 04c6 3dbd ce03 f8bc bf3b 643d e7d9 e0ba
00000090: c7af 3c3d 5a27 a4bc 0c10 da3c c5f3 b0bd
000000a0: cd6b c7bd 0afd 73bb 48d0 e2bd a4f8 eb3d
000000b0: 7e57 70bd f665 23ba 9a54 063e d66d 9d3b
000000c0: f668 00bd a1fb ab3d e291 c4bc 56ab 2e3d
000000d0: af84 84bd 96bb efbd 9e3f a5bd a778 8dba
000000e0: 9881 e33c 2fd9 afbd 85e8 03bd 0575 193d
000000f0: 8b74 103e ea4b 0abd 9c1c 8c3c 7162 fc39

mag_mlp.4.weight f4 [1, 64]
-0.1766485 0.23954925 -0.08776747 -0.20237765 0.02718125 -0.12058441 0.03965165 -0.01234067
-7.354838e-05 4.6141704e-05 0.00778705 0.2306582 0.00014651495 0.22858252 -0.1020209 -0.00037483854
0.0011219824 -0.1159803 0.25553954 0.07487519 -0.14874832 0.03286188 0.20216931 -0.052167896
-0.03612892 0.16938052 -0.0002303413 -0.15987377 0.3423599 0.00022730797 0.25486705 -0.112450145
0.037338246 0.0003476596 -0.14885898 0.0935904 0.091279484 -0.109353654 0.076350585 0.2319752
0.15380587 -0.09272333 0.038055502 0.0002596959 0.10635882 0.061942637 -0.0928087 -0.075323574
0.13833135 0.42814708 0.060540877 -0.066316985 -0.00021744116 0.25865674 -0.14459701 -0.15211304
0.0016400197 0.388222 -0.024580779 -0.00036315052 -0.14989632 0.0027501243 -0.0024251258 -0.0014004443
00000000: 58e3 34be 664c 753e 6ebf b3bd 163c 4fbe
00000010: 36ab de3c f6f4 f6bd c569 223d 8630 4abc
00000020: fc3d 9ab8 4788 4138 832a ff3b aa31 6c3e
00000030: cfa1 1939 8911 6a3e 55f0 d0bd fa85 c4b9
00000040: 7b0f 933a 1487 edbd 14d6 823e 2a58 993d
00000050: 7b51 18be 2e9a 063d 7905 4f3e 01ae 55bd
00000060: ebfb 13bd 1672 2d3e c687 71b9 f3b5 23be
00000070: cc49 af3e 8559 6e39 ef7d 823e 434c e6bd
00000080: fdef 183d 1546 b639 7d6e 18be 53ac bf3d
00000090: bdf0 ba3d cff4 dfbd b25d 9c3d e88a 6d3e
000000a0: 497f 1d3e bbe5 bdbd 16e0 1b3d cb27 8839
000000b0: a7d2 d93d 90b7 7d3d 7d12 bebd 3f43 9abd
000000c0: bca6 0d3e 1836 db3e b6f9 773d 33d1 87bd
000000d0: eb00 64b9 a86e 843e 3d11 14be 85c3 1bbe
000000e0: eef5 d63a 09c5 c63e a15d c9bc 3d65 beb9
000000f0: 6c7e 19be 6e3b 343b dcee 1ebb 1d8f b7ba

wall_gate.0.weight f4 [64, 1]
0.38229275 0.5829636 -0.5242907 -1.077084 0.11136534 -0.9860354 -0.64787596 0.20140456
-0.6389755 0.73282295 1.1086643 1.142954 -0.9014796 -0.7927289 0.5489559 0.61772174
0.57693976 -1.3008544 1.0080411 -0.9952577 -0.50275505 -0.87935704 -0.6426032 -0.62141246
0.025788294 1.2558903 1.1530515 0.37166914 -1.0949485 -1.1128081 1.4715048 0.79930973
0.28569055 0.8131917 0.7026591 0.7025387 1.2839558 0.81685185 -1.1551987 -0.17953575
-0.09120459 0.16940515 -0.61574113 -0.46197402 -0.691663 -0.6405643 -1.0340306 -0.45403993
0.70608115 0.38791952 1.232902 -1.0647949 -1.3122281 0.5812764 -1.0521295 -0.17450581
1.1923261 -0.72543985 0.83505046 -0.9678185 -0.8873704 -0.8682769 -0.9810512 0.43929443
00000000: e0bb c33e 1a3d 153f ea37 06bf e3dd 89bf
00000010: 8313 e43d d16c 7cbf 33db 25bf ff3c 4e3e
00000020: e693 23bf 499a 3b3f b6e8 8d3f 514c 923f
00000030: 5ec7 66bf 48f0 4abf 6088 0c3f 0323 1e3f
00000040: 53b2 133f 6682 a6bf 7e07 813f 35c9 7ebf
00000050: 8eb4 00bf 8b1d 61bf a581 24bf e314 1fbf
00000060: f941 d33c 03c1 a03f 3197 933f 6b4b be3e
00000070: 4627 8cbf 7f70 8ebf 455a bc3f 909f 4c3f
00000080: 0846 923e 552d 503f 77e1 333f 94d9 333f
00000090: aa58 a43f 341d 513f 8ddd 93bf 38d8 37be
000000a0: 79c9 babd 8b78 2d3e 36a1 1dbf dc87 ecbe
000000b0: d410 31bf 06fc 23bf 1d5b 84bf ec77 e8be
000000c0: bcc1 343f 639d c63e bccf 9d3f 334b 88bf
000000d0: 17f7 a7bf 88ce 143f 2eac 86bf a7b1 32be
000000e0: 249e 983f 6db6 39bf dec5 553f f4c2 77bf
000000f0: b52a 63bf 6547 5ebf 2c26 7bbf 33eb e03e

wall_gate.0.bias f4 [64]
-0.402469 0.55879915 0.10875953 0.25179738 0.3450906 0.2417857 -0.16604899 0.12310531
-0.13973187 0.034974385 0.42094496 0.9079135 0.37606826 0.74573255 -1.2097539 -0.05222249
-0.20343497 0.92206204 0.67904425 0.5461913 -0.44102895 0.49980325 0.70881355 -0.27763316
-0.7756945 -0.06931853 0.58166003 -0.63193905 0.8694238 1.0821524 -0.18452992 -0.36330837
-0.23295747 -0.9376758 -1.3961167 0.6236204 0.24648902 0.4308555 0.6914242 -0.54614025
-0.44661662 -0.06329775 0.70296174 -0.44428667 -0.058185842 0.6519523 0.5979257 -0.2677893
0.69288194 -0.6001384 -0.6233071 0.7966046 1.2149291 -0.36975324 0.9343896 0.051770307
-0.49056193 0.6062689 0.19580711 0.1315625 0.40594605 0.24508296 0.5379864 -0.24395767
00000000: 6b10 cebe 760d 0f3f 51bd de3d 96eb 803e
00000010: b7af b03e ac96 773e bf08 2abe a31e fc3d
00000020: df15 0fbe 4d41 0f3d 1986 d73e 056d 683f
00000030: 058c c03e 54e8 3e3f 37d9 9abf 40e7 55bd
00000040: 4251 50be 420c 6c3f d8d5 2d3f 31d3 0b3f
00000050: 8cce e1be 36e6 ff3e ce74 353f ef25 8ebe
00000060: ea93 46bf e0f6 8dbd ace7 143f c2c6 21bf
00000070: 8f92 5e3f f883 8a3f 69f5 3cbe 8e03 babe
00000080: 678c 6ebe 850b 70bf f4b3 b2bf 96a5 1f3f
00000090: 9e67 7c3e 1899 dc3e 2d01 313f d9cf 0bbf
000000a0: efaa e4be 40a2 81bd 4df5 333f 8b79 e3be
000000b0: 4754 6ebd 59e6 263f a911 193f ae1b 89be
000000c0: b660 313f aca2 19bf 0e91 1fbf 47ee 4b3f
000000d0: cc82 9b3f 4c50 bdbe 2834 6f3f 1a0d 543d
000000e0: ef2a fbbe 7034 1b3f a981 483e 52b8 063e
000000f0: 29d8 cf3e 07f7 7a3e 7ab9 093f 0ad0 79be

wall_gate.2.weight f4 [1, 64]
-0.09412445 -0.17111066 0.48876244 0.5145066 -0.008124125 0.620603 0.33574525 -0.047068574
0.16631138 -0.15196145 -0.2330125 -0.16685508 2.2988744 0.59316343 0.08571171 -0.22616161
-0.6615563 0.97835076 -0.25220767 1.5396872 0.045705605 1.1694195 0.20471941 0.10703888
0.1450336 -0.37994215 -0.26448616 -0.102043085 0.8477069 0.61186486 -0.43610543 -0.5561262
-0.05281341 -0.0037791363 0.097424686 -0.16659795 -0.29171228 -0.14766163 1.365359 -0.001519456
0.024491495 -0.2950502 0.18128282 0.13638294 0.26642144 0.20592092 1.4348111 0.06695499
-0.04848537 -0.10101772 -0.35213578 0.95844394 0.8401907 -0.13890153 0.72031474 0.26335865
-0.9104526 0.5706046 -0.27576667 0.36148888 2.3435605 0.73646694 1.4836768 -0.11719062
00000000: 52c4 c0bd a237 2fbe 123f fa3e b4b6 033f
00000010: 0d1b 05bc d7df 1e3f cde6 ab3e faca 40bd
00000020: 884d 2a3e c89b 1bbe d49a 6ebe 0fdc 2abe
00000030: c220 1340 8fd9 173f 9f89 af3d e996 67be
00000040: c15b 29bf 3275 7a3f 5d21 81be 7814 c53f
00000050: cd35 3b3d 8aaf 953f f7a1 513e 3337 db3d
00000060: b083 143e c787 c2be bb6a 87be f7fb d0bd
00000070: 5203 593f 2da3 1c3f 3649 dfbe 495e 0ebf
00000080: e052 58bd 63ab 77bb 9886 c73d a798 2abe
00000090: 505b 95be 9c34 17be 15c4 ae3f 7c28 c7ba
000000a0: 63a2 c83c d210 97be 34a2 393e f8a7 0b3e
000000b0: 6468 883e efdc 523e e4a7 b73f b31f 893d
000000c0: 9898 46bd 61e2 cebd 244b b4be 955c 753f
000000d0: bd16 573f 343c 0ebe 8c66 383f f2d6 863e
000000e0: 6c13 69bf 2513 123f 4a31 8dbe 1215 b93e
000000f0: e5fc 1540 1989 3c3f 1fe9 bd3f a301 f0bd

wall_mag.0.weight f4 [64, 2]
0.039861202 0.6572853 0.46807438 -0.53111106 0.74395543 -0.35045034 0.05121891 -0.19211775
0.33944634 -0.002828813 0.11147521 0.27614987 -0.045524683 0.12190505 0.18196702 0.2691378
0.0005621172 -0.6277028 0.6800572 0.7681575 -0.63711655 0.64713186 0.21473074 0.12326967
-0.6831731 -0.024241647 -0.25979632 1.0846428 0.3832229 0.20034702 0.2680096 0.282559
0.2690438 -0.35620737 -0.17979002 0.56168014 0.33075643 0.2532233 0.20980206 -0.70444137
0.77464586 0.8603867 0.73085594 -0.7070493 0.48773804 -0.48884943 -0.6277607 -0.01217852
0.36823314 -0.19838531 0.7186721 -0.42615533 -0.4784073 -2.4423196 -0.32468513 -0.44802812
0.014855825 -0.00060911797 0.58775115 -0.68071765 0.3061182 -0.44263712 0.6926041 -0.73769605
-0.3581649 0.35250637 0.46695223 -0.17301024 0.5580374 0.23601176 0.61619025 0.11780412
-0.49938148 -0.8992812 -0.19479352 0.9140044 -0.088273086 0.6069512 0.20545281 -0.5536697
0.7133388 0.04440181 0.119513094 0.16520491 -0.72259873 0.041746434 0.0565331 -0.030423561
-0.5351115 -0.14977893 0.3090664 -0.013078929 -0.18899103 -0.5248266 0.62704587 -0.0022629632
-0.7845944 -0.08833998 0.08271876 -0.7041984 0.42116758 -0.1772605 0.45536092 0.8387855
0.44167084 -0.638116 0.2187686 -0.5635883 -0.17251313 0.7295861 -0.5678359 -0.35865587
-0.36891374 -0.48156115 0.7346788 -0.837596 0.6764779 0.086646184 -0.47323054 1.11076
0.4857345 0.62197155 0.30231434 -0.032240078 0.061700147 -0.1465284 -0.5761104 -0.032034263
00000000: 8045 233d d943 283f 72a7 ef3e e5f6 07bf
00000010: dd73 3e3f 3a6e b3be ebca 513d 84ba 44be
00000020: e9cb ad3e 9b63 39bb 1d4d e43d 8463 8d3e
00000030: 1778 3abd 5ba9 f93d 9055 3a3e 6ecc 893e
00000040: 0c5b 133a 21b1 20bf 3b18 2e3f f8a5 443f
00000050: 121a 23bf 6faa 253f 60e2 5b3e cf74 fc3d
00000060: 6fe4 2ebf 6b96 c6bc 0604 85be 93d5 8a3f
00000070: cb35 c43e c527 4d3e 8e38 893e 93ab 903e
00000080: 1cc0 893e d060 b6be e01a 38be 45ca 0f3f
00000090: e858 a93e 7ca6 813e 5ad6 563e 4556 34bf
000000a0: 314f 463f 4e42 5c3f 6019 3b3f 2f01 35bf
000000b0: cdb8 f93e 794a fabe edb4 20bf 6a88 47bc
000000c0: 0e89 bc3e 8525 4bbe e5fa 373f 0831 dabe
000000d0: cdf1 f4be f74e 1cc0 213d a6be f163 e5be
000000e0: d965 733c 37ad 1fba dc76 163f 8343 2ebf
000000f0: 86bb 9c3e 55a1 e2be 814e 313f a6d9 3cbf
00000100: 6461 b7be b77b b43e 5d14 ef3e 9929 31be
00000110: 8adb 0e3f 11ad 713e a5be 1d3f 4943 f13d
00000120: eeae ffbe 4b37 66bf f477 47be 31fc 693f
00000130: 85c8 b4bd 2761 1b3f 3962 523e 4cbd 0dbf
00000140: 5f9d 363f acde 353d 48c3 f43d 7a2b 293e
00000150: 3bfc 38bf 4ffe 2a3d 408f 673d d53a f9bc
00000160: 11fd 08bf a65f 19be f43d 9e3e 0149 56bc
00000170: dd86 41be 095b 06bf 1486 203f 394e 14bb
00000180: 2edb 48bf 97eb b4bd 7468 a93d 5946 34bf
00000190: 47a3 d73e c783 35be 1125 e93e a6ba 563f
000001a0: ae22 e23e 925b 23bf e004 603e 5347 10bf
000001b0: 48a7 30be 28c6 3a3f b25d 11bf bea1 b7be
000001c0: 43e2 bcbe 2f8f f6be e913 3c3f b16c 56bf
000001d0: a82d 2d3f 8e73 b13d 464b f2be 622d 8e3f
000001e0: 31b2 f83e 8739 1f3f f2c8 9a3e 2c0e 04bd
000001f0: 4bb9 7c3d 8a0b 16be f97b 13bf 5c36 03bd

wall_mag.0.bias f4 [64]
0.8383397 0.18784404 -0.60624015 0.16357946 -0.12211264 -0.41840178 -0.10667027 0.05130037
0.47430167 0.27525368 -0.42422357 0.6826506 0.3052274 -0.086189166 0.53974295 -0.35823336
0.23875888 -0.5319394 -0.5034226 0.027687123 -0.3592248 -0.52747107 0.3952283 0.20682128
0.053266007 -0.19705081 0.07097761 0.49950528 -0.004778034 -0.13366772 0.16736406 -0.019510292
0.24258761 -0.016615087 -0.45259044 -0.38813794 0.04093085 -0.058716554 -0.049463723 -0.19446819
0.46777603 -0.71798974 0.4157302 0.1773156 0.37292412 -0.10100042 0.3578246 0.00778605
-0.013174269 0.4723838 0.023712633 -0.0847898 -0.47522885 0.46543294 0.0031464496 0.43118036
0.40940115 0.43914047 -0.31303334 0.22508207 0.027866265 -0.07812803 0.119552195 0.3543985
00000000: 6e9d 563f 305a 403e 8e32 1bbf 6081 273e
00000010: 3116 fabd c238 d6be f175 dabd 5620 523d
00000020: abd7 f23e 0dee 8c3e d533 d9be 31c2 2e3f
00000030: c446 9c3e f283 b0bd 982c 0a3f 5d6a b7be
00000040: 357d 743e 2e2d 08bf 4ee0 00bf 1bd0 e23c
00000050: 50ec b7be 5808 07bf 5d5b ca3e f5c8 533e
00000060: 752d 5a3d b0c7 49be b65c 913d 28bf ff3e
00000070: 0e91 9cbb 31e0 08be 7c61 2b3e 0cd4 9fbc
00000080: e368 783e 5d1c 88bc efb9 e7be 04ba c6be
00000090: 1ba7 273d c580 70bd 799a 4abd ab22 47be
000000a0: 5780 ef3e 2dce 37bf 97da d43e 3892 353e
000000b0: e9ef be3e 4fd9 cebd c934 b73e 1f22 ff3b
000000c0: e4d8 57bc 4adc f13e ff40 c23c 46a6 adbd
000000d0: 3251 f3be 3a4d ee3e aa34 4e3b acc3 dc3e
000000e0: 079d d13e 05d7 e03e e845 a0be ea7b 663e
000000f0: cb47 e43c 9701 a0bd c8d7 f43d b873 b53e

wall_mag.2.weight f4 [1, 64]
0.14248051 -0.15804847 -0.030295776 -0.008697135 0.0015395829 -0.016927991 -0.00015786356 0.18606836
-0.15620601 0.17460278 -0.22507751 0.16127083 -0.035361588 0.45474035 0.07271527 0.02408615
-0.083807 -0.13158266 0.023005782 -0.116338745 0.15237634 -0.10080836 -0.11254086 -0.05647406
-0.011791599 -0.0876182 0.7139356 -0.03505802 5.261179e-05 -0.15967093 -0.07080265 -0.22160505
0.12587953 -0.011634397 0.005750922 0.025665337 0.039818365 0.16573709 0.11441049 -0.1682972
0.07281161 -0.1340733 -0.11296651 -0.02712376 -0.13185176 0.0010477108 -0.04577948 0.12881848
-0.24305536 -0.2257709 -0.0074104364 0.13871828 -0.07653085 -0.1739462 0.048835993 -0.12817097
-0.17785719 -0.27567688 0.06952241 0.20709965 0.18336448 0.0053845965 -0.0061918143 -0.015225628
00000000: 69e6 113e 75d7 21be d92e f8bc 6e7e 0ebc
00000010: d4cb c93a 92ac 8abc 2d88 25b9 b488 3e3e
00000020: 78f4 1fbe 12cb 323e b87a 66be 2e24 253e
00000030: 50d7 10bd bad3 e83e beeb 943d 5150 c53c
00000040: 01a3 abbd 9bbd 06be 9f76 bc3c 0243 eebd
00000050: 8b08 1c3e 9d74 cebd d37b e6bd 5851 67bd
00000060: 8d31 41bc 2c71 b3bd 7cc4 363f 0099 0fbd
00000070: 7bab 5c38 c780 23be fb00 91bd 6fec 62be
00000080: 90e6 003e 339e 3ebc 3b72 bc3b 1d40 d23c
00000090: 9518 233d fcb6 293e 0c50 ea3d 1a56 2cbe
000000a0: 411e 953d 834a 09be fc5a e7bd a632 debc
000000b0: 2604 07be 5753 893a 4483 3bbd fee8 033e
000000c0: 81e3 78be 7d30 67be 3fd3 f2bb 2a0c 0e3e
000000d0: 35bc 9cbd f41e 32be 4008 483d 403f 03be
000000e0: 3220 36be 8525 8dbe c461 8e3d ee11 543e
000000f0: e6c3 3b3e 4571 b03b b4e4 cabb ea74 79bc
